trained_models/model25.ckpt (torch_old, 52625 bytes, 6 tensors)

fc1.weight f4 [100, 25]
000000 8c 45 9e 3e 05 29 2e bf ed bb 7e bf bd 15 e2 3e
       0.30912435 -0.6803134 -0.995055 0.4415721
000010 f8 49 a4 3f 89 83 a7 bd b2 6a f9 3e 59 1f a0 bf
       1.2835073 -0.08179385 0.48714215 -1.2509567
000020 0b 31 89 3b cd 68 03 bf 32 e0 2f bf da 8e 83 be
       0.0041867546 -0.5133179 -0.6870147 -0.25694925
000030 30 8d 33 bf f5 52 9b 3f bd 3e 9d bf 31 35 84 3f
       -0.7013731 1.2134691 -1.2284771 1.0328733
000040 0a 76 19 bf e5 31 1d 3f 41 51 dc 3e 3f 95 33 bf
       -0.5994574 0.6140426 0.43030742 -0.70149606
000050 1a a1 14 bf ee 16 c0 bf 49 df 8e bf 44 7f 6b 3f
       -0.5805832 -1.5006998 -1.1161891 0.91991067
000060 03 27 64 bf bc 67 6c bf d7 e2 d3 bc 6b 82 c2 3f
       -0.8912203 -0.92345786 -0.025865002 1.519605
000070 55 38 0b 3f eb 6a 9e 3d d8 2a 01 bf b3 36 f6 be
       0.5438283 0.07735237 -0.50456 -0.48088607
000080 47 00 c1 be 6f 5a 28 bf ea 62 a6 3f 0d eb 03 bf
       -0.37695524 -0.6576299 1.2998936 -0.51530534
000090 f6 bc 75 bd 49 b1 ac be d8 75 09 40 d9 2b 63 3e
       -0.05999466 -0.33729008 2.1478176 0.22184695
0000a0 1e 4a 5c 3f dc 8a c7 bf d0 39 ad bf 40 8f 8a 3f
       0.86050594 -1.5589252 -1.3533268 1.0824966
0000b0 0e 5b c2 bf b9 ce 11 3f ae 78 f7 3e 30 c7 8a be
       -1.5184038 0.5695606 0.4833426 -0.27105093
0000c0 2b e4 95 3e a9 27 fa be 70 e2 c7 3f 3e f6 01 c0
       0.2927564 -0.48858383 1.5615978 -2.0306544
0000d0 2a 0f 5b 3f 9c aa 99 be 5e a0 92 3f ba ef 3b bf
       0.85570014 -0.30012977 1.145519 -0.7341267
0000e0 a8 95 76 3f a6 54 ce be a3 1b 8b 3f bf 28 bd be
       0.9632211 -0.40298957 1.0867809 -0.3694515
0000f0 35 97 90 bf b6 78 e2 be c6 d2 ec be 54 53 63 3f
       -1.1296145 -0.4423272 -0.46254557 0.88799024
000100 ff f3 8c 3e 3a 24 90 3e 28 d5 28 bf 14 93 f4 3f
       0.27529904 0.2815264 -0.6595025 1.9107385
000110 5e 93 da 3e 45 aa 20 be 3e a4 62 bf f9 18 44 3e
       0.42690557 -0.15689953 -0.88531864 0.19150151
000120 57 66 fc be 8e 37 ee 3d 55 f7 c2 ba 9e 11 7e bf
       -0.4929683 0.1163169 -0.0014874736 -0.9924563
000130 8f a9 8d bf 1e bb 4c bf 25 93 e6 be f0 c2 25 3d
       -1.106737 -0.7997302 -0.45034137 0.04046911
000140 18 52 ef be cb 00 04 3e 5c ac d1 3e 99 e6 ed be
       -0.4674232 0.12890927 0.40951812 -0.46464995
000150 e3 a6 63 bf c0 3e 84 3f c5 d1 b6 be 55 ef df be
       -0.88926524 1.033165 -0.35706916 -0.43737283
000160 5b 93 86 bf 98 c0 12 be 42 21 d4 be c5 7c 3c 3e
       -1.0513719 -0.14331281 -0.41431624 0.18406971
000170 88 ec 7d bf 55 f7 ca bc c1 bc 38 3e dc 49 13 be
       -0.99189043 -0.02477614 0.18040754 -0.14383644
000180 b1 9f 9b bf 38 65 92 3f 56 db 0b 3f eb 7e 97 be
       -1.2158109 1.143714 0.54631555 -0.29589018
000190 96 39 de be 7e ff 9b be 74 af dc bf 48 d1 b0 3f
       -0.4340331 -0.30468363 -1.7241044 1.3813868
0001a0 59 7f 42 bf 86 f0 f1 3f d3 b5 d0 3e e5 50 69 3d
       -0.7597557 1.8901527 0.4076372 0.056961913
0001b0 0c a2 a6 3f d3 f6 a3 bf bc f7 68 3f b3 5e 80 3e
       1.3018203 -1.28097 0.9100301 0.2507225
0001c0 0f 35 32 3f 9c 8d 15 3e c9 a7 06 3f 39 9b 84 3c
       0.6961221 0.14604801 0.5259977 0.016187297
0001d0 20 c8 9d 3f c7 0a a1 bd f7 9c 22 be 79 95 b8 3e
       1.2326698 -0.07863384 -0.1588019 0.3605154
0001e0 6e a3 8b 3e af 84 4b bf e3 9c 66 3f 68 77 52 3e
       0.27273124 -0.79499334 0.9008314 0.20553362
0001f0 5d f3 12 bf e3 57 4d bf 1a 74 6c be 8f 7a d7 3f
       -0.5740259 -0.8021223 -0.23091164 1.6834277
000200 b7 59 0e bf e1 7e 2f 3e 71 cf 87 3f dd 01 3d 3e
       -0.55605644 0.17138244 1.0610181 0.18457742
000210 fc f0 f1 3f 43 46 45 bf 0e 79 2f bf 37 c9 79 3f
       1.8901668 -0.77060336 -0.6854409 0.97572654
000220 24 bc 6f 3f 8b cb 06 3b 9a 1e 86 bf c1 e3 eb bf
       0.93646455 0.0020568098 -1.0478089 -1.842888
000230 86 39 04 bf 6d 11 11 c0 6c 2c ab bd 85 d7 15 bf
       -0.51650274 -2.2666886 -0.08358082 -0.5853198
000240 51 8f 2f 3f 84 f8 61 bd f6 cc b6 3e f5 0b 8a bf
       0.6857806 -0.055168644 0.35703248 -1.0784899
000250 af 61 af 3e 10 bb 4b 3e 96 78 dc 3f 9c 24 9f bf
       0.34254214 0.19895577 1.72243 -1.2433047
000260 16 1f f2 bd 8d 19 88 be 3e 38 68 3f 42 16 02 bf
       -0.118223354 -0.26581994 0.9071082 -0.5081521
000270 62 49 d0 be e9 a7 c7 3f 42 0a 6a bf f0 3d b7 3f
       -0.40680987 1.5598117 -0.914219 1.4315777
000280 e0 b5 2e bd a2 4b 30 3f f2 02 ff be a2 9c c0 3f
       -0.04265392 0.68865407 -0.49806935 1.50478
000290 4e 36 2e 3f 4d f9 e1 bf a2 b7 e4 be 5a d0 c5 3f
       0.6805161 -1.7654206 -0.4467135 1.5454209
0002a0 6a 20 5d 3f 98 59 b9 bd b1 4b f7 bd 35 9b c2 be
       0.86377585 -0.09050292 -0.12074984 -0.3800904
0002b0 fe 27 39 3e 85 68 d7 bc 57 79 dc 3d 4e 37 50 3f
       0.18081662 -0.026294956 0.10765331 0.8133439
0002c0 72 b4 e2 3e a7 76 16 bf c8 20 72 3f 0f d2 d0 3c
       0.44278294 -0.587748 0.9458127 0.025490789
0002d0 6c da 9c 3e a0 7f 0f be 76 64 50 3d f6 84 1a c0
       0.30635393 -0.14013529 0.050877057 -2.4143653
0002e0 2f ff ad 3e 37 2c 2d be 4e 49 65 3e b2 50 39 3e
       0.33983752 -0.16911398 0.22391245 0.18097189
0002f0 ba 23 b3 3f 99 18 82 3e bd 1e 53 3e 20 ce 04 3f
       1.3995278 0.25409392 0.20617194 0.5187702
000300 7a 3b c8 bf de 78 2d 3f a1 0d 0d be 63 11 37 3f
       -1.5643151 0.67762554 -0.1377473 0.71510905
000310 d6 66 e9 bf 39 c2 0d bf b4 b4 53 3f 07 0f da bd
       -1.8234508 -0.55374485 0.82697606 -0.106473975
000320 f5 22 6b 3f be b8 12 be 2a 75 21 bf 56 32 bf bf
       0.91850215 -0.14328286 -0.63069403 -1.4937236
000330 e1 5d 27 3f cb 2e 15 3f da 10 49 be 3b e1 69 bf
       0.6537762 0.58274525 -0.19635335 -0.913593
000340 47 85 9d bf a7 1a 89 3f 39 eb 6a 3e 0a 10 a9 be
       -1.2306298 1.0711259 0.22941293 -0.3302005
000350 ad ec 94 bf 01 fc 06 3f ae a1 1a 3e 64 1a 2f bf
       -1.1634728 0.5272828 0.15100738 -0.68399644
000360 a4 da a2 be 5f aa a3 3f ed ff 2e bf a9 51 83 bf
       -0.31807435 1.2786368 -0.6835926 -1.0259296
000370 40 d4 a6 3f e5 cb 41 bf 23 4d bd 3e f7 a6 76 3e
       1.3033524 -0.75701743 0.36972913 0.2408713
000380 12 fa cb 3f 87 a0 8d c0 9e ed d7 3f 83 9c ca be
       1.593569 -4.4258456 1.686939 -0.39572534
000390 c4 df d3 3e 2f 6e c1 bd 41 11 35 3f ce e1 b9 bf
       0.41381657 -0.09444844 0.7072945 -1.4522035
0003a0 74 ab 37 3f 93 b8 fa 3f 6f 03 46 3f 21 d4 74 3f
       0.7174599 1.9587578 0.7734899 0.95636183
0003b0 07 52 c2 be 8a 8b 04 be aa 96 84 3e a5 3f 6c 3f
       -0.37953207 -0.12943855 0.25896198 0.92284614
0003c0 43 30 1c bf 79 4d 71 be 81 d1 92 bd 6d 2b 71 3e
       -0.6101114 -0.2356471 -0.07168866 0.23551722
0003d0 3c 2d 62 bf 08 5a 84 be c4 98 70 bf af 1f 29 bf
       -0.8835027 -0.25849938 -0.939831 -0.6606397
0003e0 6d a8 69 3f e6 9b 8e 3f 2f de 28 3f c2 6d 11 c0
       0.9127262 1.1141326 0.65964025 -2.272324
0003f0 b4 67 02 3f 98 7f bb 3e be 9e b0 3e 40 ed ee 3e
       0.5093949 0.36620784 0.3449611 0.46665382

fc1.bias f4 [100]
000000 f8 97 bb be b8 92 43 3e 8e 3a f9 be f4 a8 c4 be
       -0.3663938 0.19098938 -0.48677486 -0.3841015
000010 fa 93 b2 be 77 34 d7 3e 40 0e 46 bf 17 ab 90 3e
       -0.34878522 0.42032215 -0.77365494 0.2825553
000020 27 be 88 be f0 14 10 3f 1a fe 33 bd be 30 a3 3e
       -0.26707575 0.5628195 -0.043943502 0.31873125
000030 7b 53 a4 3e 6c e8 bb bc bd f1 3a bf 0b be 70 3d
       0.3209494 -0.022937976 -0.73025113 0.05877499
000040 ad 55 87 3d 7f 12 58 3e cb 26 d8 be 61 58 0d 3e
       0.06608138 0.21100806 -0.42217097 0.13803245
000050 84 c9 46 3d f4 cb a9 3d c8 9b a3 3d de 29 98 be
       0.048532024 0.08290854 0.07988697 -0.29719442
000060 5d 93 86 be 11 06 72 be e0 b7 20 bf eb 83 45 bd
       -0.26284304 -0.23635127 -0.6278057 -0.04822151
000070 3f af 7d 3e 8e 11 0e bd 42 d4 f1 3d ef f0 fa bd
       0.24773882 -0.03468471 0.11808063 -0.12252986
000080 f3 cd d5 3e 3f 36 c3 3e 7a 0f d6 3e 4d a0 cd 3d
       0.4175869 0.38127324 0.41808683 0.100403406
000090 38 77 d9 bd 22 74 ee bd 52 f9 8f 3d ff bc 75 3e
       -0.10618442 -0.11643244 0.07029976 0.23997878
0000a0 ba 04 e0 3e 03 51 0d be ec 6d 8d 3e 2f bf aa bd
       0.43753606 -0.13800435 0.27622926 -0.083372466
0000b0 3f f6 ba be 00 c0 84 bd ce 27 1f 3e c5 61 d4 be
       -0.36515996 -0.064819336 0.15542528 -0.41480842
0000c0 c9 ec 71 3d 72 58 19 3f 0e bb ba be 6e 41 11 bc
       0.059063707 0.5990058 -0.36470836 -0.008865697
0000d0 fb 42 63 be 27 00 97 bd 25 63 f8 3c cc 6e f8 bb
       -0.2219352 -0.07373076 0.030320713 -0.0075815674
0000e0 16 af ba bc c7 5f 1b 3e 6d 6a 71 3e 58 42 ba be
       -0.022788566 0.15173255 0.23575754 -0.3637874
0000f0 27 a7 00 3d f8 4b 8b be 55 a4 88 bd 53 45 a0 be
       0.03140941 -0.27206397 -0.06671969 -0.3130289
000100 30 8b 43 be 72 d1 0c bb 80 b4 9e 3e 9d 38 f0 3c
       -0.19096065 -0.0021487144 0.30997086 0.02932387
000110 66 3a 59 be 8e 33 55 3c b9 03 b9 3a 13 09 6d be
       -0.21213683 0.01301278 0.0014115489 -0.23147993
000120 c6 ad 31 3d 34 31 95 be 35 06 96 3c 32 42 b5 3e
       0.043378614 -0.29139102 0.018313507 0.35402066
000130 91 ef 9c 3e 67 7a df 3b e6 71 23 3d 39 20 50 be
       0.30651525 0.0068200114 0.039903544 -0.20324792
000140 5b 08 c1 3d ca eb 11 3e b2 05 88 3e 77 5b 5d 3e
       0.09425422 0.14250103 0.26566845 0.21616922
000150 9d bd bb be bc 5b 28 bf 1c d7 cc 3e b7 fe 54 3d
       -0.366681 -0.65764976 0.40007865 0.052000728
000160 22 5a 9c 3d 64 c4 3d 3e 29 ad 3b 3e e1 9f 70 bd
       0.07634379 0.18531948 0.18327774 -0.058746222
000170 df 0f 9b bd bd df 89 3e 95 f8 8c be 88 c4 79 be
       -0.075713865 0.2692851 -0.27533403 -0.24391377
000180 45 c7 f0 3d f6 f3 73 3e 70 a3 20 bd 35 e9 c8 be
       0.11756758 0.23823532 -0.039218366 -0.39240423

fc2.weight f4 [100, 100]
000000 33 44 b4 bc 9c 5c 0c be c6 b4 54 bd a3 e4 f8 3c
       -0.022005176 -0.13707203 -0.05193021 0.03038246
000010 b5 4c 93 bd 2f f9 91 3c 78 f6 16 3b be c2 ce bb
       -0.07192365 0.017819015 0.002303509 -0.006309836
000020 7e 37 ca 3c 1b 86 30 bd 9e 29 1e bd 88 7f 12 3d
       0.024684664 -0.043096643 -0.038613908 0.035766155
000030 9c 06 1a 3d de 59 da 3c c8 14 d3 3c 28 a2 6b 3a
       0.03760396 0.02665418 0.025766745 0.0008988702
000040 31 4f 1a 3d 44 42 31 bd 03 86 c8 3c 00 83 bb 3c
       0.03767318 -0.043276086 0.024477964 0.022889614
000050 ff fc 28 bd b4 d2 1f bd 2f 89 0d bc eb 80 19 bd
       -0.0412569 -0.0390193 -0.008638664 -0.03747646
000060 e1 97 82 3d d0 a2 af bd ef 0a c5 3b 7e 1e d4 3c
       0.06376625 -0.08575976 0.0060132663 0.025893446
000070 12 62 9a bc 08 d6 fe bc 9f f9 7b 3d 92 8b 5b 3d
       -0.018845592 -0.031107917 0.061517354 0.0535999
000080 78 55 8a bc bb a5 db 3c 44 f7 28 3d 51 c1 28 bd
       -0.016886458 0.026812425 0.041251436 -0.041199986
000090 d0 66 0e 3d 6c 3d 2b bd 78 f8 76 3d 59 47 4a bd
       0.03476602 -0.041806623 0.060295552 -0.04938445
0000a0 67 c0 a9 3d f9 31 b7 3c c1 8b 90 bb b5 0e 4b bc
       0.08288651 0.022362696 -0.004411191 -0.012393643
0000b0 be 25 1c 3d 6c 92 bf bd 22 f2 4a bc 8d 9a 85 bd
       0.03812193 -0.093541 -0.0123868305 -0.06523619
0000c0 ee 82 8d 3d fc e1 9d 3d 6c b3 f0 bb af 42 fe bc
       0.069097385 0.07709119 -0.0073456075 -0.031037657
0000d0 1c 7e 2f 3d a3 54 d9 3d fc 75 0f bd 2c 6b 82 bd
       0.042844877 0.10611846 -0.035024628 -0.06368098
0000e0 d5 f7 8f bd 9b db 0a 3c 09 8a 33 3d 83 fe 3a bc
       -0.07029692 0.00847521 0.043832812 -0.011413219
0000f0 4d 89 dd bd f7 4f 81 bb 2d 4f 94 3c 4f cc 01 bd
       -0.10817204 -0.0039463 0.01810416 -0.031688984
000100 ec a0 44 3d bf 04 bf bc 68 d3 0e bd 2c 27 6b 3b
       0.04800503 -0.023317693 -0.03486958 0.0035881503
000110 ff d5 80 3d 70 0d 00 bd 02 fa 51 bd 18 b4 69 bd
       0.062908165 -0.031262815 -0.051263817 -0.057056516
000120 41 c9 dc bc bd 15 16 bc 1f 24 64 bd 55 23 33 3d
       -0.026951434 -0.009160456 -0.05569851 0.043734867
000130 db 63 37 3d f9 58 a1 bd 09 f1 d9 3c 35 ad aa 3c
       0.044772964 -0.07878298 0.026604192 0.020834545
000140 c6 3f 01 bd 5e 13 69 3c e4 e8 71 3b 85 72 ac 3b
       -0.03155496 0.014225809 0.0036912495 0.005262675
000150 36 95 d7 ba c5 10 86 3d 8c 27 94 3d cc a3 32 bc
       -0.0016447667 0.06546167 0.072341055 -0.01090331
000160 9d c6 ea bd 42 7c 90 3c 9f 8b d7 bc 1b e7 94 bd
       -0.11463664 0.017637376 -0.026311694 -0.07270642
000170 8b ab 2a bd e1 5b ac bc 27 58 04 3d 49 60 dc bb
       -0.041667502 -0.021039905 0.03231063 -0.0067253453
000180 22 23 82 3d ee 97 b1 3b 1a a6 32 3c 84 10 e4 bb
       0.06354357 0.0054197228 0.0109038595 -0.0069599766
000190 7f 0c 55 3b 25 fe 94 3c 20 16 ba bd 0b 5e ee 3c
       0.003250867 0.018187592 -0.09086251 0.029097578
0001a0 6c 32 38 bd 75 e5 0e bd 84 d2 e8 bc a6 14 a3 bd
       -0.04496996 -0.034886796 -0.028420694 -0.07962923
0001b0 29 f9 43 3d cd a4 5b 3b ee 52 a9 3c 2f 34 fd 3c
       0.04784504 0.0033514977 0.020669427 0.030908672
0001c0 49 2a 07 bc e2 05 ce 3d 64 68 60 bd 84 3d c2 3c
       -0.008249828 0.10059716 -0.054787055 0.023710974
0001d0 59 af b2 bc f3 70 16 3c f7 b0 c1 bc 17 57 44 3d
       -0.021812128 0.009182203 -0.023643954 0.047934618
0001e0 97 9e 8b 3d 77 7e a9 3c f0 f3 b8 3c 4e 23 4e bd
       0.06817358 0.020690186 0.022577256 -0.050326638
0001f0 16 4f c2 3c 69 cb 66 bd d2 95 eb 3c b1 c8 8b bb
       0.023719352 -0.05634633 0.028757963 -0.0042658676
000200 f3 56 57 bc a3 d4 f8 3c a4 bd 41 bd 0d a9 c2 3c
       -0.013143289 0.03037483 -0.047299996 0.02376225
000210 fa db a9 bc ee 19 34 bc da d0 dc bc 4d 15 b3 3d
       -0.020734776 -0.01099251 -0.026955057 0.08744297
000220 d5 e6 42 3c 9a 94 98 bc 23 98 8a 3d 87 e8 78 bd
       0.011895855 -0.018625546 0.06767299 -0.06076863
000230 a9 db 48 3d b9 77 ea bb 66 f9 52 3b 4a 05 1b 3c
       0.04903761 -0.0071553853 0.003219211 0.00946171
000240 0c 13 22 bd de 33 32 3d 00 85 0c 3d 90 17 c3 3b
       -0.039568946 0.043506496 0.034306526 0.0059537366
000250 e6 2b 1d bc f9 e7 92 3b 71 47 6a 3c cc d3 3b 3c
       -0.009592986 0.0044832197 0.0142992595 0.0114640705
000260 ab e1 da 3c 03 39 12 bd eb 89 ee bc 2e 9c c2 3c
       0.026718935 -0.0356989 -0.029118499 0.023756113
000270 15 03 02 bd ec 0b 3c 3c 4e dd 83 3c 4d 61 92 bc
       -0.03174122 0.011477452 0.016096737 -0.017868662
000280 b6 dd 01 bd 8e b9 7c 3c 86 59 48 bd 0f 83 63 3b
       -0.03170558 0.015425099 -0.0489135 0.0034715568
000290 8f 09 93 3c 9b 3f e1 3c 45 c8 7a bc 57 01 9d bc
       0.017948894 0.02749615 -0.015306537 -0.019165678
0002a0 7b 89 59 3d a0 be 83 3c 3f c9 32 bc f4 fa 1f bd
       0.053109627 0.016082108 -0.010912239 -0.039057687
0002b0 59 66 45 bd 5f 91 b4 bc 86 90 8d bb 1a 92 a1 3c
       -0.04819331 -0.022041975 -0.004320207 0.019722987
0002c0 d2 5e 44 bc 33 20 8f 3c 34 60 44 bd 09 ed e6 3c
       -0.011985498 0.017471408 -0.04794331 0.028189199
0002d0 77 8d 21 bc 82 b2 36 3d 18 a0 7b 3d 30 47 c4 3d
       -0.009860388 0.044603832 0.061431974 0.095838904
0002e0 ef de 82 bd 6d 1b ab 3c 44 db c3 3c b6 97 a5 bc
       -0.063901775 0.020887101 0.023908265 -0.020213943
0002f0 62 30 3b 3d 6b 89 94 3c a8 db 07 3d e0 74 74 bc
       0.04570044 0.018131932 0.033168465 -0.014920443
000300 81 b4 bb 3d b7 e0 42 3d ad 38 f6 bc dc 93 a6 3b
       0.09165288 0.047577586 -0.030056322 0.005083544
000310 c1 9c 8d bd 38 5f 0e bb 70 70 41 bd cf 0a 2b bc
       -0.06914664 -0.0021724235 -0.04722637 -0.010439589
000320 1f b5 d5 3c 9b e8 bf 3c f6 7f 4a 3c a3 33 66 bd
       0.026087342 0.023426345 0.01235961 -0.05620159
000330 f9 f6 15 3d b7 2c 58 3d 00 4d 46 bd 6d af 48 bc
       0.036612485 0.05277702 -0.048413277 -0.012248856
000340 15 6a 4c bb cb 47 a0 bd 7d 63 08 bd 96 11 2a 3d
       -0.003119116 -0.078261934 -0.033298004 0.041520678
000350 59 e4 4a bd 16 f2 b0 3d c7 84 06 bd 0d 11 03 3d
       -0.049534176 0.08639924 -0.03284147 0.031998683
000360 ae c2 53 3d 60 59 8a bc 86 13 0d 3c cb 06 9b bc
       0.051699333 -0.01688832 0.008610612 -0.018924138
000370 73 47 20 bc 70 2d 0a 3d 2a b7 d3 3c 9f 0c b0 bc
       -0.00978266 0.03373474 0.025844175 -0.021490393
000380 8d b5 af 3c 3c 1f ca bd de 68 0f bd 05 c1 7b 3c
       0.021448875 -0.09869239 -0.03501212 0.015365844
000390 b0 34 82 3c f9 7f 0d 3c ec 5d 4d 3d 53 d8 6a bc
       0.015894264 0.008636468 0.0501384 -0.014333802
0003a0 fa 8e 1d bd c2 05 be bc c8 bd 4c 3d c1 7c 37 3d
       -0.03846643 -0.023196105 0.049985677 0.04479671
0003b0 2c 97 90 3d 10 b5 a2 bc 22 94 cb bc dc cd 60 bc
       0.07060084 -0.019861728 -0.024850909 -0.013720956
0003c0 64 04 c0 bc b1 e4 f2 3c f3 7e 43 bd 1c 6e c1 bd
       -0.023439594 0.029650064 -0.04772849 -0.0944483
0003d0 f4 9f 2c bd 11 62 f7 bc 5c 36 f7 bd 5d 76 f8 bc
       -0.04214473 -0.030198129 -0.12070915 -0.030329878
0003e0 e0 be 46 3c fc b8 54 3d c2 7d ab bc 0e f2 e9 3c
       0.012130469 0.051934227 -0.02093399 0.028557803
0003f0 f2 8b b7 3d e9 39 f3 bc 19 7d e1 3c 86 5a 6d bd
       0.08962239 -0.0296907 0.027525472 -0.057947658

fc2.bias f4 [100]
000000 c0 ee 03 bf e0 a5 08 bf 68 a1 e2 be a7 cb d9 be
       -0.5153618 -0.53378105 -0.44263768 -0.42538187
000010 c7 ed 52 bf 7c 8b 0b bf 33 53 0e bf 02 e9 14 bf
       -0.8239407 -0.5450971 -0.555957 -0.5816804
000020 5c 58 da bf a9 96 a1 3f 5f 70 00 bf f3 ae 94 bf
       -1.7058215 1.2624103 -0.50171465 -1.161589
000030 a0 e5 a0 be 5b 83 f3 bf cf 94 c3 be 73 38 00 bf
       -0.3142519 -1.9024462 -0.3819947 -0.50086135
000040 0d bf a0 be 48 4e 95 bd d5 3a ca bf c6 32 77 bf
       -0.3139576 -0.072903216 -1.5799204 -0.9656185
000050 d6 6d e9 be 6b 11 57 bf b8 43 0b bf 6a 13 a9 bf
       -0.4559161 -0.8401095 -0.54400206 -1.320905
000060 bf 31 e4 be 5d 01 9f 3e 35 64 6d 3e 3f f1 d0 be
       -0.44569203 0.31055728 0.23182757 -0.40809056
000070 bf ae 05 bf 1b 6c b2 bf 90 e8 0d bf ee 3b f5 be
       -0.52219766 -1.3939241 -0.5543299 -0.47897285
000080 3f 13 48 3f 49 1d dd be e6 15 3d be 13 e8 df be
       0.7815437 -0.43186405 -0.18465385 -0.43731746
000090 c0 2e 23 be dc 64 a3 3f b5 5d 88 bf 87 fa 04 bf
       -0.15935802 1.2765155 -1.0653597 -0.51944774
0000a0 0f fc 05 3f 00 07 c8 bf a3 58 fb be c9 73 d3 be
       0.52337736 -1.5627136 -0.49091062 -0.41299275
0000b0 92 00 04 bf 1f f0 7a 3e 98 09 df be fc af 63 be
       -0.5156337 0.24505661 -0.43562007 -0.22235101
0000c0 6e af e0 be b7 55 32 bf 84 2c 12 3e 47 e6 f5 be
       -0.43883842 -0.6966204 0.14274794 -0.4802725
0000d0 30 5d 8b be cb 16 75 be 86 93 03 bf dc 8e 88 bf
       -0.27219534 -0.23934476 -0.5139698 -1.0668597
0000e0 0e 65 13 3f 8e 7f 92 bf 11 71 23 3d 26 65 5b 3e
       0.5757607 -1.1445177 0.03990275 0.21425304
0000f0 b1 8c d3 be 2d ee ce be 1e 58 80 bf eb f3 a1 bf
       -0.41318277 -0.4041609 -1.0026891 -1.2652563
000100 59 e2 e7 bf 80 86 4a bf ab 30 98 3e 70 d2 c1 bf
       -1.8115951 -0.7911148 0.2972463 -1.5142345
000110 e8 1b 0d bf 67 f6 8a bf b5 03 b6 bf 59 b5 93 bf
       -0.55120707 -1.0856446 -1.4219881 -1.1539718
000120 2b 71 9a bf af c9 7a bf d4 2f 2b bf 88 4d 14 be
       -1.2065786 -0.97963995 -0.66869855 -0.14482701
000130 24 f0 51 bf 3b d5 03 bf bd 03 50 bf 1f 25 ed be
       -0.8200705 -0.5149724 -0.81255704 -0.46317384
000140 87 d4 09 be c7 ce 07 c0 a3 1a 60 bc 73 40 21 bf
       -0.13459979 -2.1219957 -0.013678226 -0.62988967
000150 3e 3c 13 3e e8 57 98 bf 67 7e 07 bf a4 c2 e9 be
       0.1437845 -1.1901827 -0.5292725 -0.45656312
000160 0b 5f 7d be d8 a8 22 3e 75 8a e7 be 93 11 80 bf
       -0.24743287 0.15884721 -0.45222822 -1.0005363
000170 01 42 9c be d3 df dd be 47 0a fc 3e f6 2e d0 bf
       -0.30519107 -0.43334827 0.4922659 -1.6264331
000180 91 6b 78 bf 04 b9 75 bf 59 82 ab bf f6 03 0f 3e
       -0.97039133 -0.95985436 -1.3399154 0.13966355

fc3.weight f4 [2, 100]
000000 e9 39 b8 3d a2 42 27 bd 0e 24 73 bc 3f 46 46 3d
       0.089954205 -0.04083503 -0.014840139 0.048406836
000010 79 9d b1 3e 6b fa 48 3d f5 bd c7 3b 8b 51 8e be
       0.34690455 0.049066942 0.0060956427 -0.27796587
000020 63 2c b4 be 79 2f 93 3e 75 d9 fa 3c 7c c2 c3 3e
       -0.35190114 0.28747156 0.03062127 0.38234317
000030 0d 7a 96 be 73 e0 af be 25 29 83 bd 51 df 35 bd
       -0.29389992 -0.3435093 -0.06404332 -0.044402424
000040 0b 4c 89 3e 27 04 8e 3e d6 11 48 be d3 70 89 be
       0.2681583 0.27737543 -0.19538054 -0.2684389
000050 1a 89 e7 3c a0 0f 6f be db 6e 3e bc 63 0e 8a be
       0.028263617 -0.23345804 -0.01162311 -0.269641
000060 f9 c1 ac be db 6f 92 3e 10 7a a0 be d5 47 90 3c
       -0.3374174 0.28600964 -0.31343126 0.017612377
000070 fc 8a 85 3c 5c 5a 5f be b6 b9 95 3c 7f 0f ff bc
       0.016301624 -0.21811813 0.01827703 -0.031135319
000080 e8 bd c8 3e 3e 0a 81 3b 3a fd 89 3e 2f cd 6d bc
       0.39207387 0.0039379885 0.2695101 -0.014514252
000090 f6 6e 59 3e 08 e2 00 3e 30 58 a5 be f1 3c 11 3c
       0.21233734 0.12586224 -0.32293844 0.008864627
0000a0 86 5f d0 3e 24 6e 7a be 52 ce 7d 3c ca b1 7c 3e
       0.4069788 -0.24456078 0.015491085 0.24677196
0000b0 7f f2 7d bd 26 aa 98 3e 44 21 9d 3d 0f 65 88 3e
       -0.06199884 0.29817313 0.076723605 0.26639602
0000c0 9a ca a7 be e6 8a a7 3e 4c 92 8c 3e 38 20 4f bd
       -0.3277176 0.3272316 0.27455366 -0.050567836
0000d0 a6 07 0a 3e 51 f6 f1 3e 23 2f 81 bd d9 78 8e be
       0.1347948 0.47258237 -0.06307819 -0.27826574
0000e0 a9 ae 8d 3e a5 8f f0 be 09 e8 f0 3d dd 57 ea be
       0.27672318 -0.46984592 0.11763007 -0.4577016
0000f0 f4 b4 36 ba 06 db 70 3d 5f 23 ca 3e ad 92 b4 3e
       -0.0006969713 0.058802627 0.3948011 0.35268155
000100 24 57 cc 3e 8d 86 8c 3e 55 8c 8e 3e f8 00 a8 3e
       0.39910233 0.27446404 0.2784144 0.3281324
000110 27 42 bb be b5 49 8f be 71 14 c2 be 21 b1 a0 be
       -0.36573908 -0.27985922 -0.3790622 -0.3138514
000120 6b 73 c1 be d4 f3 cd be 8b c6 63 be d5 d4 ee 3e
       -0.3778337 -0.4022509 -0.22243707 0.46646753
000130 7b 21 8d be 2f d5 c9 bc 2e 28 8c 3e c7 43 0c 3d
       -0.27564606 -0.024637787 0.27374405 0.034244325
000140 e5 00 37 be 0a ce 9a 3e 9f f3 39 3e d4 bd 73 be
       -0.17871435 0.3023532 0.1815934 -0.23802882
000150 69 45 b0 be 50 10 95 be cc 0c 24 3c 8b 3d c2 be
       -0.34427956 -0.29114008 0.010012817 -0.3793758
000160 b0 a0 51 be 17 d7 a8 3e 6e 37 a7 3d 2d 08 52 3e
       -0.20471454 0.329766 0.08164869 0.20510931
000170 31 31 60 be a4 04 41 3d ad a2 2a 3e f0 cd a2 be
       -0.21893765 0.047123566 0.16663618 -0.31797743
000180 28 1e 8e 3e 6d b1 65 be df 91 89 be 23 47 f3 3d
       0.27757382 -0.22430964 -0.26869103 0.118788026
000190 47 0f bc 3d 14 15 f8 bc f9 ee 3c bc 0c 9c 4f 3d
       0.091826014 -0.030283488 -0.011531585 0.050685927
0001a0 f9 2c c1 be 73 6e 32 3d 53 73 de 3b 36 42 ae 3e
       -0.37729624 0.043562364 0.00678865 0.3403489
0001b0 b8 ea b3 3e 8e f2 87 be b0 ab de 3c bc 9b ce be
       0.35140014 -0.26552242 0.027181476 -0.4035319
0001c0 5d e7 67 3e 94 90 c2 3e 69 27 69 bd a3 0c 38 bd
       0.22646852 0.3800093 -0.05692235 -0.044933926
0001d0 ba 31 b2 be fa 4f a4 be 43 8d b4 3e b0 48 a9 3e
       -0.34803563 -0.32092267 0.35264024 0.3306327
0001e0 68 7e e9 3c 93 bd 2c 3e 68 4a 88 bc aa db c2 3e
       0.028502658 0.16869192 -0.016637042 0.38058215
0001f0 51 6d a3 3e 82 a9 a6 be 75 30 10 3e 58 e4 17 3d
       0.3191934 -0.325512 0.14080985 0.037083
000200 31 e3 5f 3c 05 76 9c 3e 93 04 a7 3c 25 88 1a bd
       0.0136650065 0.30558792 0.020387923 -0.037727494
000210 98 de 9f be e4 6b b7 3b 09 13 99 be 19 af 25 bb
       -0.31224513 0.0055975784 -0.29897335 -0.0025281368
000220 87 bf 76 be bf 1b 3a be aa 4b c0 3e 3e e0 17 3d
       -0.240965 -0.18174647 0.37557727 0.03707909
000230 e8 5b cb be 7e 42 b3 3e ef b8 75 3c 69 43 85 be
       -0.39718556 0.35011667 0.014997705 -0.26027992
000240 b1 7f 7a bd 06 a7 d2 be 3d d0 a4 3d 9b 3f 7e be
       -0.061156932 -0.41143054 0.08047531 -0.24828951
000250 2f 3b a3 3e d7 f0 7b be c1 26 11 be 6b 12 5b bd
       0.3188109 -0.24603592 -0.1417494 -0.05348436
000260 9d a8 31 be e0 93 ad be 31 f0 7a bd f1 56 62 3e
       -0.17349477 -0.33901882 -0.06126422 0.22103478
000270 95 1a 4c be 6a 9c fb 3e b8 16 4a be 40 b8 bc 3e
       -0.19932015 0.49142772 -0.19735229 0.36859322
000280 ae 27 15 bc 84 b1 62 3d 88 64 9c be ab b7 83 be
       -0.009103699 0.055345073 -0.3054545 -0.25726065
000290 69 b9 c4 be d8 b0 16 be 56 85 86 be ef 6b 2b be
       -0.38422707 -0.14715898 -0.26273602 -0.16740392
0002a0 19 fd 87 3e 95 ad 99 3e 60 fe 8f 3e a2 03 79 3e
       0.26560286 0.30015245 0.2812376 0.24317792
0002b0 84 3c 94 3e d3 1f 8a 3e e0 ec 54 3e 26 5c f2 be
       0.2895242 0.26977405 0.20793486 -0.4733593
0002c0 4b 06 96 3e b4 0f a7 bc 90 f9 89 be 59 46 45 3d
       0.29301676 -0.02039323 -0.26948214 0.048162792
0002d0 ea 01 9f 3e 50 6c 8f be 54 b6 4e be 03 d5 a0 3e
       0.31056148 -0.28012323 -0.2018674 0.31412515
0002e0 3d 0b a6 3e ec 6d d5 3e b1 92 2a 3c dc ad 8f 3e
       0.3243045 0.41685426 0.0104109505 0.28062332
0002f0 fb 0b 4a 3e 51 19 23 be 90 fc af 3d a3 7e 3e be
       0.19731133 -0.15927626 0.08593094 -0.18602996
000300 6e e4 94 3e 55 3c 23 3d 33 14 68 be 7b 24 40 3e
       0.29080528 0.03985246 -0.22663955 0.18763916
000310 a3 02 c0 be ae 84 80 3e 3d cd 9b 3e 86 48 6b be
       -0.37502012 0.25101227 0.30430022 -0.22976884

fc3.bias f4 [2]
000000 82 24 1a bf d8 bb 37 3f
       -0.60211957 0.71771
