scripts/ffnn/ffnn_model.ckpt (torch_old, 82667 bytes, 6 tensors)

fc1.weight f4 [100, 100]
-0.04154021 -0.044406213 -0.04065391 0.0058632414 0.104588814 0.30304733 -0.1823727 0.14430691
0.3390512 -0.014933174 -0.0210484 0.02101861 -0.07808419 0.060713217 -0.010317853 -0.08273687
0.19611563 0.024843229 0.20188919 0.3297903 0.21078748 0.18234083 0.14193524 -0.27475652
0.1053642 -0.3276152 -0.06670119 0.30920112 0.49731603 0.070057675 -0.16852523 0.06390249
-0.18549222 0.1316815 0.20134655 -0.09461827 -0.33010754 -0.17418624 0.17955159 -0.26735413
-0.07876581 0.18244134 0.3206678 0.31788808 -0.10802234 -0.019863185 0.4633583 0.06010431
-0.495733 0.099498525 -0.7657277 -0.14428866 -0.04426894 0.034552976 0.14931698 0.3141137
-0.13277401 0.12675636 0.14121008 0.023846012 -0.025243064 0.09702608 0.133999 -0.08684301
-0.6643901 0.020053266 0.1802798 -0.45107552 -0.35740268 0.039811518 0.042848483 0.20032685
0.21218762 0.074572034 -0.029087523 -0.2073811 0.5928918 -0.28454414 0.24904984 -0.41793326
-0.38887402 -0.20728382 0.1840456 0.075292274 0.12216806 0.15026747 0.65990657 -0.2557088
0.4358662 -0.10933696 0.0026674508 -0.038766537 -0.5544431 -0.14936027 -0.3530609 0.06138961
0.06819746 0.3101853 -0.03468495 0.34673104 0.0072406516 -0.09095448 -0.6557865 -0.21360287
-0.16945116 0.3011166 -0.114453994 0.24823327 -0.46373567 0.30517572 0.34256002 0.07711127
0.7562361 -0.10100278 0.33436957 -0.1525699 0.3848262 -0.3632165 0.08373538 0.31467316
-0.19943373 -0.3628973 -0.065233745 0.17365152 -0.11417365 -0.28522062 0.072133675 0.054671705
0.088520035 -0.040962655 0.40343338 0.19247468 -0.16666165 -0.11202426 -0.045042135 -0.012154899
0.4398673 0.7215722 -0.39672282 0.05352024 0.15419541 -0.40393424 -0.118827745 -0.38221914
-0.19572206 0.2826366 -0.2283638 -0.014933147 -0.12897612 0.22372036 -0.22265968 -0.07471786
0.068009324 -0.1171767 -0.284676 0.09001888 -0.06925395 -0.017854508 0.36860842 -0.13989149
-0.020865662 -0.08325982 0.0009724779 -0.14382653 0.095002234 -0.15616988 -0.16024178 0.073307656
-0.14316152 0.1317648 -0.48345873 0.013944004 -0.2080686 -0.21961193 -0.18511716 -0.12697268
-0.5864362 0.14955826 -0.19742191 0.10969026 -0.25331214 0.057753135 -0.2218826 0.3376669
0.3787595 0.06720508 -0.24086799 0.1963609 0.13660815 0.32457155 0.023125935 -0.20935915
-0.101749204 0.16185738 0.42793176 0.11411962 0.09381387 -0.022804579 -0.4591139 0.3568822
-0.22808568 0.1421635 0.0031902406 -0.5017855 0.087998785 0.08627122 0.5060913 0.043873634
-0.45104748 -0.120389625 -0.10097349 0.056983057 0.1892719 -0.27549377 -0.002476877 -0.012123215
0.2124415 -0.060930584 -0.08283746 -0.29137745 -0.15097347 0.12581073 -0.19675203 0.4333152
0.26735586 0.46241823 0.34753332 -0.153196 -0.41684544 -0.055317927 0.31052023 0.0701646
0.07793694 0.15591075 0.17589533 0.30568093 0.027815446 0.16738632 -0.42171252 0.057953734
0.034125734 -0.2692479 0.27919894 -0.30666772 -0.4075385 -0.25711694 -0.109535776 -0.025793558
-0.13117822 0.111453205 -0.42892447 -0.09332468 0.20692661 0.4010707 0.28465354 -0.36436704
00000000: 1126 2abd 4ae3 35bd b784 26bd 6f20 c03b
00000010: a932 d63d 0529 9b3e e9bf 3abe 31c5 133e
00000020: 1e98 ad3e 45aa 74bc b26d acbc 382f ac3c
00000030: 9bea 9fbd 6cae 783d 360c 29bc f371 a9bd
00000040: 89d2 483e 0784 cb3c 0abc 4e3e 46da a83e
00000050: acd8 573e 8eb7 3a3e 7957 113e e3ac 8cbe
00000060: 30c9 d73d 2ebd a7be a29a 88bd 9c4f 9e3e
00000070: 35a0 fe3e 667a 8f3d e191 2cbe 4fdf 823d
00000080: acf1 3dbe 84d7 063e ca2d 4e3e 39c7 c1bd
00000090: db03 a9be e15d 32be 5fdc 373e a4e2 88be
000000a0: f84f a1bd e7d1 3a3e 922e a43e 3ac2 a23e
000000b0: d13a ddbd 1eb8 a2bc 4d3d ed3e f02f 763d
000000c0: b7d0 fdbe e2c5 cb3d bb06 44bf 68c0 13be
000000d0: 5953 35bd 6c87 0d3d 8de6 183e 83d3 a03e
000000e0: e9f5 07be 6bcc 013e 6099 103e b658 c33c
000000f0: 8bca cebc 9cb5 c63d 0937 093e bfda b1bd
00000100: 7815 2abf bf46 a43c 459b 383e 5ff3 e6be
00000110: 7cfd b6be 6711 233d e481 2f3d 7b22 4d3e
00000120: b647 593e 39b9 983d f548 eebc b65b 54be
00000130: c2c7 173f c5af 91be ec06 7f3e 59fb d5be
00000140: 7f1a c7be 3642 54be 7376 3c3e d632 9a3d
00000150: 3f33 fa3d b7df 193e a3ef 283f 44ec 82be
00000160: db29 df3e 0eec dfbd 66d0 2e3b a9c9 1ebd
00000170: fcef 0dbf e6f1 18be 66c4 b4be ac73 7b3d
00000180: 1cab 8b3d 9cd0 9e3e ce11 0ebd bb86 b13e
00000190: fd42 ed3b 5846 babd a0e1 27bf b6ba 5abe
000001a0: 9b84 2dbe f42b 9a3e db66 eabd dd30 7e3e
000001b0: c36e edbe fe3f 9c3e 0764 af3e 83ec 9d3d
000001c0: b098 413f 8cda cebd 7d32 ab3e 493b 1cbe
000001d0: f107 c53e 83f7 b9be 747d ab3d d71c a13e
000001e0: 5b38 4cbe adcd b9be 4599 85bd b4d1 313e
000001f0: e0d3 e9bd 7008 92be d2ba 933d 70ef 5f3d
00000200: fe49 b53d 75c8 27bd d28e ce3e 1518 453e
00000210: 5aa9 2abe fa6c e5bd 1a7e 38bd 5725 47bc
00000220: 4936 e13e f5b8 383f 411f cbbe 0a38 5b3d
00000230: 67e5 1d3e 78d0 cebe f65b f3bd 3ab2 c3be
00000240: 5d6b 48be bfb5 903e 33d8 69be 28aa 74bc
00000250: 5112 04be f316 653e e600 64be ad05 99bd
00000260: 7948 8b3d 56fa efbd 0dc1 91be d25b b83d
00000270: 04d5 8dbd 9e43 92bc 3eba bc3e b73f 0fbe
00000280: 77ee aabc 2084 aabd e3ed 7e3a 4347 13be
00000290: 8890 c23d ffea 1fbe 6c16 24be 5322 963d
000002a0: ef98 12be 5aed 063e e787 f7be 6475 643c
000002b0: ef0f 55be f3e1 60be 5a8f 3dbe 2005 02be
000002c0: af20 16bf cd25 193e f828 4abe 49a5 e03d
000002d0: 21b2 81be 8d8e 6c3d 3135 63be ade2 ac3e
000002e0: c4ec c13e d1a2 893d 19a6 76be d512 493e
000002f0: 02e3 0b3e 3e2e a63e 9a72 bd3c 3f62 56be
00000300: e361 d0bd f1bd 253e df19 db3e 8cb7 e93d
00000310: 7c21 c03d abd0 babc fa10 ebbe 44b9 b63e
00000320: 4b8f 69be 4f93 113e 5b13 513b 0475 00bf
00000330: b538 b43d f7ae b03d 338f 013f d7b4 333d
00000340: b2ef e6be d68e f6bd 30cb cebd 1167 693d
00000350: 7ed0 413e 850d 8dbe 1a53 22bb 73a0 46bc
00000360: 448a 593e 5992 79bd b0a6 a9bd 6d2f 95be
00000370: ca98 1abe 87d4 003e 5d79 49be 7ddb dd3e
00000380: dee2 883e 15c2 ec3e e3ef b13e 6adf 1cbe
00000390: c46c d5be 0d95 62bd 82fc 9e3e 75b2 8f3d
000003a0: 679d 9f3d 11a7 1f3e e81d 343e 3682 9c3e
000003b0: 38dd e33c 5267 2b3e b4ea d7be e560 6d3d
000003c0: 6dc7 0b3d dcda 89be 2af3 8e3e 8d03 9dbe
000003d0: e3a8 d0be d5a4 83be 4b54 e0bd 034d d3bc
000003e0: 9553 06be 9441 e43d fd9b dbbe 0321 bfbd
000003f0: 92e4 533e 2459 cd3e 1cbe 913e 518e babe

fc1.bias f4 [100]
0.04690791 0.017300228 0.06488212 -0.014897397 0.0042814133 0.07893284 0.084714025 -0.05382057
0.06436715 0.008753139 0.08653775 0.054187406 0.06777864 -0.0837184 0.07631259 -0.07179401
-0.069635324 -0.1102753 -0.043328278 0.06827771 -0.10845912 -0.092113025 -0.09632489 -0.046688914
0.05508653 -0.08614119 -0.09872395 -0.036824528 -0.09995309 -0.09140779 0.07334352 -0.09080843
-0.086264946 0.008377623 -0.008245089 -0.08727602 0.02074136 0.07518105 0.074767545 -0.067990094
-0.09974491 -0.015579552 -0.01744626 -0.04128816 0.075874664 -0.084593564 0.025663195 -0.11987573
0.057663985 0.06353384 0.005505597 -0.035669412 0.021391239 -0.00034933817 -0.117809124 -0.10818723
-0.033291448 -0.06845847 0.044025358 0.04054698 -0.04285449 -0.039468363 0.078303084 0.050804477
-0.0068918886 0.013251787 -0.021302246 0.09108939 -0.12113168 -0.011608058 0.05473059 0.035375223
-0.03674289 -0.0034534263 -0.033235792 -0.044888806 0.027163249 0.053986195 -0.09661165 0.0926668
-0.105577745 -0.08273722 -0.016427934 -0.044954807 0.07448304 0.053255577 -0.006102802 -0.085547164
-0.05811269 -0.084727526 -0.12921025 -0.04693325 0.009806061 0.07511691 -0.109144025 -0.018482972
-0.0485446 -0.04541872 -0.038689815 0.04440365
00000000: 8222 403d 35b9 8d3c ebe0 843d 3614 74bc
00000010: 194b 8c3b 8aa7 a13d 8c7e ad3d f572 5cbd
00000020: edd2 833d 5369 0f3c b43a b13d 9df3 5d3d
00000030: 87cf 8a3d 8d74 abbd c649 9c3d bd08 93bd
00000040: f79c 8ebd 04d8 e1bd fe78 31bd 2fd5 8b3d
00000050: d11f debd c1a5 bcbd fc45 c5bd e03c 3fbd
00000060: 6aa2 613d cb6a b0bd c82f cabd 51d5 16bd
00000070: 35b4 ccbd 0234 bbbd 2135 963d c5f9 b9bd
00000080: adab b0bd 4c42 093c 6916 07bc c5bd b2bd
00000090: c9e9 a93c 86f8 993d ba1f 993d 643e 8bbd
000000a0: 0f47 ccbd 6141 7fbc 76eb 8ebc c61d 29bd
000000b0: 2d64 9b3d 643f adbd 9f3b d23c 6881 f5bd
000000c0: 1231 6c3d 081e 823d 4c68 b43b 171a 12bd
000000d0: ae3c af3c 6027 b7b9 e945 f1bd 4491 ddbd
000000e0: 9d5c 08bd f433 8cbd ef53 343d 9714 263d
000000f0: 3188 2fbd 94a9 21bd 5e5d a03d 5b18 503d
00000100: 5ad5 e1bb 061e 593c 0c82 aebc 138d ba3d
00000110: e313 f8bd b92f 3ebc 2f2d 603d 9ce5 103d
00000120: b67f 16bd e152 62bb 4122 08bd 53dd 37bd
00000130: 7685 de3c a120 5d3d 54dc c5bd 17c8 bd3d
00000140: 2539 d8bd 2272 a9bd e093 86bc 8822 38bd
00000150: 908a 983d 8522 5a3d 04fa c7bb 5a33 afbd
00000160: 9207 6ebd a085 adbd b14f 04be 143d 40bd
00000170: 9aa9 203c e5d6 993d e786 dfbd 9a69 97bc
00000180: b4d6 46bd fb08 3abd 3679 1ebd 9ae0 353d

fc2.weight f4 [100, 100]
-0.19966124 -0.33624 -0.118328705 0.14979477 0.22816412 0.24103215 -0.32540232 0.08750584
0.44204184 -0.110680714 0.012645541 0.27367023 -0.1300399 -0.054042883 -0.06821975 0.17376134
0.15667231 -0.20494123 -0.4406631 -0.002781306 -0.21638885 -0.08310406 -0.15275995 -0.27540383
0.056311183 0.64231485 -0.3852122 -0.061657913 -0.3000216 0.101327986 0.119752206 0.25198802
-0.1697768 0.01959812 -0.030159352 0.25392663 0.10891326 0.21773568 0.08606174 -0.06108351
-0.37242374 -0.25757477 0.041372366 -0.10249119 -0.06955205 -0.26225862 0.3845595 -0.58387715
0.4658077 -0.33404383 -0.1929954 -0.14676209 -0.035123274 -0.09774473 0.08079931 0.08470565
-0.008096713 0.16598737 -0.1484706 0.21065739 0.021319386 -0.02724004 0.14476837 0.100678466
0.018633215 0.28891858 -0.122433566 -0.23941945 -0.39235252 0.19454743 -0.35621345 -0.13860407
0.008702843 -0.08002364 -0.13298808 0.4494805 0.05764572 -0.39640304 -0.084028535 -0.18312624
0.120912425 -0.0648504 -0.4718664 -0.107275255 0.14693059 -0.1255614 0.05568347 0.18665552
0.36752415 -0.2820472 -0.30412504 -0.0852774 0.19623946 -0.58404005 0.058940176 0.36008075
-0.09581096 -0.034945004 -0.2404282 0.009369447 -0.549669 0.1606669 -0.122608624 0.15923353
0.22189343 -0.19748506 -0.30895826 -0.12094852 0.02215042 0.5405908 -0.42218098 0.14451392
0.16812411 -0.18869656 -0.21250574 -0.13205019 0.5268405 -0.16576722 -0.03440796 -0.24143365
-0.29921335 -0.23980294 -0.43183142 0.08603994 0.028689194 0.2599527 0.1896597 -0.1496652
0.1341032 -0.32669595 0.123015255 -0.33049446 -0.41653427 -0.39757386 -0.25412396 0.8463295
0.24421935 0.03068648 -0.44528025 0.31817356 -0.4634988 -0.087228425 0.25013754 0.225907
-0.013314728 -0.23300458 0.29790634 0.08476595 0.28612316 -0.15350147 0.096565306 -0.12274556
0.2332058 -0.28147995 -0.15745905 0.123746745 0.25182307 0.45947555 0.012364836 0.10776402
0.23724467 -0.016789742 0.009769618 -0.18469264 0.025057439 0.5279085 -0.2517728 -0.10174296
0.19031435 -0.082416266 -0.107438825 0.27831432 -0.17276399 -0.036502317 -0.06877693 0.26168177
-0.061865993 -0.026842639 -0.115011804 -0.04982161 -0.17687137 -0.07832753 -0.08601354 -0.6392501
-0.10366557 -0.16167766 0.18237297 0.30963078 0.12048457 -0.5541176 -0.16785142 -0.01317164
0.09693308 -0.20521285 0.15174007 0.66391206 -0.09609577 0.2205732 -0.045826502 -0.0074608102
0.23226058 -0.17401804 0.15522636 0.21129191 -0.33405346 0.35243088 0.38997692 0.096945114
0.22079954 0.32958233 -0.19363362 -0.31245822 0.18854922 -0.023104697 -0.08421381 0.07324353
0.03217866 -0.048953995 0.25758877 0.42445287 0.29957688 -0.11731571 -0.3964022 -0.0054034824
-0.5080711 -0.11951384 -0.019019486 0.18817717 -0.16241375 0.05441906 0.026588488 -0.38651663
-0.22884865 -0.15001646 -0.057658732 -0.14663143 0.4478628 -0.3770565 -0.09675872 0.49725428
-0.032095756 0.1316262 0.1943872 -0.1761537 -0.22342968 0.11094782 0.050000094 -0.02135477
0.79060125 -0.3991058 0.10266934 -0.012319037 0.21640977 0.078912824 0.15972102 0.23657028
00000000: ff73 4cbe a627 acbe 5256 f2bd cd63 193e
00000010: dba3 693e 22d1 763e 229b a6be 4336 b33d
00000020: 4f53 e23e 92ac e2bd 3e2f 4f3c 811e 8c3e
00000030: 2e29 05be 125c 5dbd ccb6 8bbd 7eee 313e
00000040: b56e 203e 1ddc 51be 989e e1be 9246 36bb
00000050: 0a95 5dbe 7632 aabd 1b6d 1cbe bb01 8dbe
00000060: 8ea6 663d bf6e 243f 893a c5be 028d 7cbd
00000070: 6e9c 99be 0c85 cf3d a540 f53d 9304 813e
00000080: f8d9 2dbe 3d8c a03c bf10 f7bc ac02 823e
00000090: ea0d df3d 1af6 5e3e 2341 b03d b432 7abd
000000a0: 53ae bebe d7e0 83be 1276 293d e7e6 d1bd
000000b0: 4e71 8ebd c346 86be fce4 c43e f978 15bf
000000c0: 597e ee3e cb07 abbe 96a0 45be cd48 16be
000000d0: 6cdd 0fbd 642e c8bd 1c7a a53d 287a ad3d
000000e0: 13a8 04bc 98f8 293e ad08 18be 92b6 573e
000000f0: fea5 ae3c 8126 dfbc 293e 143e 8330 ce3d
00000100: afa4 983c 23ed 933e 73be fabd 5f2a 75be
00000110: 6ee2 c8be 7137 473e 9c61 b6be 3aee 0dbe
00000120: 5f96 0e3c 6fe3 a3bd 072e 08be 4f22 e63e
00000130: eb1d 6c3d 57f5 cabe 2717 acbd 7285 3bbe
00000140: efa0 f73d 49d0 84bd 7998 f1be 21b3 dbbd
00000150: f974 163e 2b93 00be 5a14 643d a022 3f3e
00000160: 202c bc3e 7e68 90be 47b6 9bbe eba5 aebd
00000170: fff2 483e a683 15bf 416b 713d 815c b83e
00000180: 8938 c4bd 7e22 0fbd cf32 76be 4f82 193c
00000190: 1cb7 0cbf dd85 243e 3b1a fbbd 1d0e 233e
000001a0: 0838 633e 8639 4abe c72f 9ebe dcb3 f7bd
000001b0: cc74 b53c 2964 0a3f 1b28 d8be 75fb 133e
000001c0: ba28 2c3e ac39 41be 1b9b 59be 2a38 07be
000001d0: 05df 063f e2be 29be 5cef 0cbd 623a 77be
000001e0: 7e32 99be e78e 75be 0219 ddbe b535 b03d
000001f0: 9a05 eb3c 8518 853e 2736 423e d641 19be
00000200: 5952 093e b144 a7be 6cef fb3d 9236 a9be
00000210: fb43 d5be cd8e cbbe 891c 82be 0da9 583f
00000220: a314 7a3e 3762 fb3c c6fb e3be a5e7 a23e
00000230: b74f edbe d1a4 b2bd 0712 803e 2a54 673e
00000240: 0426 5abc c198 6ebe 2e87 983e c599 ad3d
00000250: bc7e 923e 7d2f 1dbe 08c4 c53d 0662 fbbd
00000260: 80cd 6e3e 241e 90be f23c 21be ef6e fd3d
00000270: f4ee 803e 6140 eb3e e295 4a3c 62b3 dc3d
00000280: 44f0 723e a48a 89bc bf10 203c 1120 3dbe
00000290: 4245 cd3c 0325 073f 5de8 80be 9d5e d0bd
000002a0: c4e1 423e dcc9 a8bd e308 dcbd 377f 8e3e
000002b0: 0be9 30be 7483 15bd ebda 8cbd 27fb 853e
000002c0: 3267 7dbd 18e5 dbbc 4f8b ebbd bf11 4cbd
000002d0: c51d 35be 2f6a a0bd de27 b0bd e5a5 23bf
000002e0: 9d4e d4bd d48e 25be fbbf 3a3e ed87 9e3e
000002f0: 9dc0 f63d a7da 0dbf 3ee1 2bbe ddcd 57bc
00000300: da84 c63d 5123 52be c061 1b3e 24f6 293f
00000310: dccd c4bd f1dd 613e 92b4 3bbd d079 f4bb
00000320: b8d5 6d3e c931 32be a9f3 1e3e e85c 583e
00000330: 0e09 abbe d271 b43e 0eab c73e 298b c63d
00000340: 4619 623e 04bf a83e e447 46be 86fa 9fbe
00000350: 0c13 413e 1046 bdbc 4a78 acbd b400 963d
00000360: c5cd 033d fc83 48bd ade2 833e e351 d93e
00000370: 2462 993e 3843 f0bd 3bf5 cabe b20f b1bb
00000380: f310 02bf acc3 f4bd c1ce 9bbc 84b1 403e
00000390: ca4f 26be 85e6 5e3d 1ad0 d93c 82e5 c5be
000003a0: 4d57 6abe ea9d 19be 902b 6cbd 8d26 16be
000003b0: 464e e53e 8d0d c1be 7029 c6bd 1d98 fe3e
000003c0: d776 03bd 05c9 063e 700d 473e a361 34be
000003d0: c0ca 64be 9c38 e33d e6cc 4c3d 33f0 aebc
000003e0: d864 4a3f 9857 ccbe 4e44 d23d c9d5 49bc
000003f0: 869a 5d3e 0c9d a13d e88d 233e 7b3f 723e

fc2.bias f4 [100]
0.022635218 0.063622385 -0.26938674 -0.28775004 -0.01128117 -0.23227523 -0.14864647 -0.08948152
-0.020143611 -0.14994115 -0.16205618 -0.0843041 -0.04930467 -0.05767639 -0.13628669 -0.11622744
-0.14229718 -0.19746864 -0.102398634 -0.104353055 -0.023388533 -0.10729326 0.008504067 -0.26221645
-0.1539396 -0.17993003 -0.14530736 0.03636071 0.018245626 -0.1659201 -0.2431154 -0.17188148
0.060297098 -0.08508502 -0.116479814 -0.004145633 -0.24525607 0.025777351 0.018420523 -0.20579927
0.038542714 -0.16889949 -0.13564037 -0.04802712 -0.18993707 -0.113921076 -0.077507176 -0.17310223
-0.2484457 -0.31611425 -0.16456844 -0.11567602 -0.030870881 -0.121110484 -0.1314816 -0.084728144
-0.19553189 -0.13374236 -0.088265695 -0.17465524 -0.052992553 0.16479437 -0.26616243 -0.13384707
-0.18473287 -0.020781668 -0.1609418 -0.008906003 -0.007740246 -0.1444121 -0.12924464 -0.09129938
-0.22228183 0.105254315 -0.2270645 -0.18446672 -0.12219351 -0.29057628 -0.20230514 -0.19167528
-0.059205364 -0.24514797 -0.104606286 -0.041273877 -0.18529515 -0.079149954 0.00059510506 -0.16324869
-0.1822209 -0.0382893 -0.16308069 -0.12947512 -0.09246804 -0.29687303 -0.0026404841 0.025041038
-0.11630518 -0.15157916 -0.14539424 0.1488291
00000000: 7e6d b93c 744c 823d 0fed 89be f953 93be
00000010: a8d4 38bc 8fd9 6dbe c836 18be 1642 b7bd
00000020: 3704 a5bc 2c8a 19be 0ef2 25be a1a7 acbd
00000030: b2f3 49bd 143e 6cbd bd8e 0bbe a708 eebd
00000040: 5ab6 11be 3835 4abe 60b6 d1bd 0eb7 d5bd
00000050: 4f99 bfbc 92bc dbbd a454 0b3c 3c41 86be
00000060: 58a2 1dbe 943f 38be 74cb 14be f8ee 143d
00000070: da77 953c f5e6 29be 3ef3 78be b301 30be
00000080: 17fa 763d 0e41 aebd f88c eebd 17d8 87bb
00000090: 6824 7bbe 062b d33c a3e6 963c 0bbd 52be
000000a0: f7de 1d3d fdf3 2cbe 4fe5 0abe 16b8 44bd
000000b0: dd7e 42be 744f e9bd 15bc 9ebd b641 31be
000000c0: 8d68 7ebe bad9 a1be a184 28be 8de7 ecbd
000000d0: eee4 fcbc c608 f8bd 1da3 06be f385 adbd
000000e0: 8339 48be c2f3 08be a5c4 b4bd d3d8 32be
000000f0: b80e 59bd dbbf 283e 7146 88be 350f 09be
00000100: 9d2a 3dbe 513e aabc edcd 24be 7cea 11bc
00000110: e4a1 fdbb c4e0 13be b558 04be 2bfb babd
00000120: d99d 63be 938f d73d 9983 68be d8e4 3cbe
00000130: 9740 fabd 6ac6 94be 1429 4fbe 8646 44be
00000140: 5381 72bd 1208 7bbe d23b d6bd cc0e 29bd
00000150: 03be 3dbe 5f19 a2bd d300 1c3a aa2a 27be
00000160: 1e98 3abe 3ed5 1cbd a0fe 26be 2095 04be
00000170: e25f bdbd beff 97be f90b 2dbb dd22 cd3c
00000180: 6931 eebd 9137 1bbe 3ae2 14be a866 183e

fc3.weight f4 [2, 100]
-0.50720876 -0.72887725 -0.7941461 -0.69044536 0.31883138 -0.22081532 -0.63389313 0.59254247
0.3038748 0.593704 -0.48084566 -0.67784643 -0.57732713 0.53172815 -0.5840255 0.5304911
-0.054476615 -0.59607524 -0.56939006 0.49206454 -0.66596276 -0.041897323 -0.632466 -0.57558376
-0.7599642 0.5463981 0.3325221 0.6692961 0.425705 0.67061454 -0.7338573 -0.7888234
-0.6752787 -0.48669046 0.7425951 0.3664383 -0.5402879 0.57677484 0.67350465 -0.3178827
0.16996478 -0.5677836 0.59480464 0.034900185 -0.5601417 0.35205185 -0.63087666 0.7542182
-0.49925357 -0.42081368 -0.44129795 -0.5826988 0.3075719 0.590476 0.66493106 0.5821052
0.7175745 0.3902104 0.10005357 -0.0407642 0.6686037 0.16145799 0.59176046 -0.5601115
0.4534984 0.5230046 0.5848579 0.11963817 -0.41156712 -0.04064484 -0.6075415 -0.48141542
0.8646383 0.031568225 -0.55736107 0.6251935 0.53190833 -0.47230834 0.6043656 0.6087225
-0.51908743 0.61456877 0.64068085 -0.76934916 -0.6953445 -0.52103543 0.49015218 -0.6343573
0.5938957 0.63798356 0.6893889 -0.19276297 0.74154943 -0.7599237 -0.3740264 0.5610973
-0.398346 -0.41092092 -0.6605102 0.43108794 0.5014696 0.719078 0.6682051 0.6932555
-0.2571824 0.13298522 0.5843653 -0.51812446 -0.4208265 -0.5609178 0.49505472 0.67726856
0.6118216 -0.6289896 0.6690113 -0.39394635 -0.04908584 0.55244815 0.39965108 -0.48136637
0.5109477 -0.042650856 0.60352427 0.5169509 0.6689355 -0.40948668 -0.26537266 -0.67522895
-0.36258644 -0.574433 0.6572985 0.70668924 0.62509865 0.5341765 -0.699971 -0.3295449
0.53597426 -0.52104264 -0.6271137 0.3831376 -0.25386497 0.54509664 -0.63072836 0.026463928
0.72141016 -0.34726432 0.6336031 -0.6188338 0.5299493 0.457311 0.51198965 0.57379043
-0.32493043 -0.5071336 -0.82228476 -0.6836929 -0.7064465 -0.4457793 -0.041712966 0.17366697
-0.5840896 -0.23062299 -0.6135979 0.5661562 -0.50939167 -0.5352177 -0.6955616 -0.13792066
0.53754497 -0.038460314 0.46382004 0.39263457 -0.8490605 -0.037422884 0.51575816 -0.6704551
-0.5140562 0.48795882 -0.54056644 -0.5529044 0.6969077 -0.51664436 -0.5965204 0.6921934
0.55889046 0.65489936 -0.61075544 0.6555985 -0.697331 -0.66817135 -0.7424275 0.04896617
-0.65175706 0.6974154 0.38662636 -0.5014143 0.58182824 0.4524492 0.8046253 -0.442269
00000000: 6fd8 01bf b397 3abf 294d 4bbf 07c1 30bf
00000010: de3d a33e 691d 62be d246 22bf ddb0 173f
00000020: 7a95 9b3e fcfc 173f 6731 f6be 5887 2dbf
00000030: b6cb 13bf 561f 083f b282 15bf 44ce 073f
00000040: df22 5fbd 6398 18bf 8cc3 11bf e2ef fb3e
00000050: 897c 2abf 879c 2bbd 4be9 21bf 7559 13bf
00000060: 048d 42bf bfe0 0b3f 5640 aa3e fd56 2b3f
00000070: 01f6 d93e 65ad 2b3f 12de 3bbf 55f0 49bf
00000080: 11df 2cbf 7e2f f9be b61a 3e3f cd9d bb3e
00000090: 4f50 0abf 84a7 133f cd6a 2c3f 85c1 a2be
000000a0: 3f0b 2e3e 445a 11bf 1e45 183f 7ff3 0e3d
000000b0: 7265 0fbf 2440 b43e 2281 21bf 7214 413f
000000c0: 2a9e ffbe e474 d7be cef1 e1be c02b 15bf
000000d0: 107a 9d3e 6f29 173f ec38 2a3f d904 153f
000000e0: f6b2 373f a8c9 c73e e3e8 cc3d 5df8 26bd
000000f0: 9d29 2b3f 3e55 253e 9d7d 173f 7863 0fbf
00000100: f130 e83e a1e3 053f 3fb9 153f db04 f53d
00000110: edb8 d2be 347b 26bd d787 1bbf 157c f6be
00000120: f058 5d3f af4d 013d 37af 0ebf ae0c 203f
00000130: 252b 083f 66d2 f1be b4b7 1a3f 3dd5 1b3f
00000140: eae2 04bf 6154 1d3f a903 243f 11f4 44bf
00000150: 1902 32bf 9462 05bf 3af5 fa3e 3d65 22bf
00000160: 8c09 183f e452 233f ca7b 303f a863 45be
00000170: 2fd6 3d3f 5c8a 42bf 6380 bfbe 13a4 0f3f
00000180: 02f4 cbbe 3a64 d2be 3217 29bf 8fb7 dc3e
00000190: 5060 003f 7f15 383f 7d0f 2b3f 3179 313f
000001a0: 69ad 83be 472d 083e f798 153f cea3 04bf
000001b0: 9276 d7be 4f98 0fbf d077 fd3e 7961 2d3f
000001c0: 57a0 1c3f 7605 21bf 5344 2b3f 56b3 c9be
000001d0: 3c0e 49bd 3e6d 0d3f 119f cc3e a775 f6be
000001e0: 78cd 023f aab2 2ebd 9180 1a3f e556 043f
000001f0: 5b3f 2b3f 3da8 d1be edde 87be cedb 2cbf
00000200: eea4 b9be 0b0e 13bf b744 283f 96e9 343f
00000210: 7706 203f cbbf 083f 4d31 33bf 1cba a8be
00000220: 9c35 093f 0d63 05bf 868a 20bf 9d2a c43e
00000230: 97fa 81be 748b 0b3f 6a77 21bf e1ca d83c
00000240: 56ae 383f a1cc b1be d033 223f e46b 1ebf
00000250: c2aa 073f ab24 ea3e c111 033f eee3 123f
00000260: 485d a6be 82d3 01bf 4181 52bf 7f06 2fbf
00000270: aed9 34bf 2f3d e4be 37db 2abd c1d5 313e
00000280: e586 15bf 6f28 6cbe c114 1dbf 9def 103f
00000290: 7e67 02bf 0704 09bf 5310 32bf 133b 0dbe
000002a0: 8c9c 093f 9088 1dbd d279 ed3e 6607 c93e
000002b0: 075c 59bf bd48 19bd ba08 043f f2a2 2bbf
000002c0: 3099 03bf bdd5 f93e 9062 0abf 258b 0dbf
000002d0: 8b68 323f ce42 04bf 90b5 18bf 9633 313f
000002e0: 7213 0f3f 7ca7 273f 785a 1cbf 4ed5 273f
000002f0: 4984 32bf 470d 2bbf bb0f 3ebf c090 483d
00000300: 8dd9 26bf d189 323f e4f3 c53e b05c 00bf
00000310: b2f2 143f 6ca7 e73e ecfb 4d3f 1571 e2be

fc3.bias f4 [2]
0.049993653 0.012633923
00000000: 25c6 4c3d 84fe 4e3c
