scripts/ffnn/ffnn_umap_model.ckpt (torch_old, 1057 bytes, 6 tensors)

fc1.weight f4 [2, 2]
00000000: f47f f4bd 4021 b5bd 904a 1e3f 7374 c73e
-0.119384676 -0.088442326 0.61832523 0.3895603

fc1.bias f4 [2]
00000000: 2dfc 5c3f 0f6c 64bb
0.8632229 -0.0034854447

fc2.weight f4 [2, 2]
00000000: 8df4 533f 1842 a03e f7e2 1ebf bcba 80bd
0.8279503 0.31300426 -0.6206507 -0.06285617

fc2.bias f4 [2]
00000000: 8101 1b3e f83e 0bbf
0.15137292 -0.5439296

fc3.weight f4 [2, 2]
00000000: fa59 393f e019 4d3e b9a4 c1be 655f 5c3f
0.7240292 0.20029402 -0.37820986 0.8608306

fc3.bias f4 [2]
00000000: 4d73 03be a381 403e
-0.12836953 0.18799452
