scripts/ffnn/ffnn_model.ckpt (torch_old, 82595 bytes, 6 tensors)

fc1.weight f4 [100, 100]
1.3368127 -1.5908111 -0.29526857 -1.520558 -1.3706474 1.0901076 0.18339832 -0.43811467
-0.07036796 0.3422963 -0.16051081 -0.7892921 2.5899765 -0.0477086 -1.2266598 0.33210376
-0.05543857 -0.6312566 0.09131659 0.22022766 -1.099199 0.73606205 0.9354569 0.3868204
1.2225807 -1.1291282 0.79364884 -0.09529987 -0.057361193 -0.6196948 0.65215373 -1.2674043
-0.63468033 0.53790134 -0.971495 -0.3769184 0.99109346 0.29915106 1.1712005 1.178881
-1.6514635 -0.78373134 -0.62233084 -0.07105861 -0.08369206 1.669868 -0.75309277 1.6825206
-0.841295 0.28944862 -0.18815002 -0.45294046 -0.8406131 -1.3946047 -0.3645176 0.82678163
1.0404205 -0.36573046 0.2909769 0.17771877 0.12396969 1.8022385 -1.2681623 0.06649047
1.2531203 0.32312253 -0.14092803 0.80783963 -0.3583872 0.45253098 0.50423634 0.45479974
-0.47981697 1.2051219 0.29992515 -1.4203447 -1.7358904 0.15881856 0.7945175 -0.29541287
1.4526967 0.25719848 -0.54495615 0.88814133 -0.54270804 0.28334597 0.15957366 -0.31192714
0.73043066 -0.72518986 0.98807734 0.29368713 0.12857305 -1.123181 0.006305097 1.2996781
1.6449142 0.62312335 -1.9594042 -0.55754423 -0.61293566 0.36745706 -1.3310686 -0.6462512
0.55442333 -0.3274819 -1.7228645 0.9061725 0.4948983 3.0382528 0.09739459 0.63947725
-0.19836095 0.42162284 -0.71742964 0.066163786 0.79559135 0.71363646 -0.24530254 0.8294125
0.6569568 -1.1555126 0.44734576 -1.6314955 0.6818641 -0.51738036 0.8703326 -0.5754084
-2.2108712 0.16172329 0.5743867 -0.7128764 -1.9677877 -1.5157279 -0.23014101 0.53726524
0.14523463 -1.3720491 -0.6318306 -0.24936527 -2.1775784 0.024950268 -0.57889056 1.2445431
0.38808128 -1.0401074 -0.60941494 -0.6990734 -0.5259869 0.42574134 0.3292349 1.0464317
0.8739164 1.2726395 0.6783577 -1.0964868 -0.45555353 1.9613067 0.35766166 -0.30491716
-0.26504463 -0.39754963 -0.3606046 -0.39000273 -1.0351266 0.1550038 -1.0468439 0.21846049
0.12622958 -1.4657687 0.35118505 -0.40493992 -0.7465115 -0.64771634 1.2825965 1.5645273
-0.34226263 0.93124557 -0.0052743326 -1.5414399 1.1757121 -0.4139053 0.4052501 0.0032744822
0.17879479 0.49531102 -1.0297302 1.0385786 -0.15555452 0.19981775 -0.051214352 0.20384438
0.14674702 -1.0476847 -0.09359674 1.3479824 0.7154509 2.1111648 -0.4379659 -0.28803623
0.19687721 1.6755255 -1.6385586 -0.8126574 -1.1175932 0.38765836 1.7531457 -1.3330374
-0.20726202 -0.44089144 -2.5264237 0.49518543 0.7004664 0.65473646 1.3693124 0.1655364
0.17563458 1.2558954 -0.029584987 -0.59648424 -0.7136127 -1.0913289 -0.091539875 0.5985555
0.42987195 -2.0880854 0.25878572 -1.3598742 0.69634813 0.08169104 -0.5423283 -0.17683324
-0.8606311 0.7786194 0.5940686 0.64182365 -0.03990535 -0.10051772 -0.8145145 1.0229398
0.28227988 -0.16077553 -1.409156 0.39810333 -0.041007515 -0.34540775 0.5778488 0.06865047
1.2513129 0.73991877 -0.76002026 -1.3506083 1.0833114 -0.07918986 0.5068211 2.1069891
00000000: ae1c ab3f b39f cbbf 712d 97be a5a1 c2bf
00000010: 6071 afbf a588 8b3f c5cc 3b3e 9150 e0be
00000020: 141d 90bd 7641 af3e f25c 24be 0c0f 4abf
00000030: 2dc2 2540 186a 43bd 3003 9dbf 8109 aa3e
00000040: 8e13 63bd 089a 21bf 3104 bb3d 5c83 613e
00000050: 8eb2 8cbf 906e 3c3f 1a7a 6f3f 530d c63e
00000060: 867d 9c3f 4687 90bf 922c 4b3f 942c c3bd
00000070: 92f3 6abd 52a4 1ebf 8cf3 263f 4e3a a2bf
00000080: 697a 22bf e7b3 093f e5b3 78bf 73fb c0be
00000090: 4db8 7d3f 542a 993e e6e9 953f 93e5 963f
000000a0: 2863 d3bf 9ea2 48bf 1351 1fbf 2d87 91bd
000000b0: be66 abbd 3cbe d53f b0ca 40bf d65c d73f
000000c0: 1c5f 57bf 9c32 943e 66aa 40be d0e7 e7be
000000d0: 6c32 57bf 6882 b2bf 0da2 babe f6a7 533f
000000e0: 802c 853f 0641 bbbe edfa 943e e9fb 353e
000000f0: d2e3 fd3d c0af e63f 2453 a2bf 282c 883d
00000100: 3f66 a03f 5170 a53e 704f 10be 94ce 4e3f
00000110: 877e b7be 24b2 e73e a215 013f 83db e83e
00000120: 92aa f5be 6f41 9a3f ca8f 993e dbcd b5bf
00000130: a831 debf 55a1 223e 8065 4b3f 5b40 97be
00000140: f7f1 b93f 85af 833e 3f82 0bbf 3b5d 633f
00000150: eaee 0abf b912 913e 4767 233e eab4 9fbe
00000160: 81fd 3a3f 0ba6 39bf a3f2 7c3f 295e 963e
00000170: a7a8 033e 65c4 8fbf fd9a ce3b da5b a63f
00000180: 8c8c d23f 0385 1f3f c2cd fabf 38bb 0ebf
00000190: 5ae9 1cbf 5523 bc3e 7560 aabf b870 25bf
000001a0: b0ee 0d3f b5ab a7be d386 dcbf ecfa 673f
000001b0: 4f63 fd3e bc72 4240 d176 c73d c8b4 233f
000001c0: 221f 4bbe f3de d73e 78a9 37bf e180 873d
000001d0: e0ab 4b3f e1b0 363f 9730 7bbe 6154 543f
000001e0: 522e 283f d6e7 93bf 810a e53e d8d4 d0bf
000001f0: a58e 2e3f 0a73 04bf 1ece 5e3f f74d 13bf
00000200: ea7e 0dc0 ca9a 253e 020b 133f 117f 36bf
00000210: 78e0 fbbf 5f03 c2bf 16aa 6bbe 378a 093f
00000220: 63b8 143e 4e9f afbf a6bf 21bf 9c59 7fbe
00000230: 725d 0bc0 8164 cc3c 2c32 14bf 304d 9f3f
00000240: 97b2 c63e 3d22 85bf 9e02 1cbf 79f6 32bf
00000250: 14a7 06bf c5fa d93e 7a91 a83e 79f1 853f
00000260: fcb8 5f3f dae5 a23f daa8 2d3f ae59 8cbf
00000270: 503e e9be 190c fb3f 6e1f b73e 1a1e 9cbe
00000280: eeb3 87be a08b cbbe 2ba1 b8be 70ae c7be
00000290: 077f 84bf 51b9 1e3e fbfe 85bf 1bb4 5f3e
000002a0: 5442 013e 4f9e bbbf 87ce b33e 4954 cfbe
000002b0: 611b 3fbf bdd0 25bf 1f2c a43f 6e42 c83f
000002c0: 0c3d afbe 1c66 6e3f 4fd4 acbb e74d c5bf
000002d0: bc7d 963f 65eb d3be f17c cf3e b298 563b
000002e0: fb15 373e 6899 fd3e 33ce 83bf 25f0 843f
000002f0: af49 1fbe 069d 4c3e 24c6 51bd 95bc 503e
00000300: da44 163e 881a 86bf a6af bfbd b08a ac3f
00000310: ca27 373f 531d 0740 113d e0be 7c79 93be
00000320: 2e9a 493e 9f77 d63f 4abc d1bf 510a 50bf
00000330: 4b0d 8fbf 287b c63e 1467 e03f f8a0 aabf
00000340: 7f3c 54be 86bc e1be edb0 21c0 f288 fd3e
00000350: c451 333f cf9c 273f a145 af3f 6082 293e
00000360: 8dd9 333e 2ec1 a03f 375c f2bc 31b3 18bf
00000370: 52af 36bf aab0 8bbf 4279 bbbd ef3a 193f
00000380: 2d18 dc3e 31a3 05c0 907f 843e 5c10 aebf
00000390: df43 323f a24d a73d 07d6 0abf c613 35be
000003a0: 5252 5cbf 9a53 473f e114 183f 8e4e 243f
000003b0: cb73 23bd 3cdc cdbd 0684 50bf b1ef 823f
000003c0: fd86 903e 57a2 24be 395f b4bf 33d4 cb3e
000003d0: 7ff7 27bd 49d9 b0be e6ed 133f 9e98 8c3d
000003e0: 052b a03f 516b 3d3f b090 42bf bce0 acbf
000003f0: f3a9 8a3f 4b2e a2bd 07bf 013f e9d8 0640

fc1.bias f4 [100]
-0.022419034 -0.009892025 -0.16109973 0.30499068 -0.020364761 0.18887086 -0.10618351 0.057216298
-0.10279155 -0.04853491 -0.009411449 -0.028335027 0.030871784 0.03455437 0.012193937 -0.119653665
-0.007166292 -0.047501817 0.19759803 -0.07043805 -0.071448974 0.025689945 -0.17755726 -0.054180067
-0.0010379569 -0.009562988 -0.007617204 0.21513137 0.05135034 0.021076178 -0.14413106 -0.15361154
-0.010761962 -0.003428057 -0.04519129 -0.41131422 0.018139187 -0.18261778 -0.17423764 -0.24652913
-0.059907302 -0.23575824 -0.045376685 0.08703484 -0.2176856 0.031362697 0.031349618 0.17595442
-0.27364329 -0.32947427 -0.15946701 -0.019466389 0.03128956 0.076225206 -0.3269547 0.22060506
-0.042352125 -0.13064766 -0.09335443 0.015465505 0.077222005 -0.072098866 -0.03404568 0.038898706
-0.15883416 -0.008264775 -0.2995918 0.16215046 -0.01739822 -0.16918327 0.054676246 -0.024471052
-0.07646017 -0.28418058 -0.0104252 0.009108472 -0.18323639 -0.045809552 -0.15304126 -0.00089848024
0.024369143 0.06070796 0.007733894 -0.012563556 -0.103956126 0.06893672 0.08134345 0.21797037
-0.037145227 -0.11755272 -0.38873124 0.034716427 -0.018591888 -0.16549921 -0.056506854 0.16822702
0.13822325 -0.0004906248 -0.15353142 0.19162895
00000000: 1fa8 b7bc 2912 22bc 54f7 24be bd27 9c3e
00000010: 00d4 a6bc 5d67 413e bd76 d9bd a35b 6a3d
00000020: 6084 d2bd 8bcc 46bd 7a32 1abc dc1e e8bc
00000030: d3e6 fc3c e288 0d3d 14c9 473c fb0c f5bd
00000040: 37d3 eabb 4491 42bd 2357 4a3e d341 90bd
00000050: d753 92bd b873 d23c 92d1 35be ebeb 5dbd
00000060: 0e0c 88ba 14ae 1cbc bd99 f9bb 664b 5c3e
00000070: bc54 523d f3a7 ac3c 1897 13be 584c 1dbe
00000080: f152 30bc 41a9 60bb 811a 39bd c797 d2be
00000090: a298 943c 2800 3bbe 5a6b 32be 2272 7cbe
000000a0: 5c61 75bd 9c6a 71be e7dc 39bd 523f b23d
000000b0: f9e8 5ebe 2c76 003d 7568 003d 652d 343e
000000c0: f91a 8cbe dab0 a8be 524b 23be fa77 9fbc
000000d0: 7b29 003d f61b 9c3d 9b66 a7be 4be6 613e
000000e0: 6c79 2dbd 80c8 05be 9b30 bfbd 0863 7d3c
000000f0: 9226 9e3d 92a8 93bd 7c73 0bbd 4054 1f3d
00000100: 6ca5 22be fb68 07bc 1964 99be c50a 263e
00000110: b686 8ebc 613e 2dbe 33f4 5f3d 8477 c8bc
00000120: 2697 9cbd 1e80 91be 75ce 2abc b33b 153c
00000130: 52a2 3bbe cca2 3bbd d9b6 1cbe fd87 6bba
00000140: cca1 c73c e9a8 783d 9b6c fd3b 60d7 4dbc
00000150: f3e6 d4bd b22e 8d3d 6597 a63d a033 5f3e
00000160: 9825 18bd 7bbf f0bd c807 c7be d032 0e3d
00000170: 044e 98bc a078 29be bb73 67bd b443 2c3e
00000180: 658a 0d3e 469d 00ba 5737 1dbe 613a 443e

fc2.weight f4 [100, 100]
0.8159496 0.9601468 -0.06161322 -0.14819007 -0.42677465 0.018511977 -1.9789331 0.57143164
-0.7233278 -0.93462545 1.0972897 -1.065726 1.1485219 -0.18031526 -0.075426415 0.78598386
0.11839657 -0.45024577 -0.1630637 1.1620497 -1.1223562 -0.1031545 0.2774259 1.0824387
0.23071954 0.03173088 -0.89796156 0.046491664 -0.7833732 0.37101403 0.57369125 0.43437037
0.20214061 1.7479905 1.118057 -0.2147534 -0.10223651 1.2147564 0.5914201 0.3401299
1.6931838 -1.9059653 -0.124841996 -0.021341272 -0.27115774 -0.008480935 -0.7076194 1.4027377
-0.68699133 -0.10099166 1.2305399 -0.5242676 -0.06375398 -0.48660314 0.23531947 -0.07921229
-0.426527 -0.32259235 2.0356045 -0.41877165 -1.1066607 -1.7286588 -0.26322225 -0.72994125
-0.5696457 -0.50077724 1.4517395 0.67170054 -0.4242176 -1.0389981 -0.95661604 0.227537
0.7019042 -0.23765406 -0.37826878 1.417596 1.0442094 1.6348827 1.0345702 -1.5101918
-0.17985336 0.23702645 0.056854416 -0.09814711 -0.33569184 -0.53948146 -0.18891123 -1.5494975
-0.35750973 0.65195066 0.17183496 -0.29936272 -0.05065189 -0.9209026 1.1009109 -1.1425389
0.41833112 -1.1671786 0.360706 -0.9600887 -0.5623735 1.7804394 1.8280965 0.049028855
-0.12076703 -1.20006 -0.60755974 -0.76289463 -0.77539647 0.18610981 0.50612164 -0.27143556
-0.28039238 0.31775698 0.6986135 -0.3053625 -1.1284435 -1.0571802 1.042591 1.7259499
-0.41504523 0.3764621 0.6614853 -0.34636852 -0.50808614 0.96900284 -0.5758218 0.7516613
0.29653576 -0.26901448 -1.1268078 0.066536546 0.01953275 -0.5485042 0.17378335 1.2236495
0.8287175 0.25443438 0.89110094 1.8418119 0.36389533 -1.6388764 -0.5318181 0.08591379
-0.9132732 -1.3437008 1.5533316 -1.6342009 0.9373954 0.5780012 0.9125561 0.057434186
-1.768304 -0.39618328 -0.5113608 -0.12136934 -0.2520699 -1.7165285 0.7090787 -0.5070157
0.9848084 0.7827658 -0.30520704 0.23626061 0.59355295 0.30054352 0.5309503 0.26095194
0.1599698 1.2279687 -0.097435184 -0.99866974 -1.258412 0.60554546 -0.89648396 0.08618258
-0.36326718 1.6291633 0.3365715 0.5784645 -0.0057139923 -0.22972947 0.016663734 0.073261224
1.4379818 0.4961686 1.47184 -1.2375705 1.4912952 0.9273446 0.06501626 0.31090483
0.5531962 -0.14407103 0.48960757 -0.0016813406 -0.94805074 0.88305247 0.6598265 -0.5320435
-0.9931416 0.14372304 0.12285403 -0.08727493 -0.6604269 0.71969146 0.8802347 0.34718445
1.9174154 -0.49485093 -0.008871161 0.5919839 2.4057713 0.5041761 -0.57956034 0.78233635
1.3529146 -1.1265527 -0.48264363 0.6816593 -0.6233252 1.7428299 -0.07671504 -0.014811453
-2.15411 0.006258157 -1.468721 -0.82210696 0.058674842 1.0119373 0.58152354 0.60455596
0.88228333 -0.15680727 -1.0155927 -0.5222544 1.031586 0.08256132 -0.38723224 -0.2583022
-0.6989146 0.38219962 0.70284647 -0.98938197 -0.4195822 2.4699123 0.94580317 -0.26479095
-0.007535195 -0.22947271 0.6526192 -0.5384213 0.66899323 1.1450552 -0.0747624 1.1497557
00000000: 13e2 503f 2ecc 753f 255e 7cbd 23bf 17be
00000010: 3582 dabe 6ea6 973c ae4d fdbf 5849 123f
00000020: 032c 39bf 9d43 6fbf fd73 8c3f b669 88bf
00000030: c402 933f 90a4 38be 2a79 9abd 3d36 493f
00000040: e779 f23d 9d86 e6be 2cfa 26be 0bbe 943f
00000050: 5ea9 8fbf ab42 d3bd c40a 8e3e 5a8d 8a3f
00000060: be41 6c3e 3df8 013d cfe0 65bf 0b6e 3e3d
00000070: 258b 48bf 8df5 bd3e 6edd 123f cb65 de3e
00000080: f3fd 4e3e 27be df3f 7e1c 8f3f 51e8 5bbe
00000090: 6061 d1bd 237d 9b3f 4f67 173f 8225 ae3e
000000a0: 3fba d83f acf6 f3bf 29ad ffbd e4d3 aebc
000000b0: 30d5 8abe 9ff3 0abc 8c26 35bf e98c b33f
000000c0: aade 2fbf b7d4 cebd 5582 9d3f 6736 06bf
000000d0: 7291 82bd 0c24 f9be 96f7 703e 0e3a a2bd
000000e0: bf61 dabe d32a a5be 5847 0240 3d69 d6be
000000f0: 0fa7 8dbf b144 ddbf 11c5 86be 6edd 3abf
00000100: 4dd4 11bf f032 00bf 9ad2 b93f 91f4 2b3f
00000110: 0d33 d9be e4fd 84bf cae4 74bf 76ff 683e
00000120: feaf 333f 965b 73be 72ac c1be c973 b53f
00000130: a7a8 853f d643 d13f cc6c 843f f74d c1bf
00000140: 7b2b 38be 10b7 723e 2de0 683d 5a01 c9bd
00000150: cddf abbe 751b 0abf f271 41be ef55 c6bf
00000160: 840b b7be 3de6 263f 81f5 2f3e 1246 99be
00000170: 5b78 4fbd 46c0 6bbf a6ea 8c3f b73e 92bf
00000180: 7f2f d63e 1c66 95bf 75ae b83e 5fc8 75bf
00000190: b6f7 0fbf 70e5 e33f 11ff e93f 7bd2 483d
000001a0: b454 f7bd 919b 99bf 0989 1bbf 104d 43bf
000001b0: 6280 46bf 9293 3e3e 3091 013f 9af9 8abe
000001c0: 978f 8fbe 0bb1 a23e 56d8 323f 7958 9cbe
000001d0: d670 90bf ae51 87bf 9f73 853f edeb dc3f
000001e0: cf80 d4be a4bf c03e 1a57 293f 3757 b1be
000001f0: ef11 02bf 9210 783f 0f69 13bf e06c 403f
00000200: 89d3 973e 44bc 89be 3d3b 90bf 5044 883d
00000210: 2503 a03c c56a 0cbf 43f4 313e 8ca0 9c3f
00000220: d526 543f 3945 823e 311f 643f 7ec0 eb3f
00000230: 7d50 ba3e b4c6 d1bf 3b25 08bf 92f3 af3d
00000240: 46cc 69bf 63fe abbf 92d3 c63f 7f2d d1bf
00000250: 25f9 6f3f e3f7 133f 479d 693f 1c40 6b3d
00000260: c957 e2bf 89d8 cabe 8be8 02bf 7d90 f8bd
00000270: 4e0f 81be 35b7 dbbf 2f86 353f c8cb 01bf
00000280: 671c 7c3f 5763 483f 1944 9cbe 4dee 713e
00000290: 16f3 173f d7e0 993e 5cec 073f 7e9b 853e
000002a0: 20cf 233e 142e 9d3f 198c c7bd d2a8 7fbf
000002b0: a513 a1bf 0705 1b3f f97f 65bf 7e80 b03d
000002c0: 28fe b9be 6c88 d03f 1a53 ac3e 4016 143f
000002d0: 713c bbbb 343e 6bbe 6282 883c fb09 963d
000002e0: ca0f b83f d009 fe3e 4165 bc3f b668 9ebf
000002f0: c3e2 be3f 7566 6d3f 3f27 853d eb2e 9f3e
00000300: 449e 0d3f 5b87 13be d8ad fa3e 6e60 dcba
00000310: 74b3 72bf ba0f 623f 64ea 283f 0134 08bf
00000320: 873e 7ebf 222c 133e e59a fb3d 33bd b2bd
00000330: bd11 29bf b33d 383f 1057 613f 29c2 b13e
00000340: de6d f53f 1a5d fdbe 5958 11bc 428c 173f
00000350: 28f8 1940 af11 013f 115e 14bf 3247 483f
00000360: 4e2c ad3f e132 90bf 111d f7be 3981 2e3f
00000370: 3e92 1fbf 0d15 df3f c61c 9dbd bdab 72bc
00000380: f0dc 09c0 3a11 cd3b 0dff bbbf 9a75 52bf
00000390: 0855 703d 2987 813f bade 143f 2ec4 1a3f
000003a0: 52dd 613f 1692 20be f1fe 81bf 77b2 05bf
000003b0: 030b 843f e915 a93d 4e43 c6be 3040 84be
000003c0: 11ec 32bf abaf c33e bfed 333f 2348 7dbf
000003d0: 7ad3 d6be 0b13 1e40 2820 723f ae92 87be
000003e0: cce9 f6bb e5fa 6abe 0d12 273f fad5 09bf
000003f0: 2443 2b3f 2b91 923f 071d 99bd 322b 933f

fc2.bias f4 [100]
-0.9074638 -0.69327044 -1.0683545 0.24791834 1.202885 1.5434947 -0.9044425 -1.434346
-0.62124 -1.041623 0.8559281 -1.2062892 1.2510123 -2.3849485 -0.5350213 -0.64609593
0.79745483 -1.0174867 -1.6455189 -1.9458874 -1.6971234 -0.29140723 -0.25777364 -3.078101
-2.5027752 -0.36695907 -0.086392306 0.82244843 -0.4933242 -1.0863171 -0.27160782 -0.6843927
-2.3054388 0.36784825 -2.8378942 -1.4901867 -1.0515407 -0.65950346 0.45834583 -0.5981152
-1.0042261 -1.7226455 0.9058983 -0.6188603 -0.77711517 -1.168179 0.5285002 -0.53109175
-1.21529 -1.5032592 -1.369157 -1.1607656 -2.7573414 -1.2549974 0.37786156 -0.24900438
-0.6236796 0.6409537 -0.24652994 -0.058968753 -0.10542321 -2.1346874 -0.6819105 -0.64689726
-0.35542214 -0.38626373 -1.1889157 -0.46870044 -0.62023264 0.3073469 -1.5303128 0.017704137
0.29151398 -0.43287537 0.97603935 -1.3438284 -1.3855379 -1.4759037 -0.59716713 -1.889631
-2.0762596 -1.6888841 -1.6070551 -0.6130104 -1.1683745 -1.6868883 -0.69611406 -0.6400806
0.049421545 -1.4924251 -1.2535692 -1.4115086 0.21865602 -1.2296002 -1.6471548 -0.4844807
0.48789254 -1.2834553 -0.3177142 1.0073764
00000000: 8c4f 68bf 2c7a 31bf d7bf 88bf 4ede 7d3e
00000010: 23f8 993f 3c91 c53f 8b89 67bf a698 b7bf
00000020: 9609 1fbf e753 85bf 1b1e 5b3f af67 9abf
00000030: 2c21 a03f ffa2 18c0 28f7 08bf 8b66 25bf
00000040: 0026 4c3f 013d 82bf 5da0 d2bf d712 f9bf
00000050: 573b d9bf 5433 95be e8fa 83be 9bff 44c0
00000060: 782d 20c0 0fe2 bbbe 73ee b0bd fb8b 523f
00000070: fd94 fcbe 700c 8bbf 2e10 8bbe 5c34 2fbf
00000080: 4f8c 13c0 9b56 bc3e 0fa0 35c0 70be bebf
00000090: e398 86bf 38d5 28bf 4eac ea3e 141e 19bf
000000a0: 7b8a 80bf a67f dcbf f3e8 673f a16d 1ebf
000000b0: 05f1 46bf e486 95bf ca4b 073f a1f5 07bf
000000c0: 9f8e 9bbf cc6a c0bf 8940 afbf f893 94bf
000000d0: 4878 30c0 c1a3 a0bf 1277 c13e 01fb 7ebe
000000e0: 77a9 1fbf 8b15 243f 5872 7cbe 3889 71bd
000000f0: 20e8 d7bd b89e 08c0 b091 2ebf 0f9b 25bf
00000100: e4f9 b5be 5cc4 c5be 642e 98bf 81f9 efbe
00000110: 91c7 1ebf 935c 9d3e 4ae1 c3bf 4408 913c
00000120: 5241 953e d7a1 ddbe b7dd 793f 9202 acbf
00000130: 4e59 b1bf 6aea bcbf f2df 18bf 6edf f1bf
00000140: 70e1 04c0 5b2d d8bf fbb3 cdbf 40ee 1cbf
00000150: 4c8d 95bf f5eb d7bf 8834 32bf 52dc 23bf
00000160: 3f6e 4a3d c907 bfbf f574 a0bf 50ac b4bf
00000170: 5de7 5f3e 8a63 9dbf f8d5 d2bf db0d f8be
00000180: 0dcd f93e 4348 a4bf 70ab a2be b6f1 803f

fc3.weight f4 [2, 100]
-0.6582759 0.5547529 -0.56313914 0.6889318 0.6722123 -0.55700487 -0.55193317 -0.46490195
0.5873095 -0.48787692 -0.55067956 -0.59403604 0.5688468 -0.8082261 -0.59025294 0.5134848
0.6744549 0.28137073 0.86832356 -0.46244282 -0.61834687 -0.66284174 0.31443515 0.79422575
0.4420935 0.38602814 0.6490907 0.5998355 -0.7001238 -0.5517059 0.61765635 0.69847125
-0.74778396 0.4953826 0.7262917 -0.50481355 0.65133363 0.06866596 0.4783088 -0.04989365
-0.4516987 0.51091194 0.4729317 -0.77587545 -0.5507523 0.8221909 0.2649926 -0.7051246
0.75754285 0.61536384 -0.6313328 -0.66034216 -0.63399285 -0.65120345 -0.5495016 0.4471703
-0.61762726 0.3767466 0.42312884 0.5026759 0.540045 0.5397334 0.021131827 0.032596003
-0.46800545 -0.51584274 -0.62912714 0.59271073 0.37754333 0.48274782 0.6065517 0.39280728
0.67674464 -0.42518124 0.6246237 -0.46318606 0.77155995 -0.594409 -0.5903423 -0.56247437
0.86460185 -0.65773445 0.494253 0.061121818 0.49366736 0.5329991 -0.4467047 -0.036064997
-0.54506385 -0.8005921 0.7030895 -0.6426233 -0.40073308 -0.66142505 -0.44548652 -0.70910114
0.44399446 0.3759431 0.7188741 -0.43530703 0.69338113 -0.64353085 0.42902893 -0.61735356
-0.6898554 0.54405355 0.5916397 0.548291 -0.61388993 0.6133323 0.60319483 0.5058383
-0.60394555 0.8140655 0.68610215 -0.5311168 -0.8127307 -0.28133374 -0.8792138 0.4822628
0.61788595 0.66082686 -0.3320319 -0.7471836 -0.5988829 -0.35304338 -0.6374168 -0.57840264
0.6370434 0.39826882 -0.46494827 -0.5152227 0.6413877 -0.5056656 -0.6736859 0.6150916
-0.5280941 0.070385724 -0.42956668 -0.04057885 0.49979028 -0.43209407 -0.37889937 0.71158326
0.46427992 -0.8418566 -0.37423772 0.75386167 -0.821547 -0.7311211 0.63335633 0.56611586
0.5649673 0.6996735 0.58918506 -0.53285635 0.56378496 -0.36403862 -0.41109014 -0.57933235
-0.6095334 -0.61810106 0.01916797 0.024491135 0.4369795 0.44479534 0.58903414 -0.46797433
-0.3423427 -0.45669258 -0.73041815 -0.39815295 -0.66371673 0.46699563 -0.4929933 0.47349146
-0.767249 0.45456153 0.5874237 0.61648077 -0.81768465 0.55546045 -0.4968158 0.06634685
-0.5056026 -0.6022748 0.44898623 -0.034313824 0.5646385 0.78930557 -0.72936773 0.5281226
0.41487062 0.66843814 0.5052324 0.67823917 -0.4251771 -0.29538524 -0.641078 0.38135397
00000000: c584 28bf 4904 0e3f e329 10bf d65d 303f
00000010: 1b16 2c3f df97 0ebf 7e4b 0dbf a107 eebe
00000020: ea59 163f 01cb f9be 56f9 0cbf bf12 18bf
00000030: f29f 113f e8e7 4ebf d11a 17bf bd73 033f
00000040: 14a9 2c3f d30f 903e 744a 5e3f 4ec5 ecbe
00000050: fb4b 1ebf ffaf 29bf a5fd a03e 6152 4b3f
00000060: 145a e23e 7ba5 c53e cf2a 263f d28e 193f
00000070: 503b 33bf 993c 0dbf ba1e 1e3f 03cf 323f
00000080: c56e 3fbf caa2 fd3e 41ee 393f 763b 01bf
00000090: cdbd 263f bda0 8c3d e4e4 f43e 495d 4cbd
000000a0: 0d45 e7be 20cb 023f 1b24 f23e c69f 46bf
000000b0: 1afe 0cbf 1a7b 523f 1cad 873e 0c83 34bf
000000c0: 54ee 413f 7c88 1d3f 079f 21bf 2f0c 29bf
000000d0: 5b4d 22bf 45b5 26bf 23ac 0cbf 81f3 e43e
000000e0: d21c 1ebf eee4 c03e 58a4 d83e 5eaf 003f
000000f0: 6440 0a3f f82b 0a3f a71c ad3c 6383 053d
00000100: 699e efbe 450e 04bf 7a0e 21bf e4bb 173f
00000110: 5c4d c13e b92a f73e f946 1b3f 091e c93e
00000120: 233f 2d3f 5bb1 d9be 57e7 1f3f b926 edbe
00000130: f484 453f 302b 18bf ac20 17bf 52fe 0fbf
00000140: 8c56 5d3f 4961 28bf bb0e fd3e df5a 7a3d
00000150: f8c1 fc3e a172 083f 7ab6 e4be e4b8 13bd
00000160: 4e89 0bbf 9bf3 4cbf acfd 333f f682 24bf
00000170: e32c cdbe 2753 29bf cf16 e4be a787 35bf
00000180: 3e53 e33e 9d7b c03e 2208 383f 90e0 debe
00000190: 6d81 313f 70be 24bf aea9 db3e e20a 1ebf
000001a0: 5d9a 30bf 1847 0b3f b375 173f cd5c 0c3f
000001b0: e427 1dbf 5803 1d3f fa6a 1a3f 9e7e 013f
000001c0: 2d9c 1abf 9966 503f 64a4 2f3f 45f7 07bf
000001d0: 1f0f 50bf fa0a 90be 2814 61bf 26eb f63e
000001e0: c62d 1e3f f32b 293f 1600 aabe 6d47 3fbf
000001f0: 6450 19bf 1ac2 b4be bf2d 23bf 3212 14bf
00000200: 4715 233f e4e9 cb3e b30d eebe a3e5 03bf
00000210: fc31 243f 4d73 01bf ae76 2cbf a576 1d3f
00000220: 2d31 07bf 6426 903d 2af0 dbbe 0236 26bd
00000230: 83e4 ff3e 6f3b ddbe 19ff c1be 522a 363f
00000240: 19b6 ed3e ea83 57bf 169c bfbe 14fd 403f
00000250: e750 52bf c12a 3bbf a423 223f f8ec 103f
00000260: b2a1 103f cd1d 333f d5d4 163f 4669 08bf
00000270: 3654 103f 4563 babe 687a d2be 204f 14bf
00000280: 620a 1cbf df3b 1ebf 2606 9d3c a2a1 c83c
00000290: c7bb df3e 37bc e33e f1ca 163f 559a efbe
000002a0: 8b47 afbe 9cd3 e9be affc 3abf b4da cbbe
000002b0: 57e9 29bf 0d1a ef3e 9e69 fcbe 796d f23e
000002c0: 6e6a 44bf 4abc e83e 6661 163f afd1 1d3f
000002d0: c853 51bf a832 0e3f a45e febe dbe0 873d
000002e0: 2c6f 01bf ae2e 1abf 86e1 e53e a78c 0cbd
000002f0: 268c 103f ee0f 4a3f d8b7 3abf 0b33 073f
00000300: ec69 d43e c31e 2b3f e956 013f 15a1 2d3f
00000310: d0b0 d9be bc3c 97be b01d 24bf d440 c33e

fc3.bias f4 [2]
-1.1659034 1.1484053
00000000: 533c 95bf f2fe 923f
