scripts/ffnn/ffnn_model.ckpt (torch_old, 82595 bytes, 6 tensors)

fc1.weight f4 [100, 100]
-0.10989348 0.3492069 -0.03483943 0.05402896 0.04666608 0.11882093 0.20382512 -0.12872487
0.14135124 0.18213059 0.036199257 -0.063540496 0.12428176 0.13013731 0.2976182 0.035674345
-0.32178375 0.05098145 -0.17256445 0.08433616 -0.0020317645 0.004608467 0.24936748 -0.006557162
0.053987883 -0.059039835 -0.083839 0.11212477 0.18418029 0.07075002 -0.17851171 0.0029173787
-0.0505695 0.020270867 0.003180815 0.06760657 0.01587329 -0.22772281 -0.3110282 -0.02753426
0.05785392 -0.060402505 -0.162558 0.09975847 -0.33882013 0.03334905 0.12758787 0.024094542
-0.23280153 -0.17643553 -0.076244235 0.02197314 0.057168152 -0.14988415 0.15329531 0.04724317
-0.23004727 -0.16784286 0.103083454 -0.038662303 -0.37009665 -0.055901077 -0.008360505 -0.009091766
-0.07405144 0.15593597 0.17966607 0.047564156 0.15531237 -0.32296312 0.0007885186 -0.07344224
0.49760523 0.1498635 0.11502327 -0.1308758 0.20801792 0.29682034 0.081708714 0.08190628
0.067909665 -0.17675799 -0.34076652 -0.21958432 0.058763593 -0.029949866 -0.17382643 0.20361663
-0.09506692 0.14676854 0.015525929 0.09554369 0.29876685 0.100464396 -0.18283357 0.12788557
0.12506425 0.029737 -0.3963551 -0.047604997 0.036184598 0.019981677 -0.2533947 -0.18523632
-0.015685093 0.057317235 -0.251733 0.13670757 -0.2507546 -0.09548649 0.006022704 0.14566688
0.067953184 0.14618343 -0.03974586 0.032861516 -0.09486208 0.04581809 -0.27576408 -0.2751382
0.119471855 -0.16989443 0.08308272 -0.007184607 -0.06688527 -0.2904121 0.101094626 0.10180014
-0.1461739 0.10302851 -0.028530104 0.10963766 -0.03260503 -0.04726659 0.46859917 0.110229336
0.22365971 0.07611579 0.028369546 -0.10646733 -0.032635238 0.029333374 -0.19916059 0.08825876
-0.08144284 -0.13389193 0.19771433 -0.08695898 -0.1083768 -0.32838514 -0.09433931 0.02201394
-0.3131623 0.105039276 0.06627555 0.09094468 0.17232521 -0.15540381 0.22398613 0.08221564
-0.11030958 -0.26718786 0.09799156 -0.022534186 -0.11224603 0.016828163 0.15516469 -0.053339135
0.22533685 -0.24148768 0.2999473 0.14032687 0.175547 0.13486247 0.067974016 -0.06257987
-0.057093363 0.12730296 -0.06206567 0.112366796 -0.12681156 0.24646376 -0.09732787 -0.31014457
0.25172397 -0.06503123 0.012683458 -0.092076376 -0.06978513 0.026363557 0.12083893 0.10388556
0.17281732 -0.21423922 0.17175327 -0.08913243 0.045465413 -0.26406816 -0.18701436 -0.03594076
-0.02944096 0.047682874 -0.37923592 0.0378494 -0.3049543 0.42403436 -0.21830857 -0.10153756
-0.13920358 0.023766719 -0.3129696 0.088184156 0.1292232 -0.06474482 0.2264545 0.043450654
-0.18677762 -0.26486555 -0.08483212 0.08452216 -0.027461583 -0.0652654 -0.013260366 -0.018983904
-0.02358286 -0.3931084 0.037041683 0.08024311 -0.2107256 0.022671001 -0.10104992 -0.078975625
0.0010296184 -0.044243407 0.26668254 0.24547681 -0.066768564 0.09973681 -0.111139596 0.019734848
0.21590006 0.2519411 -0.048733238 -0.10595726 0.15133771 0.3072643 -0.025937466 -0.22311048
0.1365307 -0.12776907 0.037242822 -0.13917361 -0.112687945 0.10659591 0.0829291 0.1752999
00000000: d50f e1bd 3fcb b23e cab3 0ebd 794d 5d3d
00000010: ee24 3f3d 6358 f33d 88b7 503e 74d0 03be
00000020: 61be 103e 7180 3a3e ac45 143d 8521 82bd
00000030: 6f87 fe3d b742 053e 6a61 983e 431f 123d
00000040: d7c0 a4be edd1 503d bcb4 30be 70b8 ac3d
00000050: 5a27 05bb a002 973b 305a 7f3e 76dd d6bb
00000060: 6622 5d3d c1d3 71bd c8b3 abbd aca1 e53d
00000070: c299 3c3e 63e5 903d c6cb 36be 7e31 3f3b
00000080: f721 4fbd 170f a63c 3875 503b 5075 8a3d
00000090: b408 823c 2b30 69be 173f 9fbe 878f e1bc
000000a0: 3bf8 6c3d 9e68 77bd 9b75 26be 2b4e cc3d
000000b0: d579 adbe 0399 083d 65a6 023e eb61 c53c
000000c0: 8663 6ebe 84ab 34be f025 9cbd 0401 b43c
000000d0: 2729 6a3d 3b7b 19be 72f9 1c3e 0e82 413d
000000e0: 8391 6bbe 00df 2bbe 6b1d d33d 5d5c 1ebd
000000f0: 4f7d bdbe 87f8 64bd 80fa 08bc a1f5 14bc
00000100: 48a8 97bd aead 1f3e 62fa 373e a2d2 423d
00000110: 350a 1f3e 6c5b a5be 96b4 4e3a e368 96bd
00000120: 1dc6 fe3e d175 193e 5291 eb3d 4e04 06be
00000130: a602 553e d6f8 973e e656 a73d 7bbe a73d
00000140: 3914 8b3d 0c00 35be f378 aebe b6da 60be
00000150: 18b2 703d 6c59 f5bc 8eff 31be e180 503e
00000160: 72b2 c2bd 7e4a 163e 7760 7e3c 69ac c33d
00000170: f8f7 983e 47c0 cd3d b938 3bbe 6ff4 023e
00000180: d810 003e 029b f33c 0eef cabe 75fd 42bd
00000190: 4d36 143d 9db0 a33c f3bc 81be 97ae 3dbe
000001a0: 067e 80bc 7ac5 6a3d 26e3 80be 12fd 0b3e
000001b0: e862 80be 6c8e c3bd 1a5a c53b b329 153e
000001c0: 0a2b 8b3d 1cb1 153e 8ecc 22bd cc99 063d
000001d0: 0d47 c2bd c0ab 3b3d f330 8dbe eade 8cbe
000001e0: a9ad f43d cef8 2dbe 4627 aa3d da6c ebbb
000001f0: 25fb 88bd e5b0 94be b30a cf3d 987c d03d
00000200: 9cae 15be 9d00 d33d f7b7 e9bc b689 e03d
00000210: da8c 05bd 9d9a 41bd 3bec ef3e ebbf e13d
00000220: 0d07 653e 98e2 9b3d 4067 e83c 8b0b dabd
00000230: 87ac 05bd 8b4c f03c c1f0 4bbe 02c1 b43d
00000240: 81cb a6bd f71a 09be a075 4a3e 8d17 b2bd
00000250: a8f4 ddbd 1922 a8be f834 c1bd 9456 b43c
00000260: cf56 a0be d51e d73d 7abb 873d 3441 ba3d
00000270: 0576 303e 2d22 1fbe 9f5c 653e ac60 a83d
00000280: fde9 e1bd d9cc 88be cdaf c83d 9d99 b8bc
00000290: 3fe1 e5bd 37db 893c 7ee3 1e3e 237a 5abd
000002a0: b4be 663e 8c48 77be b192 993e d9b1 0f3e
000002b0: 98c2 333e 6319 0a3e f635 8b3d e029 80bd
000002c0: bbda 69bd b55b 023e 9238 7ebd 9020 e63d
000002d0: e4da 01be ff60 7c3e d653 c7bd 45cb 9ebe
000002e0: f7e1 803e 182f 85bd 47ce 4f3c 8a92 bcbd
000002f0: 82eb 8ebd 63f8 d73c 677a f73d f4c1 d43d
00000300: 06f7 303e 8761 5bbe 17e0 2f3e 108b b6bd
00000310: f139 3a3d f133 87be b180 3fbe 9e36 13bd
00000320: 2b2e f1bc 1e4f 433d 362b c2be f907 1b3d
00000330: f822 9cbe 081b d93e 488c 5fbe edf2 cfbd
00000340: 628b 0ebe 6cb2 c23c 8d3d a0be e599 b43d
00000350: 1653 043e ef98 84bd b0e3 673e 50f9 313d
00000360: a242 3fbe 759c 87be 76bc adbd f419 ad3d
00000370: 1df7 e0bc dea9 85bd 0242 59bc 2284 9bbc
00000380: d830 c1bc 8145 c9be 05b9 173d 8056 a43d
00000390: 74c8 57be 89b8 b93c 43f3 cebd f9bd a1bd
000003a0: 43f4 863a 9338 35bd 9d8a 883e 465e 7b3e
000003b0: f5bd 88bd d042 cc3d 289d e3bd faaa a13c
000003c0: e814 5d3e 6dfe 803e 819c 47bd 1f00 d9bd
000003d0: 46f8 1a3e bf51 9d3e cf7a d4bc 1377 64be
000003e0: b4ce 0b3e e5d5 02be ee8b 183d 8783 0ebe
000003f0: f0c8 e6bd f54e da3d bbd6 a93d d181 333e

fc1.bias f4 [100]
0.016855733 -0.06832353 -0.02348271 -0.07101887 0.0039712545 0.08512139 -0.0747458 -0.09287564
-0.12720306 0.05882375 0.019706937 0.061503455 0.01705932 -0.040610902 -0.021693338 -0.046870597
-0.115179665 0.08651159 0.059938557 0.049180537 -0.002091714 0.0042372216 0.034081265 0.09269367
-0.018170442 -0.07048972 0.00971433 0.03749487 -0.05499086 -0.062108833 0.039100785 -0.007970292
0.034510836 0.023068644 -0.039535154 -0.109969534 -0.018520523 -0.07706926 -0.09652747 0.030739276
-0.017526576 -0.06678303 -0.086889245 -0.022236431 -0.019801157 0.025793944 0.06906611 -0.05506784
0.039176024 0.05599517 0.014752091 0.013350887 0.067540236 0.03975146 0.0008796542 0.02251237
0.08231177 0.05067978 -0.051745355 -0.05573461 0.08936078 0.036523752 0.050476633 0.05758317
-0.13478073 -0.04062125 0.11457225 -0.04077391 0.042884726 0.057518788 0.052552618 -0.061764687
0.020449016 -0.039120924 -0.056016058 0.042430352 -0.085052036 -0.0369039 -0.058371857 0.041544724
-0.087354705 0.03088824 0.00054430787 -0.10156878 -0.031281654 0.028789544 -0.10828617 -0.049648203
-0.0037681481 -0.122494854 0.008267258 -0.11851945 0.011625815 -0.050600007 -0.027576016 0.059176676
0.05237525 -0.073710755 0.0787525 -0.048983686
00000000: 0915 8a3c 35ed 8bbd d05e c0bc 5772 91bd
00000010: 4c21 823b 2054 ae3d 5314 99bd 9535 bebd
00000020: 8541 02be 2cf1 703d 7170 a13c 0ceb 7b3d
00000030: fdbf 8b3c 9e57 26bd 3ab6 b1bc 62fb 3fbd
00000040: 51e3 ebbd fd2c b13d 2282 753d 8871 493d
00000050: 2315 09bb 64d8 8a3b cc98 0b3d 2ed6 bd3d
00000060: 2eda 94bc ea5c 90bd da28 1f3c 3994 193d
00000070: 193e 61bd d565 7ebd 2528 203d d495 02bc
00000080: 3c5b 0d3d 74fa bc3c 9def 21bd b537 e1bd
00000090: 5ab8 97bc 7dd6 9dbd 32b0 c5bd efd0 fb3c
000000a0: e593 8fbc 8bc5 88bd fdf2 b1bd 2d29 b6bc
000000b0: 0936 a2bc d24d d33c 8872 8d3d d18e 61bd
000000c0: 0a77 203d 315b 653d c1b2 713c aebd 5a3c
000000d0: 8952 8a3d 6dd2 223d 9898 663a dd6b b83c
000000e0: 1393 a83d 9a95 4f3d f0f2 53bd f949 64bd
000000f0: c902 b73d ee99 153d 96c0 4e3d 54dc 6b3d
00000100: f603 0abe 7862 26bd dba4 ea3d 8b02 27bd
00000110: e5a7 2f3d d298 6b3d 6a41 573d f8fc 7cbd
00000120: b284 a73c 433d 20bd 1871 65bd 73cb 2d3d
00000130: c32f aebd 8b28 17bd 5417 6fbd cd2a 2a3d
00000140: 06e7 b2bd 5609 fd3c e2af 0e3a 4b03 d0bd
00000150: 3121 00bd 0dd8 eb3c 24c5 ddbd ea5b 4bbd
00000160: 09f3 76bb 95de fabd 6573 073c 53ba f2bd
00000170: 347a 3e3c f441 4fbd 19e7 e1bc 3e63 723d
00000180: 6e87 563d aaf5 96bd fe48 a13d 1ea3 48bd

fc2.weight f4 [100, 100]
0.05842349 0.10633262 0.07086729 0.13983038 -0.16653398 0.1424627 -0.103080735 -0.25625306
0.11767985 -0.19154753 0.30412814 0.020034794 0.13476713 0.027060308 0.088194214 -0.012775531
0.09659056 0.039368816 0.21065912 0.06595567 -0.009969049 0.13175802 0.039119966 -0.1848253
0.16784826 -0.16540559 0.05335548 0.17014049 0.2960668 -0.039312955 -0.084883004 0.116035
-0.19014546 -0.32199028 -0.29486534 -0.07128591 -0.08881922 -0.045340884 -0.059226915 0.015180671
-0.027999327 0.08352514 -0.11783788 0.05851927 0.041924167 -0.03536619 -0.28451326 -0.21440786
0.1684331 -0.19578724 0.18468164 -0.1953677 0.026909664 -0.10273829 0.34314245 0.019509738
0.07941934 0.22684707 -0.086801834 -0.273212 0.046469487 -0.071400434 0.061507247 0.037938148
0.042108573 0.22540675 -0.3230282 -0.28917548 0.20094174 -0.02023812 -0.12760794 -0.19647168
-0.19620629 -0.122862056 -0.07628695 0.04153539 -0.152847 -0.0040123207 -0.00063663087 -0.031187452
0.057210114 0.016829947 0.19716787 0.20609403 0.123212166 0.013845075 0.165264 -0.01663664
-0.1311675 -0.12678865 0.01787884 0.056607794 0.43786654 0.11856094 0.17621648 -0.0042395755
0.30902216 0.04887262 -0.16324362 0.05391025 -0.21515399 -0.10046328 -0.21942334 0.03644018
-0.252912 0.009580185 0.071882024 -0.07195272 -0.060328856 0.29211178 -0.16196086 0.14481121
0.029964251 0.16467151 -0.059277512 0.19005428 -0.0024668798 0.1779586 0.048779514 -0.13696449
-0.04156725 -0.18426919 -0.12223008 -0.28741577 -0.10030431 -0.14779839 0.24439056 0.007563934
0.30096623 -0.106484696 -0.19579439 0.07157804 0.3826903 0.19213143 -0.12556686 0.10247827
-0.13379674 -0.14952704 -0.4110091 0.030871248 0.13344675 0.2166029 -0.004521135 0.21562459
0.12025764 -0.102550425 -0.07709063 0.04624803 0.06308449 0.2669487 0.069353215 0.046667967
0.06552604 -0.12800698 0.0038963503 -0.074945465 -0.18845364 0.21877247 0.10681134 0.016491346
0.18473764 0.032351874 -0.050468344 0.36164695 0.051205214 -0.11570615 -0.12832116 -0.03314901
-0.026383547 -0.0962534 0.08578843 -0.1397571 -0.0031309496 -0.041844442 0.009101402 0.2727048
-0.21972594 0.0105131315 0.25308642 0.1352654 -0.20626853 -0.06687968 -0.22584778 -0.20939922
-0.05855115 0.28882635 -0.086447604 -0.0448893 -0.10195216 0.1756354 0.14536811 -0.012145996
0.029071387 0.12305499 0.08952724 0.028830405 -0.27106184 -0.051053643 -0.117324054 0.07004533
-0.088265225 -0.025741361 -0.011112116 0.039033815 -0.061992962 -0.02930188 0.011585014 -0.03937377
-0.072454154 0.045483988 0.011904886 0.008629905 0.071287215 -0.03630866 -0.0650061 -0.023723744
0.120845534 0.23528038 0.12719639 -0.005905797 -0.02741725 0.050246097 -0.080373675 -0.027822126
0.03724445 -0.0758049 0.05300805 0.11930562 -0.102780715 0.07551014 0.004773048 -0.008871589
0.12756252 -0.017513115 -0.05700827 -0.014018238 -0.07002822 0.04427247 -0.13670827 0.16235858
-0.01993617 0.037951224 0.0072310185 0.031987336 0.05343143 -0.027752401 -0.09365434 0.052566364
0.014361756 -0.023256171 0.05098531 0.009087841 -0.055539895 -0.042193767 0.038120843 -0.006152981
00000000: 784d 6f3d ebc4 d93d df22 913d b22f 0f3e
00000010: e287 2abe bee1 113e fe1b d3bd 9a33 83be
00000020: 2202 f13d 0925 44be afb6 9b3e 0220 a43c
00000030: 6500 0a3e 94ad dd3c 2b9f b43d 7650 51bc
00000040: 46d1 c53d 3241 213d 06b7 573e c413 873d
00000050: 3955 23bc 93eb 063e 423c 203d d842 3dbe
00000060: 6ae0 2b3e 1560 29be 478b 5a3d 4f39 2e3e
00000070: 1196 973e 9f06 21bd 24d7 adbd c2a3 ed3d
00000080: 7eb5 42be e9db a4be 97f8 96be 59fe 91bd
00000090: dae6 b5bd 5db7 39bd ec97 72bd 59b8 783c
000000a0: d85e e5bc 3b0f ab3d fd54 f1bd e7b1 6f3d
000000b0: adb8 2b3d 23dc 10bd b9ab 91be bc8d 5bbe
000000c0: ba79 2c3e 737c 48be 2f1d 3d3e 780e 48be
000000d0: a871 dc3c 7468 d2bd 5eb0 af3e e3d2 9f3c
000000e0: 9ba6 a23d 994a 683e 29c5 b1bd 71e2 8bbe
000000f0: ca56 3e3d 643a 92bd 06ef 7b3d 0865 1b3d
00000100: 0a7a 2c3d 07d1 663e f463 a5be cf0e 94be
00000110: acc3 4d3e 6aca a5bc a8ab 02be df2f 49be
00000120: 4dea 48be 1a9f fbbd 553c 9cbd 0321 2a3d
00000130: ed83 1cbe c979 83bb 93e3 26ba d47c ffbc
00000140: 2755 6a3d f5de 893c 60e6 493e 500a 533e
00000150: a956 fc3d 74d6 623c f73a 293e 9049 88bc
00000160: c650 06be e2d4 01be a576 923c 93dd 673d
00000170: 0b30 e03e 14d0 f23d 1872 343e 23ec 8abb
00000180: 2738 9e3e a82e 483d 5629 27be ffd0 5c3d
00000190: 5451 5cbe b1bf cdbd 83b0 60be 4c42 153d
000001a0: af7d 81be 35f6 1c3c e236 933d f35b 93bd
000001b0: 641b 77bd ad8f 953e 11d9 25be 6449 143e
000001c0: 9777 f53c a69f 283e facc 72bd 979d 423e
000001d0: 60ab 21bb c73a 363e 07cd 473d 6b40 0cbe
000001e0: 6c42 2abd 10b1 3cbe c453 fabd 2928 93be
000001f0: 596c cdbd 7658 17be 8541 7a3e e1da f73b
00000200: 3f18 9a3e a614 dabd 537e 48be 8297 923d
00000210: fcef c33e 1abe 443e 9994 00be 21e0 d13d
00000220: 0302 09be 9e1d 19be c96f d2be b3e5 fc3c
00000230: 44a6 083e 27cd 5d3e 0726 94bb b1cc 5c3e
00000240: a349 f63d f505 d2bd b1e1 9dbd 936e 3d3d
00000250: 7132 813d 80ad 883e 0f09 8e3d e926 3f3d
00000260: 8432 863d 4314 03be e959 7f3b 027d 99bd
00000270: fef9 40be e405 603e e7bf da3d dc18 873c
00000280: dd2b 3d3e 6683 043d e5b7 4ebd ca29 b93e
00000290: 8fbc 513d 59f7 ecbd 9f66 03be 42c7 07bd
000002a0: 4f22 d8bc 8120 c5bd d8b1 af3d 7c1c 0fbe
000002b0: 9e30 4dbb 1465 2bbd 0c1e 153c f79f 8b3e
000002c0: d6ff 60be 453f 2c3c 8b94 813e 0383 0a3e
000002d0: 0f38 53be 37f8 88bd a444 67be c06c 56be
000002e0: 55d3 6fbd 0ce1 933e 710b b1bd d8dd 37bd
000002f0: 4bcc d0bd c4d9 333e 61db 143e 0000 47bc
00000300: 1e27 ee3c 4104 fc3d 0f5a b73d be2d ec3c
00000310: 9ec8 8abe a01d 51bd 9847 f0bd ed73 8f3d
00000320: 66c4 b4bd 8cdf d2bc 980f 36bc ece1 1f3d
00000330: 55ec 7dbd 7f0a f0bc 12cf 3d3c 6446 21bd
00000340: d862 94bd 6b4d 3a3d b60c 433c 7264 0d3c
00000350: 08ff 913d 64b8 14bd eb21 85bd 4c58 c2bc
00000360: dd7d f73d 57ed 703e c53f 023e 6a85 c1bb
00000370: 249a e0bc dace 4d3d f49a a4bd 3aeb e3bc
00000380: a38d 183d 993f 9bbd f81e 593d 8156 f43d
00000390: b27e d2bd 0fa5 9a3d 3b67 9c3b 245a 11bc
000003a0: c09f 023e aa77 8fbc 8181 69bd c0ac 65bc
000003b0: f56a 8fbd 0d57 353d 41fd 0bbe 5441 263e
000003c0: 2e51 a3bc be72 1b3d 2ef2 ec3b 2705 033d
000003d0: eada 5a3d 0159 e3bc d9cd bfbd d44f 573d
000003e0: 924d 6b3c ba83 bebc f9d5 503d 2be5 143c
000003f0: cd7d 63bd 5fd3 2cbd 9a24 1c3d f29e c9bb

fc2.bias f4 [100]
0.003915903 -0.019587748 -0.104909986 -0.14408326 -0.07741421 0.07314349 -0.07040105 0.09339034
-0.0991865 -0.023607153 -0.14110391 0.13277827 0.10000017 -0.13536216 -0.14824516 -0.09462358
-0.22204399 -0.05942545 -0.09030555 -0.026310237 -0.024791067 -0.06414604 -0.037731607 0.030898666
-0.12481335 0.025756974 0.014919527 -0.24482507 -0.13239574 0.10911175 -0.116256356 -0.050584186
-0.124499895 0.031158663 0.12026014 -0.1396767 -0.15771312 -0.07835098 -0.19415902 -0.21205308
0.17855114 -0.24938187 -0.19953917 0.029274689 -0.09950985 -0.032581013 -0.23325717 0.09643708
-0.08574805 -0.11819124 -0.037030123 -0.16249608 -0.08698726 -0.10958306 0.009191088 -0.08273209
-0.19726625 -0.0152356485 -0.13578966 0.015054548 0.07474552 -0.07798249 -0.20806542 -0.16057087
-0.0988368 0.11820253 -0.23881291 -0.00059883913 -0.1078625 -0.1369951 -0.10570334 -0.042583812
0.016759073 0.04824537 0.013869306 0.075262636 -0.059721127 -0.11612016 -0.14840893 0.016479623
-0.105639435 -0.15839663 0.09792088 -0.12032045 -0.03133292 0.009081061 0.029993428 -0.20343998
-0.20989925 -0.0054683434 -0.18180211 -0.13305815 -0.041208632 -0.19387987 -0.12781695 0.051084973
0.0417729 -0.14365385 0.06236891 -0.08780433
00000000: fa50 803b 7c76 a0bc 0cdb d6bd 908a 13be
00000010: 578b 9ebd 41cc 953d 6d2e 90bd 6f43 bf3d
00000020: 4b22 cbbd ca63 c1bc 8b7d 10be 07f7 073e
00000030: e4cc cc3d 619c 0abe 94cd 17be 02ca c1bd
00000040: 805f 63be 1a68 73bd 1ef2 b8bd 9188 d7bc
00000050: a316 cbbc 005f 83bd 758c 1abd 331f fd3c
00000060: 249e ffbd 4a00 d33c 0871 743c 6cb3 7abe
00000070: c092 07be fb75 df3d d017 eebd 5d31 4fbd
00000080: cdf9 febd 7440 ff3c f34a f63d 6907 0fbe
00000090: 8c7f 21be 7b76 a0bd 9fd1 46be 7124 59be
000000a0: 1cd6 363e f65d 7fbe ff53 4cbe 79d1 ef3c
000000b0: d2cb cbbd ab73 05bd f8da 6ebe ce80 c53d
000000c0: ac9c afbd 400e f2bd e6ac 17bd 5f65 26be
000000d0: 6026 b2bd 156d e0bd 3896 163c 716f a9bd
000000e0: 2a00 4abe f19e 79bc 720c 0bbe 5aa7 763c
000000f0: 2e14 993d 49b5 9fbd 1a0f 55be b16c 24be
00000100: f36a cabd 2b14 f23d 5f8b 74be 6afb 1cba
00000110: 04e7 dcbd 7248 0cbe fe7a d8bd 5d6c 2ebd
00000120: 534a 893c f09c 453d 163c 633c 4c23 9a3d
00000130: 249e 74bd 68d0 edbd 83f8 17be 4600 873c
00000140: 7d59 d8bd ba32 22be be8a c83d 916a f6bd
00000150: f356 00bd bbc8 143c c7b4 f53c 9252 50be
00000160: d4ef 56be ca2f b3bb 552a 3abe 6540 08be
00000170: 62ca 28bd 7288 46be 72e2 02be 7a3e 513d
00000180: 0f1a 2b3d ff19 13be 8b76 7f3d c2d2 b3bd

fc3.weight f4 [2, 100]
0.15483792 0.3189463 0.041227832 -0.044080704 0.23299208 0.06227061 -0.2925804 0.02926647
-0.3013979 -0.33856815 -0.28770697 0.4710335 0.25333142 -0.24891362 -0.19792327 -0.061220836
-0.32088304 0.068576716 -0.21006618 0.34881112 0.037436258 -0.07164215 -0.25767362 0.27049902
0.13191801 0.2357059 0.10710739 -0.3754186 -0.2832027 0.30889693 -0.03032674 0.15379916
-0.20392685 0.026715215 0.10172036 -0.14254424 -0.43802705 -0.17334506 -0.32652363 -0.32563302
0.089848936 -0.1485577 -0.21099643 0.3495491 -0.1338393 0.28413105 -0.32281488 0.22282812
-0.23734102 0.23696184 -0.041795358 -0.38714516 -0.0049886154 -0.19540459 0.24730913 -0.35976774
-0.1172314 -0.23290111 0.13891728 0.26676217 0.022225568 0.20123273 -0.273067 -0.27106497
0.17810011 0.07015836 -0.37288052 0.042995136 -0.3772634 -0.24797839 -0.29379854 0.1996259
0.22521293 0.27430427 0.24482095 0.3744178 0.38769144 -0.23030749 -0.29375786 0.4742074
-0.2471801 -0.021934014 0.054073706 -0.045713138 -0.27165475 0.46053177 0.012617059 0.10991441
-0.40545267 -0.3220443 -0.26443896 -0.24330728 0.37291837 -0.32567456 -0.02311611 -0.016120618
0.2720777 -0.13253258 0.052317116 -0.48487785 -0.24835226 -0.20451213 0.017503332 -0.04769202
-0.2438251 -0.047690943 0.21719083 0.03007079 0.38949803 0.37013295 0.41587874 -0.3387959
-0.25231937 0.29605657 0.27727875 -0.014314849 0.32239172 0.07418769 0.11667944 -0.37333283
0.045312725 -0.07164485 0.34924516 -0.3391426 -0.2320667 -0.2788999 -0.17323315 0.28035796
0.2620622 -0.2755523 -0.028095637 -0.23661904 0.15763888 -0.07979056 -0.073847696 0.2946395
0.39287814 0.17118162 0.36386797 0.20258583 -0.118914545 0.11571424 0.25458676 -0.35445726
0.16740566 -0.25348786 0.3615367 -0.14713211 0.23795772 -0.17655331 -0.04158725 0.3470893
0.014320403 0.12218776 -0.26316166 0.28737888 0.10857967 0.2718169 -0.09052299 -0.24110627
-0.017214805 -0.25616652 0.36315703 0.14762565 -0.21447994 -0.088537835 0.21678756 -0.09489146
0.37335795 0.1324069 0.25070643 -0.28151923 -0.34038025 -0.3597174 -0.3063726 -0.21936336
-0.29259524 0.1808385 0.4165646 -0.31685457 0.17063853 0.110552646 0.023822319 -0.043343045
0.35971075 -0.3999468 -0.07985284 -0.28073716 0.44712186 0.33147332 0.14354748 0.20621322
-0.19268039 0.25746349 -0.012671577 -0.05170645 -0.27262592 0.18873596 -0.06780861 0.5133485
00000000: d58d 1e3e ee4c a33e 84de 283d f88d 34bd
00000010: 7a95 6e3e 780f 7f3d 19cd 95be 3cc0 ef3c
00000020: d350 9abe ce58 adbe 544e 93be 4e2b f13e
00000030: a8b4 813e 36e3 7ebe 66ac 4abe b3c2 7abd
00000040: c84a a4be f371 8c3d 971b 57be 5f97 b23e
00000050: c356 193d 1fb9 92bd cced 83be d97e 8a3e
00000060: 8415 073e e35c 713e 1f5b db3d de36 c0be
00000070: f2ff 90be bd27 9e3e c96f f8bc 877d 1d3e
00000080: 33d2 50be ded9 da3c c452 d03d 1ef7 11be
00000090: 1545 e0be 5e81 31be 1b2e a7be 5fb9 a6be
000000a0: b802 b83d 821f 18be 730f 58be 1af8 b23e
000000b0: 2b0d 09be a079 913e fe47 a5be 0e2d 643e
000000c0: 8609 73be 20a6 723e 9c31 2bbd e437 c6be
000000d0: 8a77 a3bb 2418 48be 9b3e 7d3e 7a33 b8be
000000e0: 0417 f0bd a17d 6ebe 5540 0e3e 0d95 883e
000000f0: 6512 b63c f40f 4e3e 70cf 8bbe 07c9 8abe
00000100: e05f 363e 30af 8f3d 32ea bebe ab1b 303d
00000110: ab28 c1be 0cee 7dbe c36c 96be bb6a 4c3e
00000120: 389e 663e 9c71 8c3e 58b2 7a3e b1b3 bf3e
00000130: 7e7f c63e bad5 6bbe 6e67 96be 50cb f23e
00000140: c81c 7dbe f6ae b3bc 647c 5d3d b33d 3bbd
00000150: 5516 8bbe d2ca eb3e c8b7 4e3c ce1a e13d
00000160: 7e97 cfbe fee2 a4be 8b64 87be 8b25 79be
00000170: 28ef be3e d1be a6be ff5d bdbc 630f 84bc
00000180: c54d 8b3e 9fb6 07be 794a 563d e941 f8be
00000190: 0e50 7ebe a16b 51be 2663 8f3c b558 43bd
000001a0: 49ad 79be 9457 43bd 4667 5e3e 0457 f63c
000001b0: 496c c73e 1182 bd3e 0fee d43e a876 adbe
000001c0: 0130 81be ba94 973e 7bf7 8d3e d488 6abc
000001d0: 8710 a53e b7ef 973d a1f5 ee3d 7b25 bfbe
000001e0: d699 393d 89ba 92bd 43d0 b23e 19a4 adbe
000001f0: e5a2 6dbe f8cb 8ebe 0864 31be 148b 8f3e
00000200: 042d 863e 3115 8dbe d228 e6bc 434c 72be
00000210: 166c 213e 3c69 a3bd 763d 97bd fdda 963e
00000220: 5327 c93e 3c4a 2f3e e74c ba3e a972 4f3e
00000230: 7889 f3bd 96fb ec3d 3259 823e 6c7b b5be
00000240: 646c 2b3e 29c9 81be 571b b93e cda9 16be
00000250: 30ab 733e 64ca 34be 6457 2abd b0b5 b13e
00000260: 20a0 6a3c 943d fa3d 20bd 86be 5323 933e
00000270: 055f de3d 962b 8b3e 1e64 b9bd 90e4 76be
00000280: 1006 8dbc 4228 83be b8ef b93e 2e2b 173e
00000290: a1a0 5bbe 5353 b5bd 8ffd 5d3e 7456 c2bd
000002a0: c628 bf3e ad95 073e 985c 803e 4a23 90be
000002b0: 5246 aebe e12c b8be dfdc 9cbe caa0 60be
000002c0: 0bcf 95be ba2d 393e f547 d53e c33a a2be
000002d0: debb 2e3e 6d69 e23d 0627 c33c 7a88 31bd
000002e0: 022c b83e d4c5 ccbe e389 a3bd c8bc 8fbe
000002f0: 28ed e43e dfb6 a93e 1cfe 123e 8f29 533e
00000300: 024e 45be 41d2 833e 729c 4fbc 24ca 53bd
00000310: a095 8bbe 0044 413e 3edf 8abd cf6a 033f

fc3.bias f4 [2]
0.036613997 -0.1976571
00000000: 8ff8 153d 9f66 4abe
