scripts/ffnn/ffnn_model.ckpt (torch_old, 82595 bytes, 6 tensors)

fc1.weight f4 [100, 100]
0.054159213 0.09911461 0.29437762 -0.27513182 0.024759877 0.09384057 0.14433289 -0.1003607
-0.0074197077 -0.14092854 0.11953515 -0.08157375 -0.31906432 0.07479037 -0.21319893 0.0016882293
-0.039255217 -0.07344363 -0.12290743 -0.015781846 0.07051966 0.066613644 -0.019581966 0.09203439
0.07843009 -0.019003663 0.079844005 0.018090652 0.007841886 0.03377672 -0.08633203 0.07113694
0.072887406 0.018870085 -0.29869187 0.017508328 -0.16403788 -0.034307487 0.24005401 -0.08784429
-0.01484857 -0.33083424 0.029928401 -0.05308238 -0.13316983 0.07904156 0.09296768 -0.016136842
0.017756093 0.04637768 0.06074981 0.124931395 0.051238842 0.17119835 0.28188297 -0.3371826
-0.10181902 -0.022395695 0.46995008 -0.11817967 -0.04111074 0.01744325 -0.11405534 -0.23623379
-0.09130013 -0.12953539 -0.016264036 -0.05567642 0.12269058 0.15993327 0.22449622 0.006531712
-0.1877535 0.010145757 0.0021324875 0.017059257 -0.45302165 0.15722722 -0.22554854 -0.10647435
-0.078796044 0.107001044 0.17077178 0.04494642 0.056427512 0.033796597 0.1457113 0.2031283
-0.17761426 -0.00076042785 0.10808435 -0.050158583 0.081183024 0.004297181 -0.10122118 0.11397804
0.16881613 -0.017145611 -0.25182998 0.12896387 0.11126084 0.3151024 0.032881826 -0.037377905
0.037846707 0.12519841 0.06319235 -0.012317972 -0.11677938 0.13730171 0.075493135 0.0685185
0.24158697 0.22407301 -0.047978293 -0.050926693 0.015467657 0.10691361 0.046270277 -0.074432194
-0.15602912 -0.25734684 0.014858728 0.022666484 -0.056730583 0.03077377 0.07408359 -0.09042371
0.25265223 -0.09527782 0.28636524 -0.11607713 0.02686568 0.025415735 0.28189185 -0.10077665
-0.11143978 0.16232829 -0.12794764 0.06531947 0.055023007 0.079375096 0.030121503 -0.13644247
-0.15922855 0.0051447656 0.08613684 0.16062571 0.06762785 0.24719211 -0.17878173 0.151599
0.13722628 0.04018283 -0.08226923 0.024665534 -0.011230614 0.0714447 0.1165362 0.101237506
0.014718132 0.4884841 0.024908768 0.1133947 -0.017615767 -0.061215464 0.12933148 -0.0071246685
0.1958573 0.17824905 0.09422122 -0.095613405 0.008892168 -0.13847964 -0.10490322 0.15688924
-0.05066205 -0.017184952 0.11998796 0.053164918 -0.33668643 -0.13457647 -0.083901666 -0.08172145
0.032907803 0.05225856 0.06604327 0.14395587 -0.042332783 -0.024715155 0.12694323 -0.15323469
0.2839104 0.20335868 -0.034260128 0.024969112 -0.007626452 -0.068017855 -0.1370846 -0.016427683
0.06622884 -0.02184763 -0.086415805 -0.027547002 -0.049204536 -0.24521087 -0.09394838 0.0136548905
-0.10580202 0.057616904 0.27652156 0.029509166 0.08188241 -0.22016564 0.0055717267 -0.074238926
0.121959366 0.045514565 -0.044770036 0.059971355 -0.1277213 -0.24645917 0.112459786 -0.16126256
-0.043242995 0.06749492 -0.041182064 -0.10456906 0.012531414 -0.042796545 0.07717475 0.118419625
0.023789184 -0.016547147 -0.16929656 -0.026378201 -0.0025946533 0.17875335 0.06576032 0.06663509
0.20498215 -0.11289801 0.027976442 -0.15206902 -0.012007079 0.11125398 0.01710817 -0.09730422
0.12832427 0.1277706 0.037129622 -0.10868736 -0.03917707 0.0005512162 0.113713615 0.009118061
00000000: 0dd6 5d3d 9afc ca3d aab8 963e 14de 8cbe
00000010: 3ad5 ca3c 7c2f c03d 00cc 133e e989 cdbd
00000020: 0521 f3bb 924f 10be d8ce f43d 2310 a7bd
00000030: 665c a3be b22b 993d d250 5abe 9347 dd3a
00000040: 14ca 20bd 9d69 96bd e4b6 fbbd ee48 81bc
00000050: 9d6c 903d bc6c 883d 5c6a a0bc 877c bc3d
00000060: f49f a03d 92ad 9bbc 4185 a33d d932 943c
00000070: 417b 003c 7559 0a3d d9ce b0bd 3eb0 913d
00000080: fe45 953d 7095 9a3c 24ee 98be a06d 8f3c
00000090: 8cf9 27be 0286 0cbd b8d0 753e b5e7 b3bd
000000a0: 6b47 73bc 1b63 a9be 682c f53c e96c 59bd
000000b0: ac5d 08be 8be0 a13d d765 be3d 6931 84bc
000000c0: 3a75 913c 86f6 3d3d cbd4 783d 08dc ff3d
000000d0: d2df 513d 9f4e 2f3e f752 903e 33a3 acbe
000000e0: 7e86 d0bd 2d77 b7bc 4c9d f03e 2f08 f2bd
000000f0: bc63 28bd 26e5 8e3c d995 e9bd 45e7 71be
00000100: 90fb babd eda4 04be 283c 85bc f50c 64bd
00000110: 3345 fb3d 8cc5 233e 56e2 653e f907 d63b
00000120: 7442 40be 643a 263c 34c1 0b3b dbbf 8b3c
00000130: 74f2 e7be 2c00 213e 32f6 66be 390f dabd
00000140: d25f a1bd 5d23 db3d ccde 2e3e bd19 383d
00000150: 8920 673d 4d6e 0a3d 5835 153e dd00 503e
00000160: 83e0 35be 7357 47ba 545b dd3d 1673 4dbd
00000170: 4943 a63d 5ecf 8c3b 0d4d cfbd 526d e93d
00000180: 23de 2c3e f474 8cbc dcef 80be 1b0f 043e
00000190: b9dc e33d 1a55 a13e 18af 063d 9319 19bd
000001a0: 2605 1b3d 0334 003e fe6a 813d 52d1 49bc
000001b0: 072a efbd d298 0c3e 259c 9a3d 6d53 8c3d
000001c0: 9362 773e 6573 653e e384 44bd 8298 50bd
000001d0: 0e6c 7d3c 86f5 da3d e785 3d3d e86f 98bd
000001e0: 19c6 1fbe f7c2 83be 0672 733c 10af b93c
000001f0: 545e 68bd 4619 fc3c 23b9 973d 1130 b9bd
00000200: a25b 813e 0521 c3bd 779e 923e d9b9 edbd
00000210: 6a15 dc3c a934 d03c 2154 903e fd63 cebd
00000220: 8a3a e4bd 6339 263e b504 03be 37c6 853d
00000230: ce5f 613d 698f a23d 5fc1 f63c 93b7 0bbe
00000240: cf0c 23be 6c95 a83b 8368 b03d 117b 243e
00000250: 7880 8a3d ee1f 7d3e 8f12 37be c53c 1b3e
00000260: 0c85 0c3e c096 243d c57c a8bd 600f ca3c
00000270: 9c00 38bc 9951 923d 88aa ee3d 9c55 cf3d
00000280: 5224 713c 971a fa3e 790d cc3c 7b3b e83d
00000290: f14e 90bc 11bd 7abd 796f 043e 0d76 e9bb
000002a0: d18e 483e eb86 363e 0ef7 c03d f6d0 c3bd
000002b0: 75b0 113c 9bcd 0dbe 80d7 d6bd 93a7 203e
000002c0: 0283 4fbd 75c7 8cbc 3fbc f53d 75c3 593d
000002d0: 2a62 acbe 6ace 09be a3d4 abbd 935d a7bd
000002e0: 55ca 063d 120d 563d b241 873d 2b69 133e
000002f0: 2465 2dbd 7077 cabc 68fd 013e 8ee9 1cbe
00000300: b45c 913e 423d 503e 5954 0cbd 068c cc3c
00000310: 51e7 f9bb f24c 8bbd e85f 0cbe 5993 86bc
00000320: fca2 873d cdf9 b2bc c5fa b0bd 40aa e1bc
00000330: b28a 49bd 8f18 7bbe 0268 c0bd c3b8 5f3c
00000340: bbae d8bd b4ff 6b3d 3c94 8d3e 35bd f13c
00000350: f7b1 a73d 1a73 61be 0893 b63b 940a 98bd
00000360: d5c5 f93d 7b6d 3a3d c960 37bd 86a4 753d
00000370: 5fc9 02be cb5f 7cbe 5151 e63d 0322 25be
00000380: 911f 31bd c73a 8a3d 86ae 28bd 4e28 d6bd
00000390: 8f50 4d3c 6e4b 2fbd cc0d 9e3d fd85 f23d
000003a0: 89e1 c23c e28d 87bc 145c 2dbe 1917 d8bc
000003b0: 0f0b 2abb 1e0b 373e 59ad 863d fa77 883d
000003c0: d7e6 513e 1237 e7bd da2e e53c fbb7 1bbe
000003d0: 57b9 44bc 20d9 e33d 6f26 8c3c 6f47 c7bd
000003e0: 7067 033e 4cd6 023e 3b15 183d 7b97 debd
000003f0: 2378 20bd 7e7f 103a afe2 e83d eb63 153c

fc1.bias f4 [100]
0.013047492 0.058735438 -0.07982145 0.027433546 -2.9279268e-05 -0.008602883 -0.0965634 0.09338042
-0.06571313 0.01601142 -0.0780521 0.04563336 -0.103683375 -0.07122756 0.050447542 -0.081653394
0.0518036 0.07688804 0.076021574 -0.11597425 -0.076858565 -0.07057349 0.042752806 0.06287329
-0.07085438 0.0020265982 0.038708378 0.059033535 0.05143386 0.08253253 -0.008100219 -0.06710529
-0.026890583 -0.03520253 -0.06687248 0.043550484 0.021988807 0.029233411 -0.017886745 -0.088394746
0.071312346 -0.053778958 -0.045409877 0.03882992 -0.07409878 -0.03462428 0.08053785 -0.029015824
-0.07063207 -0.06367603 0.00438419 -0.10779578 -0.10245656 0.029524067 -0.04785031 -0.008613637
0.062608294 0.014295468 -0.06526669 -0.11549592 0.036101695 -0.069078915 -0.004580724 0.07582379
0.07211284 0.07704283 0.076650344 -0.044293474 -0.07594437 -0.10097608 0.060894776 0.07814342
-0.05979074 -0.020470666 0.054979846 -0.02628672 0.024765253 -0.05980588 -0.030153867 0.011901226
0.03442472 -0.079833984 0.08733517 0.006641849 -0.07444313 0.025563372 0.07973432 -0.04478942
-0.06999646 0.065643296 -0.080325454 -0.029284505 -0.096921265 -0.06069379 0.0111605255 -0.0028779553
-0.09730365 0.01309156 -0.088982835 -0.09324288
00000000: 26c5 553c 9294 703d 6e79 a3bd 51bc e03c
00000010: c09c f5b7 1bf3 0cbc 08c3 c5bd 3c3e bf3d
00000020: 9b94 86bd 622a 833c c8d9 9fbd 0cea 3a3d
00000030: f357 d4bd c1df 91bd 15a2 4e3d e539 a7bd
00000040: 0330 543d 7a77 9d3d 33b1 9b3d e883 edbd
00000050: 0668 9dbd d588 90bd 911d 2f3d b6c3 803d
00000060: 1a1c 91bd add0 043b ad8c 1e3d 26cd 713d
00000070: 50ac 523d d106 a93d c8b6 04bc 806e 89bd
00000080: a449 dcbc 8730 10bd 70f4 88bd fe61 323d
00000090: df21 b43c e87a ef3c 3987 92bc 4e08 b5bd
000000a0: 350c 923d 5347 5cbd b5ff 39bd 1f0c 1f3d
000000b0: 1ac1 97bd 30d2 0dbd 07f1 a43d 98b2 edbc
000000c0: 8ca7 90bd 9468 82bd 40a9 8f3b 09c4 dcbd
000000d0: bfd4 d1bd 75dc f13c b0fe 43bd 3620 0dbc
000000e0: c738 803d 8a37 6a3c 8baa 85bd 2089 ecbd
000000f0: 5fdf 133d 3f79 8dbd e619 96bb 8149 9b3d
00000100: e6af 933d a2c8 9d3d dbfa 9c3d 136d 35bd
00000110: b988 9bbd 8ccc cebd cd6c 793d a809 a03d
00000120: 23e7 74bd 19b2 a7bc 8c32 613d 3f57 d7bc
00000130: 80e0 ca3c 03f7 74bd 3e05 f7bc 5cfd 423c
00000140: ef00 0d3d 0080 a3bd c8dc b23d dea3 d93b
00000150: a475 98bd 476a d13c bf4b a33d 1c75 37bd
00000160: 4e5a 8fbd fe6f 863d ac81 a4bd 0fe6 efbc
00000170: a87e c6bd 0d9a 78bd a3da 363c 149c 3cbb
00000180: 2347 c7bd fc7d 563c a23c b6bd 20f6 bebd

fc2.weight f4 [100, 100]
0.052442078 0.40728465 0.130463 -0.050449528 -0.023126552 0.055950765 -0.09670768 0.028210096
0.14850818 0.052344102 0.050655738 0.067184426 0.05983185 -0.029968068 -0.017155008 0.00015133321
-0.16300793 -0.09401401 0.07170745 -0.12034576 -0.25581348 0.11255705 -0.10857513 -0.07571782
0.041813686 0.0006837725 0.0498064 -0.021510554 -0.05549768 -0.09191163 -0.10081173 -0.066801965
-0.037732977 -0.069423586 0.062367238 -0.08632191 -0.020782877 0.03056798 -0.026992453 -0.044043384
0.19286086 -0.10723592 -0.03813505 -0.058501396 -0.033489782 -0.06058959 -0.07705134 0.07322523
0.32093838 0.02650235 -0.18649888 -0.17409372 -0.11540011 -0.07537154 -0.07689835 0.12811284
-0.18444835 -0.04502332 -0.22416605 -0.1802088 0.04085063 -0.11355459 -0.20288579 -0.035853162
0.02727772 0.1815476 0.013126338 0.026046949 -0.029495496 0.0835485 0.35933742 0.042028565
-0.13076578 0.17488076 0.0687562 0.13468502 -0.17859422 0.04986901 -0.04461196 0.109343104
0.003074746 -0.12644228 0.047115173 -0.05638861 -0.14097095 -0.06471789 0.015567875 0.17993486
-0.1439015 -0.13835663 -0.09546675 0.038591113 0.08607524 -0.07217949 -0.020033248 0.01883011
-0.026440077 -0.13046458 -0.13510339 -0.041527763 -0.019495783 -0.04492282 0.22671477 0.13143103
-0.014782459 -0.026490264 -0.16151027 -0.07716347 8.1726204e-05 -0.12558833 -0.1022309 -0.03480644
-0.07921347 -0.034478117 0.14708984 -0.03202217 0.03178392 -0.18867873 -0.117655516 0.3159448
0.100978225 0.024389269 0.035950955 0.21571137 -0.04592489 -0.058505286 -0.0338552 -0.046095748
-0.11619015 0.023044616 -0.137331 0.05643783 -0.010792452 -0.022699354 0.18076019 0.017773446
-0.02323357 0.028091358 0.023208765 -0.06693571 -0.044309042 -0.108528994 0.044970054 0.1754006
-0.06862068 0.019157073 0.024438899 0.12867595 -0.1087634 0.016803822 0.0011499558 0.21209887
0.07896789 -0.11964507 0.11798441 0.027369944 -0.095288664 -0.022640677 -0.07595738 -0.039527062
0.08839982 -0.16075295 0.06593876 0.0049580587 -0.10057357 0.056722652 0.13245964 0.029318899
-0.07928332 0.16306648 0.050241254 -0.05246461 -0.05746916 -0.014136301 -0.099188074 -0.046046037
0.006891952 -0.0655921 0.11655419 -0.0047517703 -0.118442476 0.07936574 -0.14934002 -0.1164366
0.14814164 -0.021597797 0.010721431 0.14931503 0.06649075 -0.05673673 -0.0074953847 0.28512952
0.1136739 0.119703814 -0.09932419 -0.15040548 0.019729177 0.045774765 -0.306096 -0.08972537
0.037681554 -0.18404742 0.101515375 0.02627864 -0.057622977 0.094197854 0.028611818 0.03006373
0.08566237 -0.13138047 0.17514049 0.053368054 -0.111822546 0.06653682 -0.2468184 -0.10520974
-0.10737938 -0.041401915 0.028065996 -0.14705816 0.14332521 -0.007910652 0.01227118 -0.1281797
0.19682048 0.01451893 -0.14771815 -0.0135751795 0.064307794 0.054425508 0.0046858266 -0.102148235
0.15613464 0.09563731 0.03403698 0.03337678 0.08706192 0.12536566 -0.18698141 0.12934251
-0.060115796 0.15671119 0.23512776 -0.030301819 0.034304295 -0.08257109 -0.19955108 0.022336898
-0.086352736 -0.07240635 -0.011960426 0.082556255 0.19189346 0.057298873 -0.12049229 -0.09726231
00000000: 81cd 563d 9d87 d03e 1898 053e 2aa4 4ebd
00000010: e573 bdbc a12c 653d ad0e c6bd dc18 e73c
00000020: 8712 183e c566 563d 647c 4f3d fd97 893d
00000030: 3e12 753d 987f f5bc a988 8cbc 33af 1e39
00000040: 8deb 26be 6b8a c0bd 5bdb 923d d677 f6bd
00000050: fcf9 82be 5084 e63d a35c debd f211 9bbd
00000060: d444 2b3d 323f 333a cc01 4c3d e736 b0bc
00000070: 8951 63bd 2a3c bcbd 6176 cebd 78cf 88bd
00000080: e58d 1abd f42d 8ebd ca74 7f3d 8bc9 b0bd
00000090: da40 aabc b369 fa3c 471f ddbc d666 34bd
000000a0: 517d 453e 829e dbbd 8033 1cbd 299f 6fbd
000000b0: 952c 09bd ca2c 78bd 18cd 9dbd 1cf7 953d
000000c0: 0952 a43e 751b d93c 90f9 3ebe a045 32be
000000d0: e556 ecbd 655c 9abd e27c 9dbd 0330 033e
000000e0: 07e0 3cbe 5f6a 38bd c98b 65be a888 38be
000000f0: fd52 273d 4f8f e8bd 4bc1 4fbe c4da 12bd
00000100: 8675 df3c 9de7 393e da0f 573c 6960 d53c
00000110: 8aa0 f1bc 7a1b ab3d 13fb b73e 2526 2c3d
00000120: 77e7 05be f113 333e 0dd0 8c3d dfea 093e
00000130: 67e1 36be 7243 4c3d 08bb 36bd 47ef df3d
00000140: ae81 493b 167a 01be d7fb 403d bef7 66bd
00000150: b05a 10be d08a 84bd 6610 7f3c d840 383e
00000160: ea5a 13be 5cad 0dbe 1284 c3bd b711 1e3d
00000170: 3748 b03d d7d2 93bd c41c a4bc 9a41 9a3c
00000180: dc98 d8bc 8298 05be 8b58 0abe 0419 2abd
00000190: 9fb5 9fbc fe00 38bd eb27 683e db95 063e
000001a0: 2032 72bc 1c02 d9bc f362 25be e207 9ebd
000001b0: 6c64 ab38 3a9a 00be 6f5e d1bd 3391 0ebd
000001c0: ac3a a2bd ed38 0dbd b89e 163e ae29 03bd
000001d0: db2f 023d ff34 41be 60f5 f0bd 84c3 a13e
000001e0: accd ce3d 01cc c73c 4f41 133d 71e3 5c3e
000001f0: bd1b 3cbd 3da3 6fbd c0ab 0abd e5ce 3cbd
00000200: 1af5 edbd 10c8 bc3c 7fa0 0cbe 5b2b 673d
00000210: d3d2 30bc fff3 b9bc 3319 393e 9e99 913c
00000220: 5454 bebc d91f e63c 4f20 be3c 9715 89bd
00000230: 667d 35bd 7344 debd 8532 383d 379c 333e
00000240: 0089 8cbd 4bef 9c3c 1634 c83c a1c3 033e
00000250: 58bf debd 2ba8 893c 1dba 963a 7230 593e
00000260: ebb9 a13d 7908 f5bd cfa1 f13d ef36 e03c
00000270: b426 c3bd f178 b9bc 8b8f 9bbd 21e7 21bd
00000280: f70a b53d 6c9c 24be e70a 873d 3677 a23b
00000290: 84f9 cdbd 0356 683d 80a3 073e 302e f03c
000002a0: 4b5f a2bd e6fa 263e c6c9 4d3d 22e5 56bd
000002b0: c864 6bbd f29b 67bc 1e23 cbbd c59a 3cbd
000002c0: e2d5 e13b 2755 86bd f7b3 ee3d bdb4 9bbb
000002d0: f891 f2bd 818a a23d 97ec 18be 5076 eebd
000002e0: 71b2 173e dded b0bc f1a8 2f3c 0ae6 183e
000002f0: 4d2c 883d c664 68bd d89b f5bb 7ffc 913e
00000300: ddcd e83d 4627 f53d 7b6a cbbd e503 1abe
00000310: 159f a13c 527e 3b3d 9db8 9cbe efc1 b7bd
00000320: f957 1a3d ed76 3cbe 4be7 cf3d 4d46 d73c
00000330: 1206 6cbd ceea c03d 5563 ea3c 3648 f63c
00000340: c16f af3d 9a88 06be 0758 333e 7698 5a3d
00000350: 3803 e5bd 7544 883d f6bd 7cbe 3478 d7bd
00000360: b8e9 dbbd 0e95 29bd a9ea e53c 6a96 16be
00000370: d8c3 123e ae9b 01bc 0f0d 493c 8a41 03be
00000380: 4f8b 493e cee0 6d3c 6d43 17be 6e6a 5ebc
00000390: ceb3 833d 48ed 5e3d 908b 993b 1833 d1bd
000003a0: c2e1 1f3e 7edd c33d 5c6a 0b3d 17b6 083d
000003b0: 854d b23d db5f 003e 0e78 3fbe 5d72 043e
000003c0: fb3b 76bd e678 203e 55c5 703e 853b f8bc
000003d0: a982 0c3d 081b a9bd 1e57 4cbe dffb b63c
000003e0: b4d9 b0bd c849 94bd aaf5 43bc 4113 a93d
000003f0: b87f 443e 39b2 6a3d a9c4 f6bd 7631 c7bd

fc2.bias f4 [100]
-0.17101334 0.0033734571 0.008767913 -0.062986605 -0.023028368 -0.15627144 -0.14348398 0.051501162
-0.13896777 0.084065616 -0.09889547 -0.08892691 0.064721555 -0.057145532 -0.12275142 0.078815416
0.0520958 -0.12645641 -0.10023749 0.106214955 -0.019524068 -0.047270525 0.019979982 -0.060809452
-0.16436371 -0.16879174 0.07004633 0.022094442 -0.0983255 -0.018328883 0.020331113 -0.057311792
-0.028069295 -0.02106615 -0.16466595 -0.1200012 -0.15754664 -0.13095121 0.15077907 0.077993855
0.018843675 -0.062117666 0.10900951 -0.09172344 0.032184824 -0.0403838 -0.050353523 -0.04969329
-0.023200674 0.10914784 -0.08391449 -0.15273531 -0.03900237 -0.06899389 0.046534333 -0.07153422
-0.1529414 -0.15174656 -0.05661758 -0.1342295 -0.018492417 0.11657932 -0.11360301 0.04053103
0.057394978 0.100650676 -0.017180871 -0.027607966 -0.079724446 -0.10239448 0.0027944397 -0.09396666
-0.14690068 -0.014764505 -0.040316403 0.06527744 -0.040957034 0.07718703 -0.09822311 -0.11084459
-0.054171517 -0.15964463 -0.048360676 -0.1582552 -0.0815214 -0.15122347 -0.13334376 -0.08620087
0.09553358 -0.17257468 -0.11331405 0.08855651 -0.061412014 -0.009021421 -0.008103349 -0.08632306
0.09170741 -0.1111507 0.10760261 -0.14814748
00000000: 1f1e 2fbe 3815 5d3b 4ba7 0f3c 1fff 80bd
00000010: fda5 bcbc 9f05 20be 77ed 12be e2f2 523d
00000020: 914d 0ebe 982a ac3d b589 cabd 501f b6bd
00000030: bc8c 843d 6f11 6abd 1965 fbbd fa69 a13d
00000040: 6862 553d ca7d 01be 5049 cdbd 3a87 d93d
00000050: f0f0 9fbc bd9e 41bd 0fad a33c 5513 79bd
00000060: f64e 28be bed7 2cbe 7374 8f3d 67ff b43c
00000070: e15e c9bd 7426 96bc 6f8d a63c c5bf 6abd
00000080: 94f1 e5bc eb92 acbc 319e 28be 30c3 f5bd
00000090: e853 21be 1318 06be d465 1a3e 3ebb 9f3d
000000a0: 0d5e 9a3c 186f 7ebd 6140 df3d 80d9 bbbd
000000b0: 3cd4 033d 7c69 25bd 7f3f 4ebd 318b 4bbd
000000c0: 570f bebc e788 df3d 5cdb abbd a566 1cbe
000000d0: f3c0 1fbd ab4c 8dbd c99a 3e3d 8880 92bd
000000e0: ac9c 1cbe 7363 1bbe d6e7 67bd 7573 09be
000000f0: 697d 97bc 23c1 ee3d b2a8 e8bd de03 263d
00000100: ff16 6b3d f121 ce3d e6be 8cbc 1a2a e2bc
00000110: 9246 a3bd 32b4 d1bd eb22 373b 9871 c0bd
00000120: 226d 16be d3e6 71bc d022 25bd 2eb0 853d
00000130: 90c2 27bd 3c14 9e3d 3329 c9bd 7d02 e3bd
00000140: f4e2 5dbd e279 23be d815 46bd a70d 22be
00000150: b1f4 a6bd 53da 1abe 448b 08be 158a b0bd
00000160: 1ca7 c33d 6bb7 30be 3211 e8bd 1e5d b53d
00000170: 2a8b 7bbd 95ce 13bc e9c3 04bc 25ca b0bd
00000180: 18d1 bb3d faa2 e3bd c25e dc3d f9b3 17be

fc3.weight f4 [2, 100]
-0.067141876 0.009200787 0.11018472 -0.24715586 0.1650575 -0.0027160104 -0.24354142 0.0061876066
-0.21261655 0.18455148 0.021123437 0.121052235 -0.0059097535 0.020222278 0.048913863 0.192246
0.12633468 -0.039490823 -0.18396144 0.091681354 0.16688333 -0.057903133 0.15433842 0.013217244
-0.044386726 0.024734028 0.08975601 0.094348274 -0.10797676 0.15323615 0.19802983 -0.21670675
0.029260501 -0.004238046 -0.17399123 -0.1993134 -0.135696 -0.037016924 0.07398294 0.02200297
0.158328 -0.11151607 0.2577367 -0.08715348 0.0074854502 0.014301428 0.042651907 0.17027782
-0.08908089 -0.012257679 -0.005708889 -0.15577829 0.056594156 -0.15442786 0.12857346 -0.029421115
0.0404346 -0.02043793 0.021326974 -0.18491791 -0.018023882 -0.02039777 -0.03615711 -0.2564635
0.19448823 0.10175426 -0.06951455 -0.033576448 0.0048915213 -0.06081964 -0.0967362 0.05680212
-0.098152414 0.07479253 0.2536631 0.20340693 -0.03892121 -0.034119677 0.023661735 -0.093756534
-0.25935647 -0.07381186 0.15082641 -0.0039400086 -0.08182556 -0.050508313 -0.11959487 0.031527705
0.21560653 -0.16279402 0.0648956 0.0766105 -0.07536536 0.033202056 0.07374634 -0.08275481
0.10651039 -0.00035464638 0.049451426 -0.058936458 0.18261632 -0.12762438 -0.07762637 0.24979183
-0.15004063 0.032118995 0.26763666 -0.119836874 0.1636011 -0.13945362 -0.14544651 -0.105826214
-0.13855897 0.072041795 -0.025203144 -0.020612326 -0.19477543 0.2075252 0.20833984 0.0022520649
-0.11737197 0.042641655 -0.1274113 0.03261879 0.08671853 0.07915594 -0.2685167 -0.24318822
0.15360318 -0.094085716 -0.17180225 0.18729524 0.038117714 0.0568132 0.25982523 0.28946024
0.24789973 -0.041760534 -0.05323648 0.016054323 -0.22588116 0.0075635538 -0.13750033 0.09545241
-0.027738247 0.020759257 0.03523184 -0.15128532 0.095731765 -0.115667254 0.02654031 0.21901584
0.057398412 0.021059433 -0.017205017 -0.037069738 0.078483745 0.1475251 0.02595652 0.1447649
-0.080512434 -0.095930494 -0.03380556 0.16157208 -0.1121358 -0.08252309 0.06795634 -0.016502634
0.008578824 0.044786524 0.02076473 0.059666812 0.19482358 -0.2045511 -0.12579255 -0.07745845
-0.061366007 -0.08382617 0.028407674 0.14199138 0.25112635 0.07324929 -0.20374198 0.07134643
0.09163098 0.10336476 0.21205182 0.021373127 -0.22818114 0.1515486 0.06895702 -0.08654751
0.07726443 -0.045762464 0.036221027 -0.09182229 -0.017919153 0.015905606 -0.012285228 0.05420524
00000000: ae81 89bd e6be 163c 87a8 e13d 6d16 7dbe
00000010: d504 293e 18ff 31bb ec62 79be 68c1 ca3b
00000020: 27b8 59be 10fb 3c3e 0f0b ad3c 3cea f73d
00000030: 9ba6 c1bb 31a9 a53c e759 483d 23dc 443e
00000040: e15d 013e 21c1 21bd 6360 3cbe 6fc3 bb3d
00000050: 77e3 2a3e d62b 6dbd e40a 1e3e 248d 583c
00000060: dbce 35bd 049f ca3c 00d2 b73d ab39 c13d
00000070: eb22 ddbd f0e9 1c3e 55c8 4a3e 60e8 5dbe
00000080: b8b3 ef3c 4edf 8abb c22a 32be d018 4cbe
00000090: e4f3 0abe 0f9f 17bd 5e84 973d 933f b43c
000000a0: bc20 223e 8a62 e4bd 11f6 833e 867d b2bd
000000b0: 8248 f53b 8950 6a3c c4b3 2e3d 4f5d 2e3e
000000c0: 0b70 b6bd 6fd4 48bc a211 bbbb 5884 1fbe
000000d0: 46cf 673d 5622 1ebe c3a8 033e 8d04 f1bc
000000e0: c09e 253d 726d a7bc e8b5 ae3c 1f5b 3dbe
000000f0: d2a6 93bc 3919 a7bc 7a19 14bd 2f4f 83be
00000100: ec27 473e 8a64 d03d a55d 8ebd 7587 09bd
00000110: 0e49 a03b 041e 79bd a11d c6bd 57a9 683d
00000120: 2204 c9bd d32c 993d 21e0 813e e849 503e
00000130: d96b 1fbd 13c1 0bbd 41d6 c13c 6d03 c0bd
00000140: 5fca 84be ac2a 97bd 3d72 1a3e 301b 81bb
00000150: 2994 a7bd cee1 4ebd 28ee f4bd 3223 013d
00000160: f5c7 5c3e 7ab3 26be fce7 843d f7e5 9c3d
00000170: 2759 9abd e1fe 073d 5208 973d 5b7b a9bd
00000180: 1f22 da3d d5ef b9b9 948d 4a3d 5b67 71bd
00000190: c6ff 3a3e f7af 02be 93fa 9ebd 6ec9 7f3e
000001a0: 40a4 19be 358f 033d ac07 893e 096d f5bd
000001b0: 0c87 273e eecc 0ebe eeef 14be 6abb d8bd
000001c0: 67e2 0dbe a68a 933d d376 cebc 2edb a8bc
000001d0: 3673 47be 7c81 543e 0a57 553e 6197 133b
000001e0: b760 f0bd 04a9 2e3d 1c78 02be 489b 053d
000001f0: 7c99 b13d 821c a23d 057b 89be 5506 79be
00000200: 274a 1d3e 03b0 c0bd eeec 2fbe 53ca 3f3e
00000210: 5221 1c3d f5b4 683d d007 853e 2234 943e
00000220: 6dd9 7d3e 180d 2bbd 7f0e 5abd 5b84 833c
00000230: 644d 67be b0d7 f73b e3cc 0cbe 8e7c c33d
00000240: 523b e3bc 510f aa3c 434f 103d 8aea 1abe
00000250: 040f c43d f4e2 ecbd 106b d93c b045 603e
00000260: 991a 6b3d d584 ac3c 89f1 8cbc 70d6 17bd
00000270: 16bc a03d d210 173e c5a2 d43c 403d 143e
00000280: b4e3 a4bd 3577 c4bd b377 0abd 2773 253e
00000290: 74a7 e5bd de01 a9bd b22c 8b3d 8830 87bc
000002a0: 328e 0c3c 1372 373d cc1a aa3c 3065 743d
000002b0: d57f 473e d875 51be c3cf 00be 89a2 9ebd
000002c0: ec5a 7bbd 0ead abbd 36b7 e83c 3066 113e
000002d0: a293 803e b903 963d bda1 50be 141e 923d
000002e0: 06a9 bb3d e7b0 d33d 1d24 593e b216 af3c
000002f0: 51a8 69be 8e2f 1b3e 5739 8d3d d23f b1bd
00000300: d03c 9e3d 6c71 3bbd 805c 143d 530d bcbd
00000310: 30cb 92bc 794c 823c fb47 49bc 5006 5e3d

fc3.bias f4 [2]
0.16872327 -0.21452501
00000000: cbc5 2c3e 72ac 5bbe
