scripts/ffnn/ffnn_model.ckpt (torch_old, 82667 bytes, 6 tensors)

fc1.weight f4 [100, 100]
0	0x3e4050c9	0.18780817
1	0xbee158d8	-0.44013095
2	0xbd00220f	-0.03128248
3	0xbe60a64a	-0.21938434
4	0xbde61fbc	-0.112365216
5	0x3dcf7cb9	0.10131211
6	0x3e2153b8	0.15754592
7	0x3d5a5e8f	0.053312834
8	0x3e57bc8d	0.2106802
9	0xbe647b8c	-0.22312754
10	0xbf03e30c	-0.5151832
11	0xbe250f50	-0.16119123
12	0x3e8859b5	0.2663094
13	0xbe79c71e	-0.24392363
14	0x3e97a2b1	0.2961631
15	0xbcc58b52	-0.024114285
16	0x3ea7b116	0.32752293
17	0x3e066124	0.13122994
18	0xbef96c29	-0.48715332
19	0x3e9acee3	0.30235967
20	0x3ef0559e	0.4694032
21	0x3f155b91	0.58342844
22	0xbe21f202	-0.15814975
23	0x3d3b21c2	0.04568649
24	0xbebcff9e	-0.3691377
25	0xbe803a3f	-0.25044438
26	0x3dd09a1e	0.101856455
27	0xbe9d536d	-0.3072771
28	0x3f03cff9	0.51489216
29	0xbd946cde	-0.07247327
30	0x3eab3126	0.33435935
31	0x3eaef47b	0.341709
32	0xbeadb774	-0.33929026
33	0xbc4a8c44	-0.0123625435
34	0xbec18cb3	-0.37802657
35	0xbedc065c	-0.42973602
36	0x3d1d7d33	0.038449477
37	0xbe1aba5e	-0.15110156
38	0xbf22bbbe	-0.6356772
39	0xbf1b1acc	-0.60587764
40	0xbd7c6435	-0.061619002
41	0x3e33e3a5	0.17567308
42	0xbd8dc404	-0.06922153
43	0x3d82667f	0.06367206
44	0xbd1a81cf	-0.03772145
45	0xbf3c8b4b	-0.73650044
46	0xbdc971fc	-0.09836194
47	0x3ee8e09c	0.45483863
48	0xbeca082c	-0.3945936
49	0xbeada6b7	-0.33916256
50	0x3ef93ccc	0.48679197
51	0xbe715c59	-0.23570384
52	0xbf312491	-0.6919642
53	0xbe3d0549	-0.18459047
54	0x3e382af7	0.1798514
55	0xbef94bf4	-0.4869076
56	0xbdc74ccf	-0.09731447
57	0xbdbbb387	-0.091651015
58	0xbe143ed2	-0.14477089
59	0xbe267e87	-0.16259204
60	0x3d610aea	0.05494205
61	0xbe960bf9	-0.2930601
62	0xbeda0de9	-0.42588738
63	0xbd307ceb	-0.04308788
64	0x3f021475	0.50812465
65	0xbd291074	-0.041275457
66	0xbe51bad6	-0.20481429
67	0xbe321475	-0.17390616
68	0x3ebc3ac7	0.36763594
69	0x3e55d37e	0.20881459
70	0xbe3dfdf3	-0.18553905
71	0x3ede0033	0.43359527
72	0x3d9c209f	0.076234095
73	0x3f03343f	0.51251596
74	0x3e56ca4f	0.20975612
75	0xbf181880	-0.59412384
76	0x3ea8e8d2	0.32990128
77	0xbc632ca2	-0.013865622
78	0x3f4cca15	0.7999585
79	0x3e8839c6	0.26606578
80	0x3d885df3	0.066585444
81	0x3e362f4a	0.17791477
82	0x3edc3ae0	0.43013668
83	0x3e7c61cb	0.2464668
84	0x3ec65955	0.3874003
85	0x3bf1683c	0.007367162
86	0x3c2664fd	0.010155913
87	0x3dfea2d5	0.124334015
88	0x3e178ab7	0.1479901
89	0xbea4052f	-0.32035205
90	0x3eb1525c	0.34633148
91	0xbcedc212	-0.029023204
92	0xbe9f1b6c	-0.3107561
93	0x3e6e5b20	0.23276949
94	0x3e8d550d	0.2760395
95	0xbd8014aa	-0.06253941
96	0x3e87403b	0.2641619
97	0x3f11433f	0.56743234
98	0x3e1a724f	0.15082668
99	0x3e85f0e3	0.26160344
100	0x3e3c55a9	0.18392052
101	0xbd7ca88c	-0.061684176
102	0xbd9abb9b	-0.07555314
103	0x3f504b5e	0.81365
104	0x3c6cc2a4	0.014450703
105	0xbefacc9f	-0.48984239
106	0xbdd97e22	-0.10619761
107	0x3bc826b9	0.0061081317
108	0x3dea9be9	0.11455519
109	0x3e834104	0.2563554
110	0xbd376819	-0.04477701
111	0xbed604bd	-0.4180049
112	0x3f1ac438	0.60455656
113	0x3e469221	0.19391681
114	0x3e241a36	0.16025624
115	0x3dac218c	0.08404836
116	0x3d2f13d6	0.042743526
117	0xbe96e350	-0.294703
118	0xbd90a6e4	-0.07063082
119	0xbeb1e5fb	-0.34745774
120	0xbd9b31ce	-0.07577859
121	0xbea4ea74	-0.32210124
122	0x3efac802	0.4898072
123	0x3dd37a2a	0.10326035
124	0x3e99486e	0.29938072
125	0xbd4800c7	-0.048828866
126	0xbea41b6c	-0.3205217
127	0xbd946daa	-0.07247479
128	0x3ea578c7	0.32318708
129	0x3e5830c1	0.21112348
130	0xbeabd7f3	-0.33563194
131	0xbdb4a32d	-0.08820186
132	0x3eb8fd65	0.36130825
133	0x3df8e2ee	0.121526584
134	0xbf2bde06	-0.67135656
135	0x3f08a841	0.53381735
136	0x3e25d86c	0.1619584
137	0xbf11bff7	-0.5693354
138	0xbe81632b	-0.25270972
139	0x3e554f72	0.20831087
140	0xbea48b30	-0.32137442
141	0x3e9cfea6	0.3066303
142	0xbdbb15bf	-0.09135007
143	0xbe5e70ad	-0.2172267
144	0x3e6bfc5c	0.23045486
145	0xbe5f6f44	-0.21819788
146	0x3c60f733	0.013730812
147	0xbf279f88	-0.654778
148	0x3e38c4b2	0.18043783
149	0x3cca4923	0.024693077
150	0x3ebed1d9	0.37269476
151	0x3dbe8102	0.0930195
152	0xbea10253	-0.31447086
153	0x3e0b2489	0.13588156
154	0xbe229398	-0.15876615
155	0xbc6474f4	-0.013943899
156	0x3e9ad575	0.3024098
157	0x3f343b8e	0.70403373
158	0xbe8a690d	-0.27033272
159	0xbeb26184	-0.34840024
160	0xbcf6dd27	-0.03013475
161	0xbe6322d5	-0.22181256
162	0x3e355fc6	0.17712316
163	0xbe0473e5	-0.12934835
164	0xbe09b45c	-0.13447708
165	0x3d91b147	0.07113891
166	0x3e82ede5	0.25572124
167	0xbf1adaa8	-0.6048989
168	0x3e6a1c5b	0.22862379
169	0x3e8423cf	0.2580857
170	0x3e53e4a5	0.2069269
171	0xbe95100a	-0.291138
172	0xbf5739f9	-0.84072834
173	0x3da6e17f	0.08148479
174	0x3e359f42	0.17736533
175	0x3e534097	0.20630108
176	0x3e8a6775	0.27032056
177	0xbeac1db9	-0.33616427
178	0xbe4abf3a	-0.1979951
179	0xbcb1b82e	-0.021694269
180	0xbf14c741	-0.5811654
181	0xbee95d24	-0.45578873
182	0x3e480690	0.19533753
183	0x3db8c2f4	0.09021559
184	0xbe0c70c4	-0.13714892
185	0x3db5612c	0.08856425
186	0xbd20c5d1	-0.039251152
187	0x3e9a8ce4	0.30185616
188	0x3e1b8d97	0.15190731
189	0xbe8c6dab	-0.2742742
190	0x3e7a85b9	0.24465074
191	0xbefe5de7	-0.49681017
192	0x3ee0dd5c	0.43918884
193	0x3dda791c	0.10667631
194	0x3e33ed7d	0.17571063
195	0x3e983a48	0.29731965
196	0xbe84d4b7	-0.2594354
197	0x3e97358c	0.2953304
198	0xbe54f539	-0.2079667
199	0x3e747a59	0.23874797
200	0x3d9c1a54	0.07622209
201	0xbe40df35	-0.18835147
202	0xbddae093	-0.106873654
203	0xbdb6f11c	-0.08932707
204	0xbd443680	-0.047903538
205	0x3e643e3a	0.22289363
206	0xbe8f3458	-0.27969623
207	0xbdbb6fd0	-0.09152186
208	0xbdd6a206	-0.10480122
209	0x3dbd3ce7	0.09240132
210	0x3e192273	0.14954548
211	0xba7c4b59	-0.0009624265
212	0x3e344b1b	0.17606775
213	0xbf17dfac	-0.5932567
214	0x39a8708c	0.0003212731
215	0x3e29df3c	0.16589063
216	0x3e1b2445	0.15150554
217	0x3e412365	0.18861158
218	0xbd9895b2	-0.07450427
219	0x3f22099d	0.6329592
220	0xbe8c5529	-0.27408722
221	0xbe7d9ad0	-0.24766088
222	0xbbc8f24e	-0.0061324006
223	0x3e99a58d	0.30009118
224	0xbea98c35	-0.33114782
225	0x3e9cd9c4	0.30634892
226	0x3de0e5a7	0.10981303
227	0xbebc5536	-0.3678376
228	0xbe6f0eb2	-0.2334545
229	0x3daca007	0.0842896
230	0x3dd4d602	0.10392381
231	0x3db1e19c	0.0868561
232	0xbd4a9cbd	-0.049465884
233	0x3d05ec5a	0.032696106
234	0xbf40fd34	-0.7538636
235	0x3e87f93c	0.26557338
236	0xbdf42162	-0.1192043
237	0x3eb3bc2a	0.35104495
238	0xbdc7b3e0	-0.09751105
239	0x3e61e438	0.22059715
240	0x3f8fef9c	1.1244998
241	0xbe38fae9	-0.18064465
242	0x3c11f44e	0.008908344
243	0xbe99969b	-0.29997715
244	0x3e4e0c08	0.20121777
245	0x3ec71a9d	0.38887492
246	0x3e36a21d	0.17835279
247	0x3f38c976	0.72182405
248	0xbe63c54f	-0.22243236
249	0xbe972a19	-0.29524305
250	0x3e47e706	0.19521722
251	0xbf28d040	-0.65942764
252	0x3ec9b477	0.39395496
253	0xbb91061c	-0.004425777
254	0xbe66d519	-0.22542228
255	0x3ed59e33	0.4172226

fc1.bias f4 [100]
0	0xbd77989b	-0.06044827
1	0xbcff5dad	-0.031172598
2	0x3d8e4ae0	0.06947875
3	0xbccec09a	-0.025238324
4	0x3d1e3785	0.038627166
5	0xbdb2d7d0	-0.08732569
6	0xbdba6e0d	-0.09103022
7	0xbc0721b2	-0.00824778
8	0x3c7c791c	0.015409734
9	0xbe08b3ba	-0.1334981
10	0x3d3303e8	0.043704897
11	0xbd1e8024	-0.038696423
12	0x3d876d13	0.06612601
13	0x3d38e796	0.045142733
14	0xbda6159d	-0.08109591
15	0xbdc0faec	-0.094228595
16	0xbda460c6	-0.080262706
17	0x3d5dd0b4	0.054154113
18	0xbc61da80	-0.013785005
19	0xbc6f4a18	-0.014605068
20	0xbd94fba3	-0.072745584
21	0x3cacee25	0.02110965
22	0x3ce55068	0.027992442
23	0x3dbe37da	0.092879966
24	0xbce436a8	-0.027858093
25	0x3c3be7a5	0.011468803
26	0x3cb86b8a	0.022512216
27	0xbdf32617	-0.118724994
28	0xbcc4ddb6	-0.024031501
29	0xbbc0a265	-0.005878734
30	0x3ce89d96	0.028395455
31	0xbdbd9aa5	-0.09258012
32	0x3cfbda3e	0.030743714
33	0xbc47d457	-0.012196622
34	0x3ce8675b	0.028369596
35	0xbd327799	-0.04357109
36	0x3d795e43	0.06088091
37	0xbd9e5352	-0.07730736
38	0xbd42faf6	-0.047602616
39	0x3c260a8d	0.010134351
40	0xbdcce4af	-0.100045554
41	0x3c8da02a	0.017288286
42	0x3d93cb75	0.07216541
43	0xbd18432f	-0.037173446
44	0x3aa62b04	0.0012677615
45	0x3cbdff28	0.023192957
46	0xbcf42306	-0.029801857
47	0x3db138dc	0.08653423
48	0x3d613771	0.054984514
49	0xbdb34e50	-0.08755171
50	0xbd4e5f08	-0.050383598
51	0x3de6633f	0.112493984
52	0x3ce51d11	0.027967962
53	0xbdf8dce6	-0.12151508
54	0x3cf758a9	0.030193644
55	0x3d8d8073	0.06909265
56	0x3c124c67	0.008929349
57	0x3c6f7091	0.01461424
58	0x3dc594ef	0.096475475
59	0xbd310f11	-0.04322726
60	0xbc638f5c	-0.01388916
61	0x3d2473ee	0.04014962
62	0xbcf24833	-0.029575443
63	0xbdc6648b	-0.09687146
64	0xbda1e138	-0.07904285
65	0xbd5e48d5	-0.054268677
66	0x3d6cca42	0.057810076
67	0x3d2d8510	0.042363226
68	0xbd9a3cc9	-0.07531125
69	0x3d7e10a3	0.062027585
70	0xbd5f2dbe	-0.054486983
71	0x3deb6cf6	0.11495392
72	0x3ab7e4df	0.0014030001
73	0xbd3cdbd5	-0.046108086
74	0xba7bbf71	-0.0009603417
75	0xbdf9a975	-0.121905245
76	0x3d12a8b8	0.035805434
77	0x3d07fb36	0.033198558
78	0x3d460273	0.04834218
79	0xbd5e9e32	-0.054350086
80	0xbca40479	-0.020021664
81	0xbd55e82d	-0.052223373
82	0x3d03000c	0.031982467
83	0x3caead3e	0.021322843
84	0x3c55398c	0.0130142085
85	0xbdda6545	-0.10663847
86	0xbd586c80	-0.05283785
87	0xbe0886b3	-0.13332634
88	0xbdad95a6	-0.08475809
89	0x3d47cfa1	0.048781995
90	0xbbc78dda	-0.006089908
91	0x3d61fb9e	0.0551716
92	0xbd74b6ef	-0.05974477
93	0xbdc54997	-0.09633177
94	0xbdb54ced	-0.08852563
95	0xbcc2a259	-0.023759054
96	0x3d40f52c	0.047108814
97	0xbdbc445d	-0.09192727
98	0x3c0380a3	0.008026275
99	0xbd998f91	-0.07498086

fc2.weight f4 [100, 100]
0	0x3e91f7fb	0.28509507
1	0x3ea3bc8e	0.31979793
2	0xbd31c0fb	-0.04339693
3	0xbec75461	-0.38931563
4	0xbf193370	-0.5984411
5	0x3ef82b9a	0.48470765
6	0x3e3dc22f	0.18531106
7	0x3d40d085	0.04707386
8	0xbf1a981a	-0.6038834
9	0xbec23bff	-0.37936398
10	0xbe7ef592	-0.24898365
11	0xbe09ffe4	-0.13476521
12	0x3ee17d02	0.44040686
13	0xbe63f0e6	-0.22259864
14	0xbeb54071	-0.35400727
15	0x3db9df99	0.09075851
16	0xbe6d73b6	-0.23188671
17	0x3f0161c1	0.50539786
18	0x3edcc3e0	0.4311819
19	0x3deff790	0.11717141
20	0xbd9b0cb6	-0.07570784
21	0xbe45da72	-0.19321612
22	0xbd761587	-0.060079124
23	0x3ec4d8d9	0.38446692
24	0x3d0d021f	0.03442585
25	0x3eb4e397	0.35329887
26	0xbe20d41f	-0.15705918
27	0xbe4c13fd	-0.199295
28	0xbe345489	-0.17610373
29	0xbe3f5aeb	-0.18687026
30	0xbebbb676	-0.36662644
31	0xbe7fd3cd	-0.2498314
32	0xbd5cd09e	-0.05390989
33	0x3e22a87b	0.15884583
34	0xbf68fe2a	-0.91012824
35	0xbe33c364	-0.17555004
36	0xbc7a7c7f	-0.015288471
37	0xbda3c731	-0.07996977
38	0x3cc53f26	0.024077963
39	0xbdc4e07c	-0.096131295
40	0xbe213337	-0.15742193
41	0xbdd52f5e	-0.10409425
42	0x3dcdadc4	0.10042909
43	0xbe816385	-0.2527124
44	0xbe9bfbc4	-0.3046552
45	0x3f01cfa0	0.50707436
46	0x3e33e384	0.17567259
47	0x3f043556	0.51643884
48	0x3daf28e2	0.0855272
49	0x3ef111c4	0.47083867
50	0xbf3e415a	-0.7431847
51	0x3eff273c	0.4983462
52	0x3db4dc1f	0.08831047
53	0xbe5cd4a3	-0.2156549
54	0x3d30a2ec	0.043124124
55	0xbe02b4ce	-0.12764284
56	0xbe8e6674	-0.2781254
57	0xbe30e737	-0.17275701
58	0x3dfbfe5b	0.12304374
59	0x3db806f3	0.089857005
60	0xbe13601b	-0.1439213
61	0x3e461dfe	0.19347379
62	0x3de071c0	0.10959196
63	0xbea7ce86	-0.32774752
64	0x3c4d3d5f	0.012526839
65	0xbe8568a5	-0.260564
66	0xbd605da2	-0.054776795
67	0xbdfd5ddc	-0.12371418
68	0x3f0e5591	0.55599314
69	0x3d85c148	0.06531006
70	0xbd60ffb9	-0.054931376
71	0x3eaea9d4	0.34113944
72	0x3eeb27e2	0.45928866
73	0x3a936ac8	0.0011247033
74	0x3e81ea82	0.25374228
75	0xbf36a4f8	-0.7134547
76	0x3f0a9ba2	0.54143727
77	0xbe64e5a4	-0.22353226
78	0xbe360abe	-0.17777535
79	0x3d982d98	0.07430571
80	0xbefc05aa	-0.4922307
81	0x3d7be020	0.06149304
82	0x3e0756d0	0.1321671
83	0x3e8f0760	0.27935314
84	0xbeaf2af5	-0.3421246
85	0x3e7dd3db	0.24787848
86	0xbf2108e5	-0.62904197
87	0x3eb4409a	0.35205537
88	0xbe7d6973	-0.24747257
89	0x3e335bc4	0.17515475
90	0xbe9a693f	-0.3015842
91	0x3cb099e2	0.021557752
92	0x3e64183d	0.22274871
93	0x3f2d8bba	0.6779133
94	0xbeba04de	-0.36331838
95	0x3d85c93f	0.06532525
96	0xbe994822	-0.29937845
97	0xbe0a55ec	-0.13509339
98	0xbeaba697	-0.33525535
99	0xbe5beebc	-0.21477789
100	0xbe79fdea	-0.24413267
101	0xbe9824e1	-0.29715636
102	0xbde92eff	-0.11385917
103	0xbf242d57	-0.64131683
104	0x3f077a45	0.52920943
105	0xbe4f7d7e	-0.20262715
106	0xbe39509d	-0.18097158
107	0x3e587cb5	0.21141322
108	0xbe3db61c	-0.185265
109	0x3cc44fda	0.023963857
110	0x3e95fc11	0.29293874
111	0x3f0ab069	0.5417543
112	0x3f2c62fc	0.6733854
113	0xbd723767	-0.059134867
114	0xbc4bf02a	-0.012447396
115	0x3ed9e152	0.42554718
116	0xbef2a391	-0.47390416
117	0x3e5fd0d5	0.21857007
118	0x3bda0225	0.0066530877
119	0xbd2a2eb6	-0.041548453
120	0xbd20d7c5	-0.039268274
121	0x3ebd4e32	0.3697372
122	0xbdf251a6	-0.118319795
123	0x3eec6ef6	0.46178406
124	0x3ec75983	0.3893548
125	0x3dc1afe4	0.094573766
126	0x3e8836d4	0.2660433
127	0x3ed5b37b	0.41738495
128	0xbd8d174b	-0.068892084
129	0xbe9bd746	-0.30437678
130	0x3e853c64	0.26022637
131	0xbe8cbfbf	-0.2749004
132	0x3da28fdf	0.079375975
133	0xbdfdb254	-0.12387529
134	0x3d5d5f76	0.054046117
135	0x3f0bf72a	0.5467402
136	0xbef56f3c	-0.47936428
137	0xbebbb900	-0.3666458
138	0xbef01e2a	-0.46898013
139	0xbe727727	-0.23678266
140	0x3d132225	0.035921235
141	0x3b501cb4	0.003175539
142	0xbe7b585f	-0.2454543
143	0x3ea3dee9	0.32006004
144	0x3f078917	0.5294356
145	0x3e0b01ea	0.13574949
146	0x3d9ef2f8	0.07761186
147	0xbef7dd6e	-0.48411125
148	0x3e350848	0.1767894
149	0xbdfa914c	-0.122347444
150	0xbf38a43f	-0.7212562
151	0x3eeaf2ab	0.45888266
152	0xbdb884a0	-0.09009671
153	0x3e5866f4	0.21133024
154	0xbe16195d	-0.14658113
155	0xbdaa0671	-0.0830201
156	0x3e2860ff	0.16443251
157	0x3dfe7de5	0.12426356
158	0x3e5b7309	0.21430601
159	0x3e74bd51	0.23900343
160	0xbd464183	-0.04840232
161	0x3f939a51	1.1531469
162	0x3e57d96c	0.21079034
163	0x3ef9be31	0.48777917
164	0x3ea7b0c2	0.32752043
165	0xbd678e15	-0.056531984
166	0x3c6a801f	0.014312773
167	0x3de3e6d7	0.111280136
168	0xbdc76275	-0.09735576
169	0xbe7a565f	-0.2444701
170	0x3ce52914	0.02797369
171	0x3e6fa3e2	0.2340236
172	0x3f1de3f8	0.6167598
173	0x3ea19bce	0.31564182
174	0x3e68eaf3	0.22745876
175	0x3edf1f8b	0.43578753
176	0x3ee5c04e	0.4487328
177	0xbedd1bb8	-0.4318521
178	0x3e1f134b	0.15534703
179	0xbeb143d2	-0.34622055
180	0xbf522b93	-0.8209774
181	0x3e1e6503	0.1546822
182	0x3d1f184e	0.038841538
183	0xbef756f8	-0.4830854
184	0x3e8efaa2	0.27925593
185	0x3e65364d	0.22383995
186	0x3e98d9cd	0.2985367
187	0x3d686902	0.05674077
188	0x3d2f474e	0.04279261
189	0x3d89acbc	0.067223996
190	0xbd159e91	-0.036528174
191	0xbeed95a0	-0.46403217
192	0x3e82cfed	0.2554926
193	0xbf5e7b5c	-0.8690698
194	0xbe9884fb	-0.29788956
195	0xbed5f71f	-0.417901
196	0x3e4314e4	0.19050938
197	0x3e32fabe	0.17478463
198	0xbcbc0de2	-0.022955839
199	0x3ec6a42f	0.38797137
200	0x3f20adef	0.627654
201	0x3ec256b7	0.37956783
202	0x3d9b3701	0.075788505
203	0xbda1bcb9	-0.07897324
204	0xbdf59693	-0.119916104
205	0x3ddac87d	0.10682771
206	0xbd6f1f63	-0.058379542
207	0xbdb1870c	-0.08668336
208	0xbec3b69d	-0.3822526
209	0xbdcc6c2c	-0.0998157
210	0xbe16e655	-0.14736302
211	0x3de9d4d4	0.11417547
212	0x3ed19a50	0.40938044
213	0xbdd54eb1	-0.104154
214	0xbe8f79ff	-0.28022763
215	0x3f089317	0.5334944
216	0x3d8fbbf6	0.070182726
217	0x3e3d9939	0.18515481
218	0xbdbcc8b7	-0.09217971
219	0x3e79c1b1	0.24390294
220	0x3eaf82e2	0.34279543
221	0xbeababd8	-0.33529544
222	0x3cdb284b	0.026752612
223	0x3ee161c4	0.44019902
224	0xbe5d2bbb	-0.21598713
225	0xbf4bc688	-0.7959981
226	0x3e0fe14f	0.14050792
227	0x3e8e2734	0.27764285
228	0xbecb5446	-0.39712733
229	0xb7f4edfc	-2.9197887e-05
230	0xbe91110b	-0.28333315
231	0xbd8da02b	-0.06915315
232	0x3eb4deb8	0.3532617
233	0xbd0c6ce0	-0.03428352
234	0x3eb3365c	0.3500241
235	0x3edcb399	0.43105772
236	0xbcb602e9	-0.022218185
237	0x3e13dfb2	0.14440802
238	0x3d0b45a4	0.03400196
239	0x3ef89dde	0.48557943
240	0xbf3afbe9	-0.73040634
241	0xbe877e76	-0.2646367
242	0xbe313fd4	-0.17309505
243	0x3e4d818a	0.20068946
244	0x3e260f88	0.16216862
245	0xbf08ad37	-0.53389305
246	0x3ea5da99	0.3239334
247	0xbe8fe045	-0.28100792
248	0xbe826fec	-0.25476015
249	0x3da0f452	0.078591004
250	0xbeb39d08	-0.35080743
251	0x3dc86ea4	0.09786728
252	0x3f11f6ab	0.5701701
253	0xbd2cf961	-0.042230014
254	0xbd325390	-0.043536723
255	0x3c923a7a	0.01785015

fc2.bias f4 [100]
0	0xbec6958d	-0.38785973
1	0xbe9081bb	-0.28223976
2	0xbd5e5800	-0.054283142
3	0xbe0ed6cf	-0.1394913
4	0x3d4b70f6	0.049668275
5	0xbd9ec841	-0.07753039
6	0xbdf9587f	-0.121750824
7	0xbe671ada	-0.22568837
8	0xbd8dd138	-0.06924671
9	0xbed2d043	-0.41174516
10	0xbed3e1a4	-0.41383088
11	0x3c009191	0.007847206
12	0xbebedbb5	-0.37276998
13	0xbeb916b4	-0.36150134
14	0xbec299cf	-0.38007972
15	0xbe2a7968	-0.16647875
16	0xbe7fab3d	-0.24967666
17	0xbe650f06	-0.22369012
18	0xbea98a7e	-0.33113474
19	0xbe070887	-0.13186847
20	0xbec5a3df	-0.38601586
21	0xbec92216	-0.39283818
22	0xbe08d445	-0.13362224
23	0xbc818b3f	-0.015813468
24	0x3db344d3	0.087533616
25	0xbedb4be5	-0.4283134
26	0xbee90d3c	-0.4551791
27	0xbea00364	-0.31252587
28	0xbed592d7	-0.41713592
29	0xbed1fb87	-0.41012213
30	0xbe69191a	-0.22763482
31	0xbdf8d2f1	-0.12149609
32	0xbe8c8f04	-0.27452862
33	0xbde241c9	-0.11047704
34	0xbed53fb2	-0.41650158
35	0xbeb5d4a7	-0.35513803
36	0xbd756a4d	-0.05991583
37	0xbec34350	-0.38137293
38	0x3ddf1c8b	0.10894116
39	0xbedf2723	-0.43584546
40	0xbecb2e84	-0.39683926
41	0xbe83e9b4	-0.2576424
42	0xbdcff2ca	-0.1015373
43	0xbe59096d	-0.21195002
44	0xbe32c937	-0.1745957
45	0xbe54412a	-0.20727983
46	0xbec3fd67	-0.38279268
47	0xbdcfb3be	-0.10141705
48	0xbe2fe8ab	-0.171786
49	0xb8fe8d37	-0.00012137967
50	0xbe87b9c4	-0.26508915
51	0xbea4bc0f	-0.32174727
52	0x3da162bb	0.078801595
53	0xbe6a1a39	-0.22861566
54	0xbe80cf91	-0.2515836
55	0xbe8c88fc	-0.2744826
56	0xbec9d882	-0.39422995
57	0xbc5e0286	-0.013550406
58	0xbea8b589	-0.32951
59	0x3e8de9b7	0.27717373
60	0xbe4ca8b6	-0.19986233
61	0xbe988052	-0.297854
62	0xbcf1b457	-0.029504938
63	0xbe225d29	-0.1585585
64	0xbe89c408	-0.26907372
65	0xbeba2e15	-0.36363283
66	0xbe22de1d	-0.15905042
67	0xbed61421	-0.41812232
68	0xbebc3feb	-0.36767516
69	0xbeb7a66a	-0.3586915
70	0xbee17b15	-0.44039217
71	0xbe8c4b99	-0.27401426
72	0x3d964c95	0.073388256
73	0xbe8d9611	-0.27653554
74	0xbe497512	-0.19673565
75	0xbddd5f56	-0.108091995
76	0x3de3c7ae	0.1112207
77	0xbe300965	-0.17191084
78	0xbd15276d	-0.036414552
79	0xbdb3fe85	-0.0878878
80	0x3d94a350	0.07257712
81	0xbebb01da	-0.3652485
82	0xbe12d7d4	-0.14340144
83	0xbe9f404e	-0.31103748
84	0xbbd9ed4c	-0.0066506024
85	0xbebd485d	-0.3696927
86	0x3e048f79	0.12945355
87	0xbe4b8c31	-0.19877698
88	0xbecda4bc	-0.40164745
89	0xbecbdf3b	-0.3981875
90	0xbe801fea	-0.25024348
91	0xbd5187ea	-0.05115501
92	0xbe1db2e8	-0.15400279
93	0xbe81cf25	-0.2535335
94	0x3e206b64	0.15665966
95	0x3c6d15af	0.014470502
96	0xbe54cb12	-0.2078059
97	0xbe3f8c94	-0.1870597
98	0x3de5c8ed	0.11219964
99	0xbde2f4cf	-0.1108185

fc3.weight f4 [2, 100]
0	0xbf72b7cb	-0.94811696
1	0x3f576431	0.84137255
2	0x3ecddd7c	0.40208042
3	0x3f53897a	0.8263165
4	0x3f2f5ba9	0.6849924
5	0xbc85def7	-0.01634167
6	0xbf4c9d71	-0.79927737
7	0xbf2de83a	-0.67932475
8	0x3f280590	0.6563349
9	0x3f70befe	0.9404143
10	0xbf79f870	-0.9764471
11	0xbf2ccebf	-0.6750297
12	0x3f58ab4f	0.84636396
13	0xbf875e30	-1.0575619
14	0x3f641904	0.8910067
15	0x3d0cccaf	0.03437489
16	0x3f5d08b4	0.86341405
17	0xbf2c115a	-0.67213976
18	0x3f79d61c	0.9759233
19	0xbf1f4e48	-0.6222882
20	0xbf7f3e75	-0.99704677
21	0xbf365bd1	-0.7123385
22	0xbf417664	-0.75571275
23	0x3f51b9cd	0.81924134
24	0x3ee392e4	0.44448006
25	0xbf4d852f	-0.8028135
26	0xbf37113b	-0.71510667
27	0xbf51396f	-0.8172826
28	0x3f51df0d	0.81980973
29	0x3f67396f	0.9032201
30	0x3f7d695f	0.9898891
31	0xbf2d5945	-0.6771434
32	0x3f6b310b	0.9187171
33	0xbf35746e	-0.7088078
34	0xbf6535ee	-0.89535415
35	0xbf31d74b	-0.69469136
36	0x3f7c95be	0.9866599
37	0xbf49694c	-0.78676295
38	0x3ea0e409	0.31423977
39	0xbf8aa7cd	-1.0832459
40	0xbf575079	-0.84107167
41	0xbf3f2220	-0.74661446
42	0x3f77a81d	0.96740896
43	0xbf465a5e	-0.7748164
44	0x3f6ac5c9	0.91708046
45	0x3f449f97	0.76806015
46	0xbf55a425	-0.8345359
47	0xbf2bb8f9	-0.6707912
48	0x3baa86c7	0.005204055
49	0x3ef23bde	0.473113
50	0xbf61785a	-0.88074267
51	0xbf25bf46	-0.64744985
52	0x3ed4d554	0.41569006
53	0x3f6ae224	0.91751313
54	0xbf630448	-0.8867841
55	0xbf16f137	-0.58961815
56	0xbf1dc89c	-0.6163423
57	0x3f238a35	0.6388276
58	0x3f533769	0.82506424
59	0x3eb03005	0.34411636
60	0xbf2165f6	-0.63046205
61	0x3f333b91	0.70012766
62	0x3f6e0591	0.92977244
63	0x3ef5268b	0.47880968
64	0xbf5c8086	-0.8613361
65	0xbf4d3b5e	-0.8016871
66	0xbda30609	-0.079601355
67	0xbf31b96a	-0.69423544
68	0xbf50c7ba	-0.8155476
69	0xbf18e810	-0.597291
70	0xbf25d343	-0.64775485
71	0xbf2bb167	-0.6706757
72	0x3f380540	0.7188301
73	0xbf5cf33d	-0.8630865
74	0xbf3f5d67	-0.74751896
75	0x3f57f726	0.84361494
76	0x3ef1ff66	0.47265166
77	0x3f7e7878	0.9940257
78	0x3f5337cb	0.8250701
79	0x3f54d47b	0.8313672
80	0x3e9f5d58	0.31125903
81	0xbf5d678d	-0.8648613
82	0xbd49cce0	-0.04926765
83	0xbf1fd2f7	-0.6243128
84	0x3f80544d	1.0025727
85	0xbf6b7de0	-0.91988945
86	0x3eb77325	0.35830036
87	0xbf43a3f2	-0.76422036
88	0xbf2775b4	-0.65413976
89	0xbf41d8bb	-0.7572133
90	0xbf2c735b	-0.6736352
91	0x3f86da40	1.0535355
92	0x3f5e460e	0.86825645
93	0xbf3ef030	-0.7458525
94	0x3eb425be	0.35185045
95	0x3f61a4b9	0.8814197
96	0x3efcc486	0.49368685
97	0xbf3b073c	-0.73057914
98	0x3eddc5d6	0.43315
99	0x3f379513	0.71711844
100	0x3f5766a3	0.84140986
101	0xbf555c96	-0.833444
102	0xbf093e86	-0.5361103
103	0xbf422966	-0.7584442
104	0xbf1d9813	-0.6156017
105	0xbc8053bb	-0.015664926
106	0x3f335877	0.7005686
107	0x3f326885	0.69690734
108	0xbf43f838	-0.76550627
109	0xbf86e3b2	-1.0538237
110	0x3f738439	0.9512363
111	0x3f1b4178	0.6064677
112	0xbf3cdc3c	-0.7377355
113	0x3f8173f4	1.0113511
114	0xbf44b07b	-0.7683179
115	0x3cc3749f	0.02385932
116	0xbf6d2ed0	-0.92649555
117	0x3f4157f9	0.7552486
118	0xbf7a0295	-0.9766019
119	0x3f2c8165	0.6738494
120	0x3f82a03d	1.0205151
121	0x3f1c7a96	0.6112455
122	0x3f38db3e	0.7220954
123	0xbf4d502a	-0.80200446
124	0xbec90815	-0.3926398
125	0x3f5bb512	0.85823166
126	0x3f44faf0	0.769454
127	0x3f6eaba3	0.93230647
128	0xbf7652e2	-0.9622022
129	0xbf6c87c8	-0.92394686
130	0xbf856e43	-1.0424274
131	0x3f3ee80a	0.74572814
132	0xbf5f8149	-0.8730665
133	0x3f27924b	0.654576
134	0x3f4b5167	0.79421085
135	0x3f3728b1	0.71546465
136	0xbf85652c	-1.04215
137	0x3f438e40	0.7638893
138	0xbe71f70b	-0.23629396
139	0x3f87e3c0	1.0616379
140	0x3f67c7ca	0.9053923
141	0x3f313ad1	0.6923037
142	0xbf5afae6	-0.8553909
143	0x3f3d1158	0.7385459
144	0xbf6c3abd	-0.9227713
145	0xbf690731	-0.910266
146	0x3f494c75	0.7863229
147	0x3f20e227	0.6284508
148	0xbace82ed	-0.0015755572
149	0xbf18cdb2	-0.59688866
150	0x3f3dcf6a	0.74144614
151	0x3f3cf9c5	0.7381862
152	0xbed22fd2	-0.4105211
153	0xbf6e1a74	-0.93009114
154	0x3f5cc4fc	0.86238074
155	0x3f21102c	0.629153
156	0x3f3ae039	0.72998387
157	0xbf2ae6fc	-0.66758704
158	0xbf34b00b	-0.7058112
159	0xbebf06ef	-0.37309977
160	0x3f1e5c36	0.6185945
161	0xbf379e13	-0.7172558
162	0xbf6caef8	-0.9245448
163	0xbf1f27a4	-0.6216986
164	0x3f80b5c0	1.0055466
165	0x3f6f2dfa	0.9342953
166	0xbda01e63	-0.07818296
167	0x3f29aae8	0.6627641
168	0x3f48c9ec	0.7843311
169	0x3f0e8a05	0.5567935
170	0x3f39781e	0.7244891
171	0x3f12ad95	0.57296115
172	0xbf10df82	-0.56591046
173	0x3f5b7312	0.8572246
174	0x3f19c6dd	0.60069066
175	0xbf502451	-0.81305414
176	0xbf07e2ac	-0.5308025
177	0xbf7748c6	-0.9659542
178	0xbf5266bd	-0.82188016
179	0xbf68ee39	-0.909885
180	0xbe8d791b	-0.2763146
181	0x3f47afc6	0.78002584
182	0xbd2a85b8	-0.04163143
183	0x3f341165	0.7033904
184	0xbf6d384a	-0.92664015
185	0x3f6a2f87	0.9147877
186	0xbebf0a45	-0.37312523
187	0x3f2eedfd	0.6833189
188	0x3f28c358	0.6592307
189	0x3f424c4e	0.7589768
190	0x3f1efdc0	0.6210594
191	0xbf821b9e	-1.0164678
192	0xbf65d0d8	-0.89771795
193	0x3f38a088	0.7211995
194	0xbead6bbc	-0.33871257
195	0xbf72d22a	-0.94851935
196	0xbef87e60	-0.48533916
197	0x3f41394e	0.75478065
198	0xbeeb6e81	-0.45982745
199	0xbf554279	-0.83304554

fc3.bias f4 [2]
0	0xbdd043da	-0.10169192
1	0x3e162193	0.14661245
