scripts/ffnn/ffnn_model.ckpt (torch_old, 82595 bytes, 6 tensors)

fc1.weight f4 [100, 100]
-0.37941223 0.40774602 0.16526435 0.24588138 0.25920534 -0.16355765 -0.60425335 -0.19116315
0.3440669 -0.12439752 0.31601885 -0.160047 -0.22237429 0.21703286 0.13322093 -0.26510206
0.120498136 0.263647 0.05298571 -0.064372785 0.05498373 -0.0844488 0.054558907 0.56080914
-0.24544643 0.00930858 0.022860246 0.25383118 -0.20534599 0.11649337 0.29242957 0.14874353
-0.34210363 0.039670046 0.1350524 -0.32638806 0.1990154 -0.053383067 -0.13744487 -0.2929225
0.43263248 0.5367286 -0.016367145 0.25975308 0.3225493 0.052847646 0.1135294 0.191851
-0.086290196 -0.0385911 0.4287707 0.1652072 -0.082172826 0.061693303 -0.12674055 0.23527257
0.32078633 0.090268575 0.4543842 0.059833627 0.076515734 0.11036271 0.0031275144 -0.005713949
0.022092218 -0.41603994 -0.037455805 -0.09768109 -0.77254426 -0.028701575 -0.032148134 0.38185978
-0.0207081 0.20235114 0.036817078 0.41350073 0.27475896 0.05931511 -0.07086715 -0.2539995
0.35097677 0.2954515 -0.024403172 -0.17098626 -0.18391292 0.21268243 0.24144462 0.40554407
-0.1533759 0.13336445 0.09124635 0.22768182 -0.37982568 0.26910216 0.034308493 0.457438
-0.45373398 -0.002066737 0.23266985 0.24342005 -0.3565036 -0.25837573 0.1836696 0.08172848
-0.21146476 0.4478286 -0.10154902 0.17892492 -0.87499523 0.049494397 0.05302061 0.28154415
0.25861993 -0.04690199 0.44008395 0.13905013 0.0896893 -0.13446313 0.16390982 0.11810618
-0.02730264 0.44148445 0.18810226 0.39617658 -0.18741678 0.07558459 -0.0020547947 0.34086037
-0.021046806 0.11445 -0.20963235 0.13093801 0.055234313 -0.3811882 0.11769977 -0.045225304
0.36333126 -0.026890825 -0.54394233 0.12729298 -0.35461828 0.24485569 -0.30270314 -0.55497193
-0.056342762 -0.07143484 0.04642263 0.34911853 -0.04096993 0.6041021 0.2666984 0.37661707
0.17108653 -0.5259261 -0.14821851 0.05568531 -0.17835495 0.008768741 0.120548554 -0.25188318
-0.1211612 -0.39665914 0.31931472 -0.17616892 -0.2046329 0.12158496 0.09016986 0.0027922045
-0.00999431 0.13939147 0.02668253 -0.32770753 0.0081263045 -0.19020785 0.19198076 0.070571214
0.07050886 0.31712106 0.21278547 -0.03924672 0.30322668 -0.10856247 0.2821974 0.2815344
0.2790082 0.074245185 0.26469275 -0.016325517 0.1391998 0.15141387 0.40575445 -0.026685176
0.5151516 -0.12197684 0.95711803 0.041321564 -0.18126942 -0.069877066 -0.21876211 0.3930478
-0.17632198 0.33352202 0.15740176 -0.18004803 0.3671297 0.6136038 0.32802498 0.035993733
-0.08326994 -0.16058077 0.35257068 0.20507939 -0.2492451 0.6186741 0.10447256 -0.031267855
0.086935095 0.08307155 0.33992144 -0.02688405 0.0391696 0.13718519 -0.04004321 -0.25729454
-0.19345982 0.36438653 -0.09062092 0.09452294 -0.22491921 0.31164983 -0.28293642 -0.1140768
0.36150658 0.22292748 0.081880204 0.11171959 -0.17471413 0.3089195 -0.37146106 0.116900355
0.001194058 -0.16636129 0.021442017 0.13065886 -0.067814164 -0.5665966 -0.07107916 -0.44050157
0.06134324 -0.07580924 0.059266992 0.1170489 -0.18956764 -0.112750895 -0.44992062 0.2870732
00000000: 5242 c2be 16c4 d03e 0f3b 293e 54c8 7b3e
00000010: 90b6 843e a87b 27be 59b0 1abf 46c0 43be
00000020: 8929 b03e 21c4 febd 39cd a13e 5ce3 23be
00000030: 16b6 63be dd3d 5e3e 116b 083e 75bb 87be
00000040: bac7 f63d bdfc 863e 8b07 593d e1d5 83bd
00000050: 9f36 613d 7ef3 acbd 2979 5f3d 3091 0f3f
00000060: 4f56 7bbe 0483 183c 6945 bb3c 29f6 813e
00000070: 3846 52be 1394 ee3d 54b9 953e 3950 183e
00000080: 3528 afbe 0f7d 223d 2d4b 0a3e 561c a7be
00000090: b1ca 4b3e 34a8 5abd 59be 0cbe f0f9 95be
000000a0: 0182 dd3e 0c67 093f 6414 86bc 5bfe 843e
000000b0: 2f25 a53e c676 583d 1a82 e83d 9774 443e
000000c0: eab8 b0bd b411 1ebd d587 db3e 142c 293e
000000d0: 3a4a a8bd 1eb2 7c3d 46c8 01be 4beb 703e
000000e0: 1b3e a43e bbde b83d 0ca5 e83e 1b14 753d
000000f0: 48b4 9c3d d805 e23d fcf6 4c3b 143c bbbb
00000100: bdfa b43c 3003 d5be 426b 19bd 060d c8bd
00000110: 76c5 45bf 911f ebbc c3ad 03bd 2083 c33e
00000120: 09a4 a9bc 2335 4f3e 81cd 163d 5eb6 d33e
00000130: 35ad 8c3e 67f4 723d cc22 91bd 390c 82be
00000140: 3ab3 b33e 6b45 973e 29e9 c7bc 0617 2fbe
00000150: ab53 3cbe 6cc9 593e 423d 773e 79a3 cf3e
00000160: 920e 1dbe b190 083e 5edf ba3d 6c25 693e
00000170: 8378 c2be c2c7 893e 1087 0c3d 5035 ea3e
00000180: d24f e8be 1872 07bb 0141 6e3e 1b43 793e
00000190: a487 b6be d349 84be e213 3c3e 4361 a73d
000001a0: 388a 58be ca49 e53e eff8 cfbd 1838 373e
000001b0: b0ff 5fbf a3ba 4a3d 242c 593d 8e26 903e
000001c0: d569 843e 4d1c 40bd af52 e13e 2863 0e3e
000001d0: 06af b73d b4b0 09be fad7 273e a7e1 f13d
000001e0: c9a9 dfbc 400a e23e e19d 403e a8d7 ca3e
000001f0: 2fea 3fbe 18cc 9a3d bca9 06bb 4085 ae3e
00000200: 5a6a acbc c364 ea3d dda9 56be 9d14 063e
00000210: 603d 623d 1a2b c3be 940c f13d 2b3e 39bd
00000220: 8e06 ba3e 264a dcbc ce3f 0bbf 1759 023e
00000230: 8790 b5be 73bb 7a3e e8fb 9abe a412 0ebf
00000240: abc7 66bd 6e4c 92bd a825 3e3d aabf b23e
00000250: 16d0 27bd 6fa6 1a3f b18c 883e f4d3 c03e
00000260: 4f31 2f3e 18a3 06bf 98c6 17be 4816 643d
00000270: aea2 36be c4aa 0f3c 29e2 f63d d5f6 80be
00000280: 5d23 f8bd e816 cbbe 387d a33e a065 34be
00000290: 498b 51be 8901 f93d faaa b83d 6bfd 363b
000002a0: 2dbf 23bc a3bc 0e3e 5295 da3c 48c9 a7be
000002b0: 3124 053c d9c5 42be 9b96 443e a487 903d
000002c0: f366 903d b15d a23e 6fe4 593e 2bc1 20bd
000002d0: 8740 9b3e 0056 debd 2d7c 903e 4725 903e
000002e0: 2ada 8e3e dc0d 983d cf85 873e 17bd 85bc
000002f0: 648a 0e3e 3d0c 1b3e 0cbf cf3e df9a dabc
00000300: fae0 033f fece f9bd b005 753f cd40 293d
00000310: b19e 39be b51b 8fbd 2d03 60be 903d c93e
00000320: c08d 34be 66c3 aa3e ed2d 213e 835e 38be
00000330: 6df8 bb3e 2315 1d3f e4f2 a73e 2a6e 133d
00000340: 6e89 aabd 496f 24be 2584 b43e 5500 523e
00000350: 1c3a 7fbe 6d61 1e3f b6f5 d53d b912 00bd
00000360: 070b b23d 6b21 aa3d 2f0a ae3e f03b dcbc
00000370: 4d70 203d 467a 0c3e 5904 24bd 1cbc 83be
00000380: 551a 46be df90 ba3e 7697 b9bd 3e95 c13d
00000390: 3951 66be 9190 9f3e 0bdd 90be 19a1 e9bd
000003a0: 6417 b93e 1a47 643e cfb0 a73d 3ecd e43d
000003b0: 43e8 32be b22a 9e3e 2530 bebe 7469 ef3d
000003c0: f081 9c3a 9d5a 2abe 2ba7 af3c 70cb 053e
000003d0: 27e2 8abd 7a0c 11bf f391 91bd 6c89 e1be
000003e0: 0d43 7b3d e041 9bbd f2c1 723d 55b7 ef3d
000003f0: 051e 42be f1e9 e6bd ff5b e6be 42fb 923e

fc1.bias f4 [100]
-0.054634143 0.0051962542 0.067701004 0.012100725 0.031029854 0.04853667 0.09170714 -0.05864894
-0.091060035 0.0032133327 0.046353787 -0.09131316 -0.0953344 -0.023496693 -0.09800325 -0.00026606707
-0.07269388 -0.110539675 0.0035322926 -0.104509875 0.021237172 -0.024006816 -0.13374123 0.04695073
-0.11222738 -0.04032121 -0.035479993 0.066838525 -0.047356598 0.037936952 -0.122435756 -0.034807287
0.0064873984 -0.102055356 -0.08708938 -0.018654982 -0.0625748 -0.10456174 0.037042752 -0.071627006
0.039283995 0.118951425 -0.08943824 -0.016334584 0.04203047 -0.082846045 0.10147189 0.038116217
0.06391955 0.03989651 0.07894893 0.058617745 0.04173524 0.05307192 -0.094010614 0.0267137
-0.0033629145 -0.05555284 0.03431901 0.08030272 0.04975191 -0.012876408 -0.042143196 0.011437972
-0.0676152 0.029065926 -0.024651986 0.032204702 -0.06354904 0.010242041 -0.057318762 -0.08764396
0.044627804 0.04798893 0.020209208 0.00214162 -0.06367489 0.0011212348 -0.104800865 0.011849125
0.059473656 -0.1259775 0.10068799 0.005483184 -0.020535033 0.04364209 -0.03142776 0.04576565
-0.00016633829 0.0021973676 -0.093579575 -0.09612111 -0.08863545 -0.1156552 0.030005658 0.07393129
-0.057505798 -0.00036565866 0.08708485 -0.03731342
00000000: 0dc8 5fbd 5745 aa3b d3a6 8a3d 1f42 463c
00000010: 5232 fe3c 63ce 463d f4d0 bb3d df39 70bd
00000020: af7d babd c796 523b 78dd 3d3d 6502 bbbd
00000030: af3e c3bd 237c c0bc eeb5 c8bd eb7e 8bb9
00000040: 87e0 94bd a062 e2bd 097e 673b 4609 d6bd
00000050: 94f9 ad3c f1a9 c4bc 76f3 08be 694f 403d
00000060: 78d7 e5bd da27 25bd 7853 11bd a3e2 883d
00000070: fef8 41bd c763 1b3d 99bf fabd 1692 0ebd
00000080: 3e94 d43b 6602 d1bd eb5b b2bd 55d2 98bc
00000090: 3727 80bd 7724 d6bd 24ba 173d 2eb1 92bd
000000a0: 41e8 203d ce9c f33d 652b b7bd 1bd0 85bc
000000b0: 2428 2c3d 30ab a9bd 7fd0 cf3d c01f 1c3d
000000c0: 41e8 823d 866a 233d faaf a13d 2919 703d
000000d0: 92f2 2a3d f161 593d a388 c0bd b0d6 da3c
000000e0: 5864 5cbb 608b 63bd 1792 0c3d c175 a43d
000000f0: a9c8 4b3d 92f7 52bc 589e 2cbd 5566 3b3c
00000100: d779 8abd aa1b ee3c f6f2 c9bc 14e9 033d
00000110: 0026 82bd 3cce 273c 14c7 6abd ad7e b3bd
00000120: a5cb 363d 0a90 443d c88d a53c 6c5a 0c3b
00000130: fb67 82bd 66f6 923a d6a1 d6bd d522 423c
00000140: a69a 733d 3f00 01be 8135 ce3d 48ac b33b
00000150: 1639 a8bc 0cc2 323d 65ba 00bd c374 3b3d
00000160: 186b 2eb9 b601 103b a6a6 bfbd 25db c4bd
00000170: 8186 b5bd a2dc ecbd 6dce f53c 4a69 973d
00000180: 338b 6bbd e0b5 bfb9 8b59 b23d f5d5 18bd

fc2.weight f4 [100, 100]
0.0065886714 0.053036965 0.14708655 -0.036997 0.28601146 0.28274304 -0.053741377 -0.006941552
-0.13670263 0.29922625 0.48226485 -0.19786778 -0.18816708 0.16438387 0.30334288 0.14877789
-0.26917097 0.19221705 -0.65387565 -0.0012801257 -0.08157659 0.41525933 0.097111486 0.08475022
-0.2542294 0.28389478 0.623103 0.022756586 0.10245887 -0.09723626 -0.29258585 -0.12491095
0.0737664 0.63024116 0.024862753 0.011818783 0.10836052 0.0029019057 0.04879235 -0.06473375
-0.1969809 -0.16134551 -0.5085369 -0.2536891 0.12033603 0.12657657 -0.049900375 -0.0052060653
0.0913849 0.3501537 -0.031777952 0.23007277 -0.4188852 -0.12902921 -0.06941025 -0.24629
-0.006316342 -0.0076207025 -0.16609196 0.098327875 0.263014 -0.23229918 0.43854657 0.1912999
-0.11595704 0.19958487 -0.21816713 -0.0456991 0.117903285 0.23702143 0.109978706 0.02797258
-0.37268764 0.3715168 -0.29783574 -0.0016831827 0.10518612 -0.12529744 -0.18861014 -0.22413611
-0.19670382 -0.09170415 0.1354706 -0.11140641 0.2725163 -0.18924542 0.07011049 -0.23522648
-0.075076275 0.10428465 -0.15311491 -0.27767026 -0.20294486 -0.090830825 0.14548434 0.13810499
0.14492683 0.18408066 0.27718917 -0.5484285 0.18991251 -0.45225915 0.6269442 -0.28366596
0.0395917 -0.108546756 0.121258736 -0.0783828 -0.09933635 -0.4405848 -0.29757336 -0.15393394
0.33944753 -0.13176045 0.18931611 -0.065860406 -0.215848 0.05816654 -0.19045572 -0.20593412
-0.0017833347 -0.39262584 -0.073215894 0.2739379 0.41390917 -0.16676871 0.48067448 -0.039807424
0.14975086 -0.51000357 -0.1956943 0.03512204 0.39447471 0.07298297 -0.21690679 0.3899341
0.32083562 -0.053429827 -0.3834701 -0.18257461 0.14447947 0.016147863 -0.18472159 0.022758411
-0.020936843 -0.45800647 -0.22297062 -0.095839255 -0.45233008 0.045992117 0.35038713 0.06475801
-0.35000002 -0.23500851 -0.06824179 0.10231575 -0.15023516 -0.16866022 0.18960555 0.34333324
0.61872387 -0.26106516 -0.27580285 0.1215843 -0.12447842 -0.004440804 -0.10803737 0.33453476
-0.097463466 -0.4355736 -0.22436711 -0.2533409 0.3516261 -0.10437708 0.016932454 -0.16278161
0.21559556 -0.15771654 -0.09136946 0.052678205 0.43110162 -0.03074786 0.14578857 0.23919551
0.5171716 -0.44176856 -0.2509309 0.3170707 0.113781504 0.14191823 0.15002842 0.102627814
-0.13061787 0.6666636 -0.535019 0.007399883 0.03908664 -0.16348843 -0.031302135 0.47664425
0.074651666 0.10611553 0.26004744 -0.008966306 0.07998108 -0.12617473 -0.26088855 0.18117855
0.11079507 0.046159796 0.1441511 0.1436157 -0.09324353 0.022122268 0.13647464 0.02551978
0.04790344 0.18476838 0.057126187 -0.034213647 0.033606436 -0.06300564 0.16852275 -0.16496043
0.06317068 -0.25535196 -0.03304735 -0.283367 -0.26333016 -0.005869976 0.217558 0.31959513
-0.037882123 -0.049723405 -0.20014462 -0.020098092 -0.13566186 0.27005157 0.07240216 0.080255814
-0.015147782 0.15853325 0.0018522062 -0.08883806 -0.08301596 0.042242702 -0.049651798 -0.09925661
0.06074216 0.071548596 0.14698549 -0.069682024 -0.1428351 0.053962126 0.058499165 0.060473092
00000000: c8e5 d73b 4a3d 593d db9d 163e 2b8a 17bd
00000010: 1870 923e b2c3 903e eb1f 5cbd f575 e3bb
00000020: c6fb 0bbe 2f34 993e 6beb f63e da9d 4abe
00000030: dfae 40be 3f54 283e c24f 9b3e 3b59 183e
00000040: c7d0 89be 8cd4 443e 6564 27bf e4c9 a7ba
00000050: a111 a7bd df9c d43e 63e2 c63d 8691 ad3d
00000060: 5b2a 82be a85a 913e ae83 1f3f 056c ba3c
00000070: f5d5 d13d ce23 c7bd d0cd 95be 50d1 ffbd
00000080: d712 973d 7c57 213f f9ac cb3c 92a3 413c
00000090: 1fec dd3d e62d 3e3b 7dda 473d 2193 84bd
000000a0: 5cb5 49be c237 25be 792f 02bf 8ae3 81be
000000b0: bd72 f63d 4a9d 013e 5664 4cbd a497 aabb
000000c0: 0228 bb3d 5947 b33e 9929 02bd 3298 6b3e
000000d0: 1f78 d6be 3c20 04be f626 8ebd 7233 7cbe
000000e0: 51f9 cebb 16b7 f9bb 0314 2abe 2060 c93d
000000f0: c5a9 863e d6df 6dbe 2d89 e03e 1fe4 433e
00000100: e27a edbd fa5f 4c3e 3467 5fbe fb2e 3bbd
00000110: 4777 f13d bfb5 723e 843c e13d c126 e53c
00000120: ead0 bebe 7337 be3e ed7d 98be 3d9e dcba
00000130: d26b d73d f94d 00be 0423 41be f083 65be
00000140: ba6c 49be 63cf bbbd ceb8 0a3e 0b29 e4bd
00000150: 4287 8b3e 8dc9 41be 1796 8f3d 36df 70be
00000160: 97c1 99bd 3193 d53d 28ca 1cbe cc2a 8ebe
00000170: c7d0 4fbe 8305 babd d9f9 143e 656b 0d3e
00000180: b367 143e a47f 3c3e bdeb 8d3e cf65 0cbf
00000190: 6d78 423e 838e e7be 6a7f 203f aa3c 91be
000001a0: e82a 223d c34d debd 8056 f83d 2987 a0bd
000001b0: db70 cbbd 5594 e1be 895b 98be dca0 1dbe
000001c0: 11cc ad3e 36ec 06be 15dc 413e d2e1 86bd
000001d0: 4207 5dbe 0a40 6e3d d306 43be 65e0 52be
000001e0: c8be e9ba 4106 c9be 37f2 95bd 9741 8c3e
000001f0: e7eb d33e 6bc5 2abe f71a f63e 1c0d 23bd
00000200: 4a58 193e 988f 02bf 1664 48be 21dc 0f3d
00000210: 97f8 c93e 1878 953d d01c 5ebe 71a5 c73e
00000220: 9144 a43e 3cd9 5abd 3156 c4be d7f4 3abe
00000230: 6df2 133e 8648 843c a827 3dbe d96f ba3c
00000240: be83 abbc d37f eabe 6952 64be 5f47 c4bd
00000250: cf97 e7be 3b62 3c3d f165 b33e d99f 843d
00000260: 3433 b3be 12a6 70be 5ac2 8bbd ec8a d13d
00000270: 3fd7 19be 44b5 2cbe f527 423e 60c9 af3e
00000280: b064 1e3f 55aa 85be 0836 8dbe 3101 f93d
00000290: 8bee febd 2a84 91bb b242 ddbd 2448 ab3e
000002a0: ed9a c7bd 8103 dfbe 7ec0 65be e6b5 81be
000002b0: 5608 b43e a7c3 d5bd eeb5 8a3c 39b0 26be
000002c0: 15c5 5c3e 7280 21be e91f bbbd 1ac5 573d
000002d0: 5ab9 dc3e f0e2 fbbc 9949 153e abef 743e
000002e0: 5c65 043f 7d2f e2be 047a 80be 1757 a23e
000002f0: 4706 e93d 0353 113e 0da1 193e 882e d23d
00000300: b1c0 05be 77aa 2a3f 01f7 08bf b87a f23b
00000310: 5019 203d 8369 27be ab36 00bd b70a f43e
00000320: f9e2 983d 1953 d93d f024 853e 6ae7 12bc
00000330: 1fcd a33d f333 01be 2f93 85be df86 393e
00000340: 87e8 e23d 0e12 3d3d 599c 133e fe0f 133e
00000350: 77f6 bebd c239 b53c 02c0 0b3e dc0e d13c
00000360: 6636 443d ec33 3d3e 26fd 693d 9c23 0cbd
00000370: e7a6 093d 1a09 81bd 3a91 2c3e 63eb 28be
00000380: a15f 813d 7ebd 82be a85c 07bd 7b15 91be
00000390: 36d3 86be ed58 c0bb 86c7 5e3e f9a1 a33e
000003a0: 492a 1bbd c5aa 4bbd b6f2 4cbe c1a4 a4bc
000003b0: f1ea 0abe 3344 8a3e 9547 943d 295d a43d
000003c0: 672e 78bc 8a56 223e bac5 f23a bbf0 b5bd
000003d0: 4604 aabd af06 2d3d af5f 4bbd 0d47 cbbd
000003e0: c5cc 783d 1288 923d 5d83 163e 73b5 8ebd
000003f0: 5d43 12be 6407 5d3d d29c 6f3d a2b2 773d

fc2.bias f4 [100]
-0.23271796 -0.12917258 -0.07346222 -0.007109448 -0.17269024 -0.05746197 -0.2240551 -0.119735055
0.08711311 -0.09222334 -0.28767723 -0.1381527 -0.1503874 -0.031047963 -0.13050154 -0.27261463
-0.24935834 -0.105589636 -0.14759307 -0.33729437 -0.10057427 -0.059206653 -0.31103814 -0.08392793
-0.23269135 -0.0977294 -0.23043358 -0.032397494 -0.068062104 -0.07130431 -0.1111831 -0.3174701
-0.286318 -0.034045056 -0.17729351 -0.25614098 -0.13303499 0.20376855 -0.078476585 -0.19564918
-0.2338069 -0.16352877 -0.004144859 -0.2832665 -0.022976438 -0.10599998 -0.13359997 0.07868071
0.027606307 -0.28772864 0.06283831 -0.21925932 0.06796396 -0.22272727 -0.27347362 -0.20835531
-0.11715717 -0.15633665 0.026083462 -0.2845631 -0.08310243 -0.20690614 -0.2715485 -0.088501774
-0.011314024 -0.04030325 0.0843635 -0.0130386455 -0.13185161 -0.2635207 -0.21369915 -0.19325295
0.15033115 -0.1351117 -0.14481005 -0.18334648 -0.2528858 -0.009948066 -0.13599774 -0.27054048
-0.06306616 -0.27515724 -0.14783256 -0.21674457 -0.21558791 -0.044628948 0.013837019 -0.22007895
-0.1352531 -0.090604044 -0.115027845 -0.17087354 -0.2896447 -0.1916959 -0.074613795 0.112273484
0.10386121 0.018853752 -0.1683026 -0.12971883
00000000: 9e4d 6ebe d145 04be 5c73 96bd 5ff6 e8bb
00000010: b6d5 30be 3e5d 6bbd b36e 65be a737 f5bd
00000020: 5c68 b23d 97df bcbd 6e4a 93be e777 0dbe
00000030: 28ff 19be 4c58 febc 32a2 05be 2594 8bbe
00000040: cb57 7fbe 613f d8bd a322 17be d9b1 acbe
00000050: e2f9 cdbd ad82 72bd 6440 9fbe 68e2 abbd
00000060: a446 6ebe 5a26 c8bd c8f6 6bbe 3cb3 04bd
00000070: 2564 8bbd fe07 92bd f7b3 e3bd 718b a2be
00000080: 4698 92be d472 0bbd 6e8c 35be e924 83be
00000090: 533a 08be b4a8 503e 55b8 a0bd 4258 48be
000000a0: 136b 6fbe 1674 27be 99d1 87bb 4f08 91be
000000b0: 1539 bcbc 8416 d9bd 6ece 08be 5a23 a13d
000000c0: 9f26 e23c 2b51 93be 5fb1 803d 8485 60be
000000d0: b030 8b3d 9e12 64be bc04 8cbe 185b 55be
000000e0: 19f0 efbd b716 20be fcac d53c 41b2 91be
000000f0: 9b31 aabd 34df 53be 6808 8bbe 6b40 b5bd
00000100: 755e 39bc 0515 25bd c5c6 ac3d 0ba0 55bc
00000110: 1c04 07be 2fec 86be f3d3 5abe 1ae4 45be
00000120: 69f0 193e b95a 0abe 1649 14be 2ebf 3bbe
00000130: 3f7a 81be 37fd 22bc fe42 0bbe 4884 8abe
00000140: d528 81bd 69e1 8cbe 6b61 17be 4af2 5dbe
00000150: 14c3 5cbe d8cc 36bd aab4 623c 605c 61be
00000160: ca7f 0abe 9d8e b9bd b893 ebbd 79f9 2ebe
00000170: 4f4c 94be ee4b 44be 1ecf 98bd a4ef e53d
00000180: 30b5 d43d 2f73 9a3c 8457 2cbe 03d5 04be

fc3.weight f4 [2, 100]
-0.39518386 0.6124154 0.18608497 0.54106045 0.4328799 -0.77195966 -0.59404814 -0.5759441
0.10464753 -0.24300423 -0.5469702 -0.05728229 -0.5663365 0.20183285 -0.34717306 -0.42958382
-0.50996333 0.78184867 0.07782498 -0.58331835 -0.072362065 0.7220691 -0.61355025 0.7408296
-0.015189037 0.39192715 -0.48564112 0.4534099 0.7704072 -0.5076737 0.82222754 -0.61513
0.6655461 0.2047841 0.43381643 -0.5421363 -0.34799746 0.31694028 -0.65107644 0.3783852
-0.63549155 -0.62842506 0.5311707 -0.58109206 0.26960987 -0.47908786 0.70046 0.3839931
0.59919065 0.7208559 0.11129551 -0.70823514 0.11771676 -0.6101222 -0.7331756 0.07325044
-0.012759784 -0.5105822 0.7933026 -0.6076466 0.5767314 0.76457167 -0.49407434 0.6934791
0.23462392 0.3138062 0.5768064 0.6831654 0.6413498 -0.6319362 -0.45897394 -0.6217703
0.42746863 -0.6251526 -0.0545846 -0.38916785 -0.46591064 -0.47863126 -0.5290693 -0.7793556
0.7659746 -0.43930897 0.7040071 0.5103909 -0.56328 0.5611033 0.3440463 -0.50196475
-0.5390432 0.52517074 0.039331224 -0.50719804 -0.5858222 0.7349149 0.60811305 0.16281202
0.3724716 0.0054626088 -0.60082173 0.4178309 0.5122492 -0.7327877 -0.18000732 -0.5257405
-0.5493543 0.7949131 0.58338964 0.63026947 -0.21297467 0.31064647 0.40072507 -0.04451546
0.55368304 -0.1851257 0.33837676 0.43982953 0.6045688 -0.6350301 0.06913013 0.5579561
-0.07212884 -0.75530636 0.5734742 -0.678353 -0.06532282 -0.48647246 0.5241616 -0.6188964
-0.7595706 0.3771066 -0.726114 0.60715556 -0.6530085 -0.19432321 -0.47470218 0.6110068
0.38033828 -0.26359716 0.5945188 -0.53078014 0.56089634 0.69465 -0.4888897 0.49938974
-0.3258042 0.4843495 -0.6041503 -0.45915794 -0.473965 -0.63982236 -0.11081608 0.6347991
-0.13460565 0.5682264 0.6464444 -0.20944758 -0.019041201 0.62031025 -0.6665933 0.496987
-0.65824324 -0.6916504 0.40283743 -0.6846308 -0.25277203 -0.34985533 -0.6043127 -0.69960064
-0.6542983 0.53504634 0.47978425 0.68111974 -0.6001646 0.61768264 -0.057904396 0.5150689
0.45559612 0.590485 0.59814006 0.62059766 -0.63344437 0.45390323 -0.54543084 -0.49349192
0.50534225 -0.48477003 -0.41184992 0.6621738 0.4419849 -0.66270477 0.031665135 0.5570486
0.6052545 -0.64136416 -0.4987427 -0.21425344 -0.32169375 0.0077591613 0.59454626 -0.42005035
00000000: 8a55 cabe 41c7 1c3f 0f8d 3e3e f082 0a3f
00000010: 6fa2 dd3e 269f 45bf 8a13 18bf 1371 13bf
00000020: 7251 d63d 1ad6 78be 3d06 0cbf d6a0 6abd
00000030: 6efb 10bf 45ad 4e3e abc0 b1be 69f2 dbbe
00000040: f58c 02bf 3c27 483f b462 9f3d 5a54 15bf
00000050: 9032 94bd 85d9 383f a111 1dbf 02a7 3d3f
00000060: 70db 78bc adaa c83e f4a5 f8be 5825 e83e
00000070: 6839 453f e7f6 01bf 817d 523f 2979 1dbf
00000080: 3b61 2a3f ecb2 513e 301d de3e 72c9 0abf
00000090: b92c b2be ff45 a23e f2ac 26bf b4bb c13e
000000a0: 93af 22bf 77e0 20bf cefa 073f 73c2 14bf
000000b0: 4e0a 8a3e 014b f5be 5951 333f be9a c43e
000000c0: 8f64 193f 038a 383f e6ee e33d e64e 35bf
000000d0: 7c15 f13d f830 1cbf 65b1 3bbf 5404 963d
000000e0: 6a0e 51bc 84b5 02bf e115 4b3f ba8e 1bbf
000000f0: aba4 133f f8ba 433f 50f7 fcbe d987 313f
00000100: 4141 703e 35ab a03e 96a9 133f ede3 2e3f
00000110: 802f 243f 92c6 21bf a2fe eabe 572c 1fbf
00000120: 2bdd da3e 000a 20bf 1a94 5fbd 0241 c7be
00000130: d78b eebe 280f f5be 1671 07bf d983 47bf
00000140: e916 443f 1bed e0be cf39 343f faa8 023f
00000150: 1e33 10bf 77a4 0f3f d626 b03e c380 00bf
00000160: bcfe 09bf 9771 063f c719 213d bbd7 01bf
00000170: 72f8 15bf 6223 3c3f 4cad 1b3f 32b8 263e
00000180: 99b4 be3e afff b23b 74cf 19bf efed d53e
00000190: c322 033f fa97 3bbf d753 38be ee96 06bf
000001a0: 7ca2 0cbf 6d7f 4b3f 0659 153f 5759 213f
000001b0: 0816 5abe 0e0d 9f3e d62b cd3e d855 36bd
000001c0: 2cbe 0d3f 9791 3dbe b83f ad3e 5631 e13e
000001d0: 05c5 1a3f 5591 22bf 1994 8d3d 36d6 0e3f
000001e0: 49b8 93bd c25b 41bf 35cf 123f 8ba8 2dbf
000001f0: f8c7 85bd eb12 f9be 742f 063f ff6f 1ebf
00000200: 3873 42bf 1e14 c13e 9be2 39bf 8c6e 1b3f
00000210: 912b 27bf aafc 46be 2a0c f3be f16a 1c3f
00000220: b3bb c23e 35f6 86be 6232 183f 35e1 07bf
00000230: e796 0f3f 95d4 313f c04f fabe 03b0 ff3e
00000240: cfcf a6be a8fc f73e 98a9 1abf c016 ebbe
00000250: 8aab f2be 66cb 23bf 8af3 e2bd 3282 223f
00000260: 10d6 09be 4977 113f 617d 253f 6d79 56be
00000270: 4bfc 9bbc a7cc 1e3f dca5 2abf 1475 fe3e
00000280: a182 28bf 0010 31bf b540 ce3e f743 2fbf
00000290: 566b 81be 3d20 b3be 3db4 1abf 0719 33bf
000002a0: 1880 27bf ccf8 083f 48a6 f53e dd5d 2e3f
000002b0: 63a4 19bf 7320 1e3f 292d 6dbd 8edb 033f
000002c0: e543 e93e 062a 173f b51f 193f 7ddf 1e3f
000002d0: 6929 22bf 0166 e83e 5ba1 0bbf f9aa fcbe
000002e0: 1c5e 013f c733 f8be fedd d2be 3984 293f
000002f0: d84b e23e 05a7 29bf 4db3 013d bd9a 0e3f
00000300: f5f1 1a3f 7130 24bf 345b ffbe 4165 5bbe
00000310: 0bb5 a4be 9040 fe3b 2f34 183f d710 d7be

fc3.bias f4 [2]
-0.02596012 -0.04550019
00000000: 51aa d4bc 685e 3abd
