scripts/ffnn/ffnn_model.ckpt (torch_old, 82667 bytes, 6 tensors)

fc1.weight f4 [100, 100]
0	0x3e3de44f	0.18544124
1	0xbd926567	-0.07148247
2	0x3e8324a5	0.25613895
3	0x3e7025bb	0.23451893
4	0x3d7d5bd5	0.061855156
5	0xbea237b9	-0.31683138
6	0x3e41a470	0.18910384
7	0x3d2c38bd	0.042046297
8	0x3f0be717	0.5464949
9	0xbde7c5be	-0.11317013
10	0xbe3cb1ac	-0.18427151
11	0x3cc6a009	0.024246233
12	0xbecd70c4	-0.40125096
13	0xbc8947dd	-0.0167579
14	0x3d4cbb3b	0.049983244
15	0x3e9ce366	0.3064224
16	0xbdb6e799	-0.089308925
17	0xbe907504	-0.28214276
18	0x3d73e76c	0.059546873
19	0xbd0b5d62	-0.034024604
20	0x3da02cbc	0.078210324
21	0x3e4a85a4	0.19777542
22	0xbc09c1c1	-0.008408011
23	0xbe546b05	-0.2074395
24	0x3dbec5af	0.09315049
25	0xbebd238a	-0.36941177
26	0xbe3e4172	-0.18579653
27	0x3ddc2971	0.10750092
28	0xbe870191	-0.26368383
29	0xbe53c439	-0.20680322
30	0xbec959bd	-0.39326277
31	0xbb4e51f0	-0.0031481944
32	0x3d9ac6ab	0.07557424
33	0x3de2b014	0.110687405
34	0xbc8d7d9d	-0.017271811
35	0x3e7a7857	0.24459969
36	0x3d2a7ce8	0.041623026
37	0x3e30223d	0.17200561
38	0x3dd29a46	0.102833316
39	0x3efabc1f	0.4897165
40	0xbe0906ae	-0.13381454
41	0xbdd3a684	-0.10334495
42	0x3e4b51da	0.19855443
43	0x3d93f67e	0.07224749
44	0x3f1d7dbc	0.6151998
45	0xbe530583	-0.20607571
46	0xbe4272ee	-0.18989155
47	0xbdd2e41e	-0.10297416
48	0x3df9c841	0.121963985
49	0xbdbe27d4	-0.0928494
50	0x3e037c03	0.12840275
51	0x3d828be5	0.06374339
52	0xbeb824cf	-0.35965583
53	0xbe07e5bc	-0.1327123
54	0xbd97e17b	-0.07416054
55	0x3e334f3f	0.17510699
56	0xbf336e8f	-0.70090574
57	0x3eea0b47	0.4571173
58	0xbec0f70f	-0.3768849
59	0xbe6b47b1	-0.22976567
60	0x3e7758dd	0.24154992
61	0x3eaef4fa	0.34171277
62	0xbedcf939	-0.43158892
63	0xbe3f6cf8	-0.18693912
64	0x3e495682	0.19661906
65	0xbd72586b	-0.059166353
66	0x3da35ec0	0.079770565
67	0x3e0994c4	0.13435656
68	0xbd83e9b1	-0.064410575
69	0xbe388a0d	-0.18021412
70	0xbd5d9302	-0.054095276
71	0xbeddbc5c	-0.4330777
72	0xbead0826	-0.3379528
73	0xbf02443d	-0.50885373
74	0x3cdd00af	0.026977865
75	0xbd23d315	-0.039996225
76	0xbd4f2aab	-0.0505778
77	0x3e6956d9	0.22787036
78	0xbe0c9ff3	-0.13732891
79	0xbecbe2ab	-0.3982137
80	0xbf2f2c9b	-0.6842744
81	0xbcf70073	-0.030151581
82	0x3eac11fd	0.33607474
83	0xbe5c60dc	-0.21521324
84	0xbecaab52	-0.39583832
85	0xbe263850	-0.16232419
86	0xbf63a193	-0.8891842
87	0xbe958905	-0.292061
88	0x3d537f8d	0.051635314
89	0x3dbe39ba	0.09288354
90	0xbe900832	-0.28131253
91	0x3cc57a12	0.02410606
92	0xbdbe8b6b	-0.093039356
93	0x3e903ca6	0.2817127
94	0x3dcdc046	0.10046439
95	0xbddc7aa6	-0.10765581
96	0xbeb44ffe	-0.3521728
97	0x3e375afd	0.17905803
98	0xbdc852ed	-0.09781442
99	0xbdcf0d83	-0.10109999
100	0xbd0afbdf	-0.03393161
101	0xbdf87462	-0.12131573
102	0xbd2b83a4	-0.04187359
103	0xbe5e7ec8	-0.2172805
104	0x3e26f420	0.16304064
105	0xbdc7cb3d	-0.097555615
106	0x3e58fc6d	0.21190043
107	0xbe1b7f8f	-0.15185378
108	0xbe96e79f	-0.29473588
109	0xbeb04cb5	-0.34433523
110	0xbda6887b	-0.081315
111	0x3da47029	0.08029205
112	0xbc9f7bea	-0.019468267
113	0xbdae71f6	-0.0851783
114	0xbdc34623	-0.09534862
115	0xbc8c7bb4	-0.01714883
116	0x3e2e1946	0.17001829
117	0x3e1108d3	0.14163522
118	0x3ead4b4b	0.33846506
119	0xbea27e82	-0.31737143
120	0x3e4a1372	0.1973398
121	0x3e1b9664	0.15194088
122	0x3e165e79	0.14684476
123	0xbdfb6632	-0.122753516
124	0x3e1e07a4	0.15432602
125	0xbe4508e9	-0.1924168
126	0x3ded4fc3	0.11587479
127	0x3e057009	0.1303102
128	0x3caf986b	0.021434983
129	0x3e2dbb79	0.16966046
130	0x3c2801e2	0.010254355
131	0x3e2d8afe	0.16947553
132	0x3ce10069	0.027466016
133	0xbc209ad7	-0.009802542
134	0xbeb41c80	-0.35177994
135	0xbeb3aad0	-0.35091257
136	0x3c1ed203	0.009693625
137	0x3e5a7ddc	0.21337074
138	0x3ea37bb1	0.31930307
139	0x3e35c272	0.17749956
140	0xbd427652	-0.04747612
141	0x3e423f6f	0.1896951
142	0xbcb132fe	-0.02163076
143	0xbe59c8b1	-0.21267964
144	0x3f1097da	0.5648171
145	0xbe599b1e	-0.21250579
146	0x3ae638a5	0.0017564489
147	0xbe3e4fa9	-0.18585075
148	0x3ebfdc2a	0.3747266
149	0x3ebce788	0.36895394
150	0xbe045d18	-0.12926137
151	0xbeccc1a5	-0.3999149
152	0xbe7f3a03	-0.24924473
153	0xbc2bf2e6	-0.010494923
154	0x3da68744	0.081312686
155	0xbe6f964b	-0.23397176
156	0x3df34840	0.11879015
157	0x3f0987e1	0.5372296
158	0x3ecf42f7	0.40480778
159	0xbea8bc01	-0.32955936
160	0x3ed2402e	0.4106459
161	0x3e29f517	0.165974
162	0xbe923606	-0.28556842
163	0x3cc57274	0.024102427
164	0x3df5a9bc	0.11995265
165	0x3dcfe530	0.10151136
166	0x3c2c2e14	0.010509033
167	0x3d20ec1c	0.03928767
168	0xbe84ed62	-0.2596236
169	0x3ea9ef1d	0.3319024
170	0xbe038c94	-0.12846595
171	0x3e875794	0.26434004
172	0x3cd91d06	0.026503097
173	0xbdcb6d75	-0.09932987
174	0x3e8f9202	0.28041083
175	0x3ea83951	0.3285623
176	0x3e094342	0.13404563
177	0x3dc83310	0.097753644
178	0x3eac63a5	0.33669773
179	0x3ebf48d5	0.37360254
180	0x3e54cd98	0.20781553
181	0xbb64d8e6	-0.003491932
182	0x3e035f70	0.12829375
183	0xbe266158	-0.16248071
184	0xbe087c02	-0.13328555
185	0x3eb4a260	0.35280132
186	0xbe360893	-0.17776708
187	0x3e90172b	0.28142676
188	0xbc970236	-0.018433671
189	0xbe04779e	-0.12936255
190	0xbe6881a3	-0.22705702
191	0x3e2c5434	0.16828996
192	0x3d9b4f91	0.075835355
193	0xbe7db60b	-0.24776475
194	0xbe605fdb	-0.21911566
195	0xbe37326a	-0.17890325
196	0xbdb4648f	-0.088082425
197	0xbe5610b8	-0.20904815
198	0x3e822432	0.2541824
199	0x3e93a292	0.2883497
200	0x3d9ce5c5	0.076610126
201	0x3e06990a	0.13144317
202	0xbe86a025	-0.26294056
203	0x3e8c8ef8	0.27452826
204	0xbdabe74a	-0.08393724
205	0xbe21605a	-0.15759411
206	0x3e87f1bc	0.26551616
207	0x3e538c7f	0.20659064
208	0xbe99396e	-0.29926628
209	0x3e8a45e3	0.27006444
210	0xbea9179c	-0.33025825
211	0xbe0cfe94	-0.13768989
212	0xbf2381a9	-0.6386972
213	0xbcff550c	-0.031168483
214	0xbebba0b9	-0.3664606
215	0x3be97267	0.0071242335
216	0xbe1c70e6	-0.15277442
217	0xbd9c5881	-0.07634068
218	0x3d957491	0.07297624
219	0x3cc504fb	0.024050226
220	0x3ea162f7	0.31520817
221	0x3f5c699c	0.8609865
222	0x3e8671ee	0.26258796
223	0xbe50604b	-0.20349233
224	0x3d8f5bbc	0.06999919
225	0xbe407f9d	-0.1879868
226	0x3da5dc87	0.08098703
227	0x3dc50ba3	0.0962136
228	0xbe97121e	-0.2950601
229	0xbe8a0083	-0.26953515
230	0x3da369e9	0.07979185
231	0xbdfd4976	-0.12367527
232	0x3ee12dc6	0.43980235
233	0xbeb23424	-0.34805405
234	0xbee533d4	-0.44766104
235	0xbd0de77b	-0.034644585
236	0xbd832dd5	-0.06405226
237	0x3e94e2b4	0.2907921
238	0x3caa3c27	0.020780636
239	0xbe3ace67	-0.18242799
240	0xbea50a12	-0.32234246
241	0xbdf9446e	-0.12171255
242	0x3db285e3	0.08716943
243	0x3d90a5c5	0.07062868
244	0x3e954c33	0.29159698
245	0xbedc51e9	-0.43031242
246	0x3eb1f14a	0.347544
247	0xbdd23bcb	-0.10265311
248	0x3ca7a7fe	0.020465847
249	0xbe73e130	-0.23816371
250	0x3e91d76e	0.28484672
251	0xbdbca2d0	-0.092107415
252	0x3ddc0f05	0.10745052
253	0xbe6719aa	-0.22568384
254	0x3de6a496	0.11261861
255	0xbe9bd5cb	-0.3043655

fc1.bias f4 [100]
0	0xbd80c543	-0.06287625
1	0x3d1dfbab	0.038570087
2	0x3c99fec1	0.018798234
3	0x3d20ae70	0.039228857
4	0x3dbc0b2a	0.09181817
5	0xbd0f11c3	-0.03492905
6	0x3c325941	0.010885538
7	0x3b0b3e5f	0.0021246893
8	0x3cc338c2	0.023830775
9	0x3d8f7d3d	0.07006309
10	0x3da2a086	0.07940774
11	0xbde716c4	-0.11283639
12	0xbd91c2c4	-0.07117227
13	0xbd5864b9	-0.05283043
14	0x3ca28831	0.019840332
15	0x3dde5f56	0.10858028
16	0xbd19ffbe	-0.03759741
17	0x3c964781	0.018344643
18	0x3d5c8ac9	0.053843293
19	0xbdcc1d27	-0.09966498
20	0xbddcbe08	-0.10778433
21	0xbd9f2f3b	-0.0777268
22	0xba37f760	-0.0007017758
23	0xbd3376fc	-0.043814644
24	0x3cfe16ae	0.031016674
25	0x3d1d72b9	0.038439486
26	0xbdd24cfc	-0.1026859
27	0x3d2ca24e	0.042146973
28	0x3d3d03d4	0.04614623
29	0x3ccd5821	0.025066437
30	0xbd903b48	-0.07042557
31	0x3cbc0e7c	0.022956125
32	0xbc94418b	-0.01809766
33	0xbdbf81b2	-0.09350909
34	0x3d9e1fef	0.077209346
35	0xbd33daf8	-0.043909997
36	0xbd961ab0	-0.07329309
37	0xbc35c047	-0.011093206
38	0x3a2824a6	0.00064141524
39	0xbd806406	-0.06269078
40	0x3d2b4351	0.041812245
41	0xbcb168ba	-0.021656383
42	0xbdada812	-0.084793225
43	0xbdc1b051	-0.09457458
44	0x3d8e375d	0.069441535
45	0xbddb7b1d	-0.10716841
46	0x3d4d51d6	0.050126873
47	0x3d5a422a	0.053285755
48	0xbdc3b5af	-0.09556138
49	0xbda700b8	-0.08154434
50	0x3c89bddd	0.016814167
51	0x3c845c65	0.016157338
52	0xbda62ca6	-0.08113985
53	0xbdb2b496	-0.0872585
54	0xbdb81a58	-0.089894
55	0xbd1324d1	-0.035923783
56	0xbd875a8b	-0.066090666
57	0x3d874db4	0.066066176
58	0xbda2a505	-0.07941631
59	0x3d553c20	0.052059293
60	0xbdc25e29	-0.09490616
61	0x3dd269b5	0.10274068
62	0xbb88d152	-0.0041753436
63	0xbadbdcf4	-0.0016774223
64	0xbd1b05a0	-0.03784716
65	0xbd4c9770	-0.04994911
66	0xbdf33832	-0.11875953
67	0x3d4647f7	0.048408475
68	0x3dad90e9	0.08474905
69	0x3cac4a5e	0.021031555
70	0xba1c3132	-0.00059582584
71	0xbd801784	-0.06254485
72	0x3d89a1ef	0.067203395
73	0x3c8a1f5f	0.016860662
74	0xbd7c83aa	-0.061649002
75	0xbc3893a1	-0.011265666
76	0xbd5a30ff	-0.053269383
77	0x3c9b1d09	0.018934743
78	0x3c4a448c	0.012345444
79	0xbd8ea378	-0.06964773
80	0xbcb18514	-0.021669902
81	0xbd966833	-0.07344093
82	0xbd78896b	-0.060677927
83	0x3b11cbf5	0.0022246812
84	0x3d362320	0.04446709
85	0x3d78c104	0.06073095
86	0xbdac1614	-0.084026486
87	0xbd124b73	-0.035716485
88	0xbceaaed9	-0.028647827
89	0x3c9ab6c4	0.018885978
90	0xbc023dc4	-0.007949296
91	0xbdbc3218	-0.09189242
92	0xbd22d7ca	-0.039756574
93	0xbdbfd74f	-0.09367239
94	0xbc178ca9	-0.009249845
95	0xbbb2799d	-0.0054466263
96	0xbd9014ae	-0.07035194
97	0x3dc4c369	0.09607584
98	0xbd966163	-0.07342794
99	0x3d33a638	0.04385969

fc2.weight f4 [100, 100]
0	0x3d32f0b1	0.043686572
1	0x3d4f352d	0.05058782
2	0xbd30369c	-0.04302083
3	0xbc6d5fe5	-0.014488195
4	0x3cd86109	0.026413457
5	0x3bd82081	0.0065956716
6	0x3cd93700	0.026515484
7	0xbd93382d	-0.07188449
8	0x3cae2633	0.02125845
9	0x3d26bc93	0.040707182
10	0xbd44846d	-0.047977854
11	0xbcb35607	-0.021891607
12	0x3d0aba3b	0.03386901
13	0x3ba480ee	0.0050202524
14	0xbdbc889b	-0.09205743
15	0xbbc038c4	-0.005866142
16	0xbd0a8520	-0.033818364
17	0x3d372426	0.04471221
18	0x3c752a6d	0.014963728
19	0x3c52d990	0.012869254
20	0x3c08b744	0.008344475
21	0x3cbbe75e	0.022937473
22	0x3bacea08	0.005276922
23	0x3cabb193	0.020958697
24	0xbce31aec	-0.027722798
25	0xbdb1f5b1	-0.0868944
26	0x3ce1a4ad	0.027544344
27	0x3d2d92a4	0.042376176
28	0xbcd59342	-0.026071195
29	0x3b63d0d3	0.003476192
30	0x3c875a23	0.016522473
31	0x3d7144af	0.058903392
32	0x3c2ca2a0	0.01053682
33	0x3b5912ac	0.0033122702
34	0xba93d091	-0.0011277368
35	0x3c663894	0.014051575
36	0x3c39fa2c	0.0113511495
37	0x3d326bf6	0.04355999
38	0x3b01f140	0.0019827634
39	0x3d122a54	0.0356849
40	0x3c88212e	0.016617384
41	0x3bad3946	0.0052863685
42	0xbcde985c	-0.02717226
43	0xbbb4c218	-0.005516302
44	0xbd1a3441	-0.03764749
45	0x3cd4e098	0.025986
46	0xbd0deb1f	-0.034648057
47	0xbd1c54c1	-0.038166765
48	0x3cdcede1	0.026968898
49	0xbb71ffeb	-0.003692622
50	0x3c9e5b18	0.019330546
51	0xbcba8fec	-0.022773705
52	0x3d85b5cc	0.065288156
53	0xbd8d3362	-0.06894566
54	0xbda6a37d	-0.08136652
55	0xbd501606	-0.050802253
56	0xbbac93d9	-0.0052666483
57	0xbcb66877	-0.02226661
58	0x3d628f24	0.05531229
59	0x3dc64545	0.09681181
60	0xbd85e448	-0.06537682
61	0x3c0dc866	0.008653736
62	0xbd79462b	-0.060857933
63	0x3b3620a6	0.0027790456
64	0xbb234adb	-0.0024916444
65	0x3c5c0e57	0.013431153
66	0xbd98915a	-0.074495986
67	0x3d729455	0.05922349
68	0xbd1c6400	-0.038181305
69	0xbd507ae9	-0.050898466
70	0xbbcd2be1	-0.0062613343
71	0xbd9d86ca	-0.076917246
72	0x3d086e85	0.033308525
73	0xbd23a1e4	-0.039949313
74	0xbc9309e8	-0.01794906
75	0x3d80ab50	0.06282675
76	0x3c89b68f	0.016810684
77	0x3c8c4c36	0.017126184
78	0x3bf39f10	0.007434733
79	0x3d23bd7b	0.039975625
80	0xbd7451f5	-0.059648473
81	0x3bb6b431	0.0055756797
82	0x3d0c00b6	0.034180366
83	0x3cee2d5f	0.029074369
84	0x3add22bd	0.0016871315
85	0xbbeac570	-0.0071646497
86	0x3b2c2b9f	0.0026271117
87	0x3d6a9b2c	0.05727689
88	0xbc7dd872	-0.015493499
89	0x3d5010d9	0.050797317
90	0xbd572b6b	-0.05253164
91	0x3d07545d	0.03303944
92	0xbc17ae8e	-0.009257926
93	0xbc34949a	-0.0110217575
94	0xbdc8682e	-0.09785496
95	0x3d3cd7a4	0.04610409
96	0x3c45ddbe	0.012076793
97	0xbcfaf004	-0.030632026
98	0xbc9291df	-0.017891822
99	0x3cfdd652	0.030985985
100	0xbee632ea	-0.4496072
101	0xbeac76c3	-0.33684358
102	0xbf0a865a	-0.54111254
103	0x3e36e39c	0.17860264
104	0xbed0b0fd	-0.4076003
105	0x3c9a31fa	0.018822659
106	0x3e3b14e3	0.18269686
107	0xbd22d1a3	-0.039750706
108	0xbdd78906	-0.10524182
109	0xbd644a4b	-0.055734914
110	0xbb40fb90	-0.0029446818
111	0xbdbf119c	-0.093295306
112	0xbd66cf56	-0.056350075
113	0x3da5b948	0.0809198
114	0x3e88ff77	0.26757404
115	0xbeca513b	-0.395151
116	0x3e7f9747	0.24960051
117	0x3c8608e6	0.016361665
118	0xbc296148	-0.010338135
119	0xbe710131	-0.2353561
120	0xbd18e447	-0.037327077
121	0xbe91d234	-0.28480685
122	0x3d81560d	0.06315241
123	0x3e313748	0.17306244
124	0x3e22bc04	0.15892035
125	0x3cc9e315	0.024644414
126	0xbe24a54c	-0.16078681
127	0x3e55001a	0.2080082
128	0x3e956d13	0.2918478
129	0xbcffa313	-0.03120569
130	0x3e7670f4	0.24066526
131	0xbe980b30	-0.29696035
132	0x3e843bbb	0.2582682
133	0x3ead7815	0.33880678
134	0xbf155ad9	-0.5834175
135	0x3eaf7316	0.3426749
136	0xbe5ce420	-0.21571398
137	0x3ef689a0	0.48151875
138	0x3e3fb5ad	0.18721648
139	0x3ef93a50	0.486773
140	0x3dfe74b8	0.12424606
141	0xbeb1f88b	-0.34759936
142	0x3ee7dee0	0.45287228
143	0x3e886a1a	0.2664345
144	0xbdb2b4b0	-0.0872587
145	0x3ee63211	0.44960073
146	0x3e0cbc4e	0.13743708
147	0xbe0300e1	-0.12793304
148	0xbe0c1ecb	-0.13683622
149	0xbe80d63c	-0.25163448
150	0x3d362e88	0.04447797
151	0x3eb607d0	0.35552835
152	0xbecf3c8f	-0.4047589
153	0xbe9d421e	-0.30714506
154	0xbdd28556	-0.10279338
155	0xbe610e49	-0.21978106
156	0xbe78288a	-0.24234214
157	0xbeb01320	-0.3438959
158	0x3e254922	0.16141179
159	0x3dce96bb	0.10087343
160	0xbdaa62e0	-0.0831964
161	0xbf14fc95	-0.5819791
162	0xbcbaca52	-0.022801552
163	0x3e413652	0.18868378
164	0xbdb9f0eb	-0.090791546
165	0xbd8cdef8	-0.068784654
166	0xbeefe45e	-0.46853918
167	0x3e1c3a88	0.15256703
168	0xbcc37c1b	-0.023862889
169	0x3e9832ec	0.2972635
170	0xbe20ba3a	-0.1569604
171	0xbe5291cf	-0.20563434
172	0x3e7a0277	0.24415003
173	0xbe80d39d	-0.25161448
174	0x3e336113	0.175175
175	0xbcad8554	-0.02118174
176	0xbdb98d25	-0.09060124
177	0xbe42fb8f	-0.19041274
178	0xbe6d1158	-0.23151147
179	0x3eaf2f05	0.3421556
180	0x3d21a14c	0.039460465
181	0x3de60c92	0.11232866
182	0xbaf604ba	-0.0018769719
183	0x3eda2be8	0.42611623
184	0x3ede9842	0.43475538
185	0xbe9dcdca	-0.30821067
186	0x3c1171ad	0.0088772
187	0x3e277a0e	0.16355154
188	0xbe8df2d6	-0.27724332
189	0xbdfe1486	-0.12406258
190	0x3e35c482	0.17750743
191	0xbaf34bac	-0.0018561981
192	0xbe8a6adf	-0.2703466
193	0xbd784789	-0.060615096
194	0xbde9725f	-0.11398768
195	0xbf3c670f	-0.73594755
196	0x3db1299d	0.08650515
197	0x3bf8915e	0.0075856885
198	0xbe8b6952	-0.2722879
199	0x3e65781d	0.22409101
200	0x3e0e59fe	0.13901517
201	0xbef16740	-0.47149086
202	0xbdae3620	-0.08506417
203	0x3ed39485	0.4132425
204	0xbea51e37	-0.32249615
205	0x3d63bf49	0.055602346
206	0xbeac1cb7	-0.33615658
207	0xbdbf7559	-0.09348554
208	0x3eafb32e	0.3431639
209	0x3e4cdd17	0.20006214
210	0x3e58d353	0.21174364
211	0x3f1333b3	0.5750076
212	0x3ee4113f	0.44544408
213	0x3f11465b	0.5674798
214	0x3de827bd	0.113357045
215	0xbcca4117	-0.02468924
216	0x3c76058a	0.015015969
217	0x3e55154c	0.20808905
218	0x3ea0ec14	0.31430113
219	0x3ddf4bd4	0.10903135
220	0xbe3e0d8b	-0.18559854
221	0xbdf50fc8	-0.11965901
222	0x3f153a57	0.58292145
223	0x3e5eaf86	0.21746644
224	0xbd6a66c9	-0.05722693
225	0x3e1cc6c0	0.15310192
226	0x3ea0d080	0.31409073
227	0x3e969dd5	0.2941729
228	0xbee3f43f	-0.44522282
229	0xbe8d8724	-0.27642167
230	0xbe040458	-0.12892282
231	0xbed8a176	-0.42310685
232	0xbc35ca08	-0.011095531
233	0x3e9a8278	0.30177665
234	0x3e48de65	0.19616087
235	0x3e2170e1	0.15765716
236	0xbe715dbc	-0.23570913
237	0x3ee1aa7c	0.44075382
238	0x3ea86fd1	0.3289781
239	0x3df80f54	0.121122986
240	0xbe1636fa	-0.1466941
241	0x3f09c16b	0.5381076
242	0x3eb4945a	0.35269433
243	0xbe17f381	-0.14838983
244	0xbe2910a2	-0.16510251
245	0xbdbd3f57	-0.09240597
246	0x3e126652	0.14296845
247	0x3e6db881	0.23214914
248	0xbf01a9ea	-0.50649893
249	0x3dd4d4b4	0.103921324
250	0x3dd39bfb	0.10332485
251	0x3da0e280	0.078557014
252	0xbea39fc2	-0.31957823
253	0x3da2f10c	0.07956132
254	0x3dae22c4	0.08502725
255	0x3ce7c04a	0.028289933

fc2.bias f4 [100]
0	0xbe0dc551	-0.13844801
1	0x3da22f1d	0.079191424
2	0xbcb31969	-0.021862702
3	0xbdccd4d8	-0.10001534
4	0x3c153189	0.009106048
5	0xbdd5407c	-0.1041269
6	0xbe093b6d	-0.13401575
7	0xbe7fcb75	-0.24979956
8	0xbe301da6	-0.1719881
9	0x3bac5d57	0.0052601504
10	0xbe15e4b6	-0.14638028
11	0xbd3f1631	-0.046652023
12	0xbd591664	-0.05299987
13	0xbdda10eb	-0.10647758
14	0xbe7e686e	-0.24844524
15	0x3adb6c59	0.0016740664
16	0x3d335c9a	0.043789484
17	0x3be1aa45	0.006886753
18	0xbe983268	-0.29725957
19	0x3a899e90	0.0010499526
20	0xbdbd5f3f	-0.092466824
21	0xbe864c47	-0.2623007
22	0xbe6f6df6	-0.2338179
23	0xbe67a443	-0.22621255
24	0xbdf6b532	-0.12046279
25	0xbe40883d	-0.18801971
26	0xbd66a3b3	-0.05630846
27	0xbea2d761	-0.31804946
28	0xbdf8a690	-0.12141144
29	0xbe47a7f5	-0.19497664
30	0xbe5c5698	-0.21517408
31	0xbe1f316f	-0.15546201
32	0xbe11d533	-0.14241485
33	0xbe498c18	-0.19682348
34	0xbe363fbc	-0.1779775
35	0xbd9a0656	-0.0752074
36	0xbde15400	-0.1100235
37	0xbd8743a2	-0.06604697
38	0xbde1f139	-0.11032338
39	0x3e32fc8b	0.1747915
40	0xbe00a8d2	-0.125644
41	0x3da7ff8d	0.08203039
42	0xbdce0881	-0.10060216
43	0xbe35711f	-0.17718934
44	0xbebb375b	-0.3656567
45	0xbe782501	-0.24232866
46	0x3d3eb406	0.046558402
47	0x3c593333	0.013256836
48	0xbd202149	-0.039094243
49	0x3e108142	0.14111808
50	0xbde7724f	-0.113010995
51	0xbe7a4486	-0.24440202
52	0x3dd64e57	0.10464161
53	0xbe1185d5	-0.14211209
54	0xbe5f4f2e	-0.21807548
55	0xbde3943e	-0.11112259
56	0xbdcd39c9	-0.10020787
57	0xbd5edf93	-0.054412436
58	0xbca4fa1f	-0.020138798
59	0xbe8f694b	-0.2801002
60	0xbd5fcba7	-0.054637577
61	0xbd920067	-0.07128983
62	0xba5d06ab	-0.00084314746
63	0xbe18d0c9	-0.14923395
64	0x3e53bb32	0.20676878
65	0xbd150444	-0.03638102
66	0x3bec3a5b	0.007209105
67	0xbe114d35	-0.14189608
68	0xbc9023c9	-0.017595189
69	0x3c1753e6	0.009236312
70	0xbe97498a	-0.29548293
71	0xbc96ddcf	-0.018416313
72	0xbe3c6ccb	-0.18400876
73	0xbe6700a8	-0.22558844
74	0xbe3f19ba	-0.18662158
75	0xbd9f9e75	-0.07793895
76	0xbd9c99b0	-0.07646501
77	0x3dd35b36	0.103201315
78	0xbcfaec6c	-0.030630313
79	0xbebeb066	-0.37243956
80	0x3d4f2f30	0.05058211
81	0x3dc00a42	0.093769565
82	0xbe6264fe	-0.22108838
83	0x3ccb5a27	0.024823261
84	0xbdcfb62c	-0.101421684
85	0xbe765ab4	-0.24058038
86	0xbda3336c	-0.07968792
87	0xbda97af7	-0.08275407
88	0xbe67743f	-0.22602938
89	0xbe8f2d15	-0.27964082
90	0xbe894e80	-0.26817703
91	0xbe6d30a0	-0.2316308
92	0x3dcb6f3e	0.09933327
93	0xbe15a43e	-0.14613435
94	0xbddc058a	-0.10743244
95	0xbe9cb8f4	-0.30609858
96	0xbd195d03	-0.03744222
97	0xbe1ff485	-0.1562062
98	0x3dce0957	0.10060375
99	0xbec0ad28	-0.37632108

fc3.weight f4 [2, 100]
0	0x3c6a8280	0.01431334
1	0x3f41ebb3	0.75750273
2	0x3f31cc9f	0.6945285
3	0xbf148a3a	-0.58023417
4	0xbeefe37e	-0.4685325
5	0xbf169a97	-0.58829635
6	0x3f0a99bc	0.5414083
7	0xbf076cc7	-0.52900356
8	0xbf16576b	-0.5872714
9	0x3f2415eb	0.64095944
10	0x3ed6cf83	0.41955194
11	0x3f053948	0.5204053
12	0x3f262646	0.6490215
13	0xbf0b5536	-0.54426897
14	0xbf1cba33	-0.6122162
15	0x3f2f8017	0.68554825
16	0x3f0e0b47	0.5548596
17	0x3f43ff5d	0.7656153
18	0xbf3c2f25	-0.73509437
19	0xbf0b1b5e	-0.54338634
20	0xbf0b7c4a	-0.54486525
21	0x3f38b56a	0.72151816
22	0xbf0d44eb	-0.55183285
23	0x3f2a53d1	0.66534144
24	0x3f16ac87	0.58857006
25	0xbf363515	-0.71174747
26	0x3f24a926	0.643206
27	0xbf254806	-0.64563024
28	0xbf05ae1d	-0.522188
29	0x3f4cd9e1	0.80019957
30	0xbf378ba5	-0.71697456
31	0x3f2f1714	0.6839459
32	0x3f1b4b81	0.60662085
33	0xbf39c361	-0.7256375
34	0xbf248e9d	-0.6428011
35	0xbf1d529d	-0.6145418
36	0xbf1bfe95	-0.60935336
37	0xbf1dbe6f	-0.61618704
38	0xbf14719a	-0.5798584
39	0x3de0421d	0.1095011
40	0xbed3e957	-0.41388962
41	0xbc2914b3	-0.0103198765
42	0xbf10c3e2	-0.56548893
43	0xbf10f079	-0.5661693
44	0xbf1f3895	-0.6219571
45	0xbea1e3c5	-0.31619087
46	0x3f224f3f	0.6340217
47	0xbf0e690b	-0.5562903
48	0x3f265191	0.6496821
49	0x3d843347	0.06455093
50	0x3ef022bd	0.46901503
51	0x3f29f333	0.6638672
52	0x3ecf8421	0.40530494
53	0x3d468b5d	0.04847275
54	0xbf14203c	-0.57861686
55	0x3f35cf92	0.7101985
56	0xbf2be8f9	-0.67152363
57	0xbf2af30b	-0.66777104
58	0x3f08a550	0.53377247
59	0x3f27c1ee	0.6553029
60	0x3f3fd826	0.7493919
61	0xbf27661c	-0.6539018
62	0x3f2c9984	0.67421746
63	0xbf16e0f3	-0.58936995
64	0x3e1118a2	0.14169553
65	0x3f32aff9	0.6979976
66	0xbf009533	-0.5022766
67	0xbf1cdd06	-0.61274755
68	0x3f26d306	0.65165746
69	0x3e77143c	0.24128813
70	0xbf0885c2	-0.533291
71	0xbf217ccb	-0.63081044
72	0xbf2eaef3	-0.682357
73	0x3f420689	0.7579122
74	0xbf039ca2	-0.5141088
75	0xbf4a4594	-0.7901242
76	0x3f1879f8	0.5956111
77	0x3deb349f	0.11484646
78	0x3f02c9e5	0.51089317
79	0xbf1dfce6	-0.6171402
80	0x3f0f710d	0.56031877
81	0x3e008604	0.12551123
82	0x3ec6a702	0.38799292
83	0x3f112407	0.566956
84	0x3f197efe	0.599594
85	0x3f500fba	0.81273997
86	0xbf19d1e4	-0.6008589
87	0x3eb2f697	0.34953758
88	0xbf0f2ba3	-0.5592596
89	0xbf2549c2	-0.6456567
90	0xbf0be851	-0.5465136
91	0xbf0135df	-0.50472826
92	0x3e1210f1	0.14264275
93	0x3f104447	0.5635418
94	0x3edcb113	0.43103847
95	0xbf043c48	-0.5165448
96	0xbf1029e0	-0.56313896
97	0x3f2e8ae7	0.681807
98	0x3d8a7f96	0.06762616
99	0xbf1fce6e	-0.6242436
100	0x3ca2ac45	0.019857535
101	0xbf3b3ad4	-0.7313664
102	0xbf135dcc	-0.57565
103	0x3f18cdba	0.59688914
104	0x3efd57c7	0.4948103
105	0x3f1105be	0.56649387
106	0xbf1e547a	-0.6184765
107	0x3f0f5d52	0.5600177
108	0x3f18f907	0.59754986
109	0xbf1f06eb	-0.6211993
110	0xbf1902ae	-0.59769714
111	0xbedc3148	-0.4300635
112	0xbf037021	-0.5134297
113	0x3f1366f5	0.57578975
114	0x3f01c5f4	0.5069268
115	0xbf4e40d6	-0.8056768
116	0xbf1e6699	-0.618753
117	0xbf3aac54	-0.729192
118	0x3f34dee3	0.706526
119	0x3f153775	0.58287746
120	0x3eeb3e9e	0.4594621
121	0xbf0b098e	-0.54311454
122	0x3f18bc46	0.5966228
123	0xbf033a73	-0.5126106
124	0xbf0b9d8a	-0.5453726
125	0x3f13f71c	0.57798934
126	0xbf0e79db	-0.55654687
127	0x3f23fc65	0.64057
128	0x3f0f21ad	0.5591076
129	0xbf2c3f75	-0.6728433
130	0x3f449356	0.76787317
131	0xbf3ffc24	-0.7499411
132	0xbf03f54f	-0.51546186
133	0x3f2fb711	0.6863871
134	0x3f0df199	0.55446774
135	0x3f2fae74	0.6862557
136	0x3f19f628	0.6014123
137	0x3f0b9caf	0.54535955
138	0x3f2f17b5	0.6839555
139	0xbb90198f	-0.004397578
140	0x3ec5c761	0.38628677
141	0xbd7f368b	-0.062307876
142	0x3f156b48	0.58366823
143	0x3ef625df	0.48075768
144	0x3f3a9610	0.7288523
145	0x3eddd457	0.43326065
146	0xbf30ce06	-0.69064367
147	0x3f0a1e83	0.5395281
148	0xbf305177	-0.68874305
149	0xbd44203f	-0.047882315
150	0xbf21e219	-0.6323562
151	0xbf50d67d	-0.81577283
152	0xbee9124f	-0.4552178
153	0x3d237fbf	0.03991675
154	0x3efef249	0.49794224
155	0xbf2681ca	-0.6504179
156	0x3f178e86	0.5920185
157	0x3f236800	0.63830566
158	0xbf1a0a96	-0.601724
159	0xbf1561cd	-0.5835236
160	0xbf22cbae	-0.6359204
161	0x3f2f8071	0.6855536
162	0xbf2140ce	-0.6298951
163	0x3f13abd6	0.57684076
164	0xbe458e7d	-0.19292636
165	0xbf3d2164	-0.73879075
166	0x3ee3eb46	0.44515437
167	0x3f15ac21	0.5846577
168	0xbf305828	-0.68884516
169	0xbe97034a	-0.29494697
170	0x3f2d7d1a	0.67769015
171	0x3f25521f	0.6457843
172	0x3f2cf7d2	0.67565644
173	0xbf31f512	-0.6951457
174	0x3f15dabc	0.5853689
175	0x3f48eb35	0.784839
176	0xbf1a564f	-0.60287946
177	0xbe21bd14	-0.15794784
178	0xbedc674d	-0.43047562
179	0x3f01e542	0.50740445
180	0xbeee3583	-0.465252
181	0xbda411f3	-0.08011236
182	0xbe95592b	-0.29169592
183	0xbf136f29	-0.5759149
184	0xbedc60b4	-0.4304253
185	0xbf3386d3	-0.701276
186	0x3f0fef16	0.5622419
187	0xbeb110fb	-0.34583268
188	0x3f21e807	0.6324467
189	0x3f37fc82	0.7186967
190	0x3ed84660	0.42241192
191	0x3f261af8	0.648849
192	0xbdf27c79	-0.118401475
193	0xbf190fc4	-0.5978968
194	0xbf0ac8f8	-0.54212904
195	0x3edceac5	0.43147865
196	0x3f047b48	0.5175061
197	0xbf0e774b	-0.55650777
198	0xbe17574a	-0.14779392
199	0x3f0e2332	0.55522454

fc3.bias f4 [2]
0	0x3af5ad45	0.0018743655
1	0x3ca97808	0.020687118
