scripts/ffnn/model.ckpt (torch_old, 41982 bytes, 4 tensors)

fc1.weight f4 [100, 100]
00000000: fdd7 11be db2f c93d 6da7 423b 0f8b c5bd
00000010: 30d6 f73c 4b37 85bc b8ff 34be b81c 813c
00000020: c07e 6bbd 6e2a 4bbd 7247 fb3c f263 ca3d
00000030: edb6 7c3c 48ec babc 96d2 ac3d 0af5 a23d
00000040: a6d0 abbd 496f 433c 42d4 5dbd 6604 cfbd
00000050: 7dda bbba ba5a 893d 1e8a 8fbd 54c0 573c
00000060: b43d 2dbe fdbf e83d e467 783d b009 553d
00000070: 513f f43c 78a9 923d 768c 67bc 8e5f 44bd
00000080: c7c2 e63d 8445 af3d f6ed ce3b d078 4cbd
00000090: 904d aabc e5f0 923d 6819 91bd d310 583d
000000a0: 1d82 f8bd a396 fc3c 7181 0a3d 917f b53d
000000b0: 00fe 873c 9223 9cbd 4951 dfbd f7d4 87bd
000000c0: 0034 3c3c c701 4abd 9910 15bc 9091 97bd
000000d0: 1131 02bd 68d6 8cbd f640 f7bc 6952 bc3d
000000e0: e8fd 193d 2ba3 8c3d 105d 623e f2df b43d
000000f0: 48e6 61bd e8c1 13be 9f54 04be 0434 b53c
00000100: 231e 5e3d 8b8d eebd 8340 b93d eeea 25bd
00000110: c821 c4bc b546 bebd c959 863c 004a 6c3d
00000120: 5c2e d7ba 5a59 233d 9181 443c 4c2f 253e
00000130: 9eed 33bd c394 c63d 8cf3 07bd d744 b5bd
00000140: 7ec2 97bd ebf2 70ba 614a e93c 5d6e 03bd
00000150: 5fd0 e2bd 5259 cd3c f9fa f13c adab 06bd
00000160: 80b8 943c ad93 f13b b364 903d 8305 20bd
00000170: 87ac 8e3c 5798 12bd 5fac 6b3d b9b2 e83d
00000180: 3adf 3fbd 3915 463d ea3d 823d 4f5f 693b
00000190: fff1 9c3c 66dd 87bc dead 3fbe 536f e73d
000001a0: f096 1fbd 8f73 413d 8d08 50bd 5755 81bc
000001b0: 2e3f 33be d288 b83d c06b 24be a09e 0d3d
000001c0: 4e67 aa3d 08a7 3abd ba9d 82bd d228 3a3c
000001d0: bfb7 903d 7f8e 5cbc 8597 d4bc d018 363d
000001e0: bfeb d4bd 480b 6bbd 3d77 043e f7a9 1f3d
000001f0: 8dfe 3fbd 57a5 bb3d f426 e2bc 372c 443d
00000200: 11f2 733e dda8 023e 7ec8 49ba acf5 82bd
00000210: b8e8 c6bc 8cb9 2fbd e39f 4ebd 81f4 883d
00000220: ce3d b0bc a600 973d 101c b3bc 0bdb 76be
00000230: f3c6 4bbd d419 1fbd 220c 89bd f058 36be
00000240: 8d58 acbb 964c 9dbe c549 23bd d6a9 203e
00000250: eb72 b03d 0565 85bc 54a7 1a3e adb2 5b3d
00000260: b229 f93d bc18 6ebd 6c98 b43d 1893 7d3c
00000270: ed61 7fba c6c6 09be 5b8b 373e e3e3 363d
00000280: d24a 1fbe c781 1b3e 87ec ec3d 0a13 29bd
00000290: 8b16 e9bd 430a 19be 80f6 ac3d e8f2 f63d
000002a0: 6550 073d 2eb0 b93d 98df b1bd a1b3 813d
000002b0: 9736 103e c4c6 54be 956d 4f3d 3672 8ebd
000002c0: 0628 e3bd 75a7 503e 0450 db3c 7fa1 a13d
000002d0: e079 40be 49b9 a4bd cfbe 643d 2607 753e
000002e0: da44 1a3e 47fb a43c 606e 4c3e 1e6c d1bd
000002f0: 9800 803d 1d36 293c 4f5f a23d 7997 50bd
00000300: 6ef0 4a3e 40b1 47bc 15bd 0c3e de33 493d
00000310: 2bbb fc3c 9da0 91bd e13a e03d 82de da3c
00000320: 3d28 a6bd 38be 72bd b543 373d e17d 4d3d
00000330: a950 b9bd 906a 5abc 79cc 173e 799f 003d
00000340: ed45 07be c218 c43d 714c b4bd cb61 fa3d
00000350: cbf9 d83b 0b65 e63c f683 f9bc 2b73 d43a
00000360: bb1c 28bd 3c61 7a3d 401e 04bb bb4c bb3d
00000370: f960 d6bc d3be 2a3d f4c6 22bd 8fc5 e53d
00000380: 6857 1cbd abcc 1bbc 6d23 a23c 9f16 89bc
00000390: def6 89bc 2b68 76bd 0865 773d 4868 003d
000003a0: 427d 743d 4857 8cbc eb6b fabd ec19 c0bd
000003b0: 9ed6 a43d 7e40 7cbc d432 3f3d 85cf 6c3d
000003c0: 776e 1dbe ef15 f43d f877 73bc 0446 04bd
000003d0: 65c3 8c3d b725 113e 0ac1 093e 0661 ecbc
000003e0: 35f2 0fbd 774c 103e c5b6 c3bd e3a4 ddbc
000003f0: 8df3 c2bd 6645 ed3d 8e5a 23bc 77af 853e
-0.14242549 0.09823581 0.0029701844 -0.09645664 0.0302535 -0.016261717 -0.17675674 0.015760764
-0.057493925 -0.04960101 0.030673716 0.09882344 0.015424472 -0.022817746 0.084386036 0.07956894
-0.08389406 0.011928388 -0.054157503 -0.10108261 -0.0014332082 0.06706758 -0.07008766 0.013168413
-0.16918069 0.11364744 0.060645953 0.05201119 0.029815348 0.0716123 -0.01413261 -0.04794269
0.112676196 0.08558181 0.0063149882 -0.049919903 -0.020788938 0.07174853 -0.07084924 0.05275042
-0.12134192 0.030833548 0.03381485 0.08862222 0.016600609 -0.07623972 -0.10904176 -0.06632417
0.011487007 -0.0493181 -0.0090981955 -0.07400811 -0.031785075 -0.06876832 -0.030182343 0.09195406
0.03759566 0.06867059 0.22105813 0.08831777 -0.055151254 -0.14429438 -0.12922905 0.02211953
0.05422796 -0.11648091 0.09045508 -0.04050725 -0.02394189 -0.0929083 0.016400235 0.05768776
-0.0016417014 0.039880134 0.011993782 0.16131324 -0.04392778 0.09696343 -0.03319125 -0.08851021
-0.07410143 -0.0009191471 0.02847785 -0.032087673 -0.110749 0.025067005 0.029538618 -0.032878567
0.018154383 0.0073723407 0.07050457 -0.039067756 0.017416252 -0.035789814 0.057537433 0.11362214
-0.046843745 0.048360083 0.063594654 0.0035609787 0.019158361 -0.016585063 -0.18718669 0.1130053
-0.038962305 0.047229346 -0.050789405 -0.015787764 -0.1750457 0.090104714 -0.16056728 0.034575105
0.08320485 -0.04556945 -0.0637774 0.011362271 0.07066297 -0.013461708 -0.025951156 0.044457257
-0.103965275 -0.057383806 0.12936111 0.03898045 -0.046873618 0.091623954 -0.027606465 0.04789373
0.2382281 0.12759729 -0.0007697417 -0.063945144 -0.02428089 -0.04290156 -0.05044545 0.066872604
-0.021513846 0.073731706 -0.021863967 -0.24106996 -0.04975028 -0.03884299 -0.06691767 -0.17807364
-0.0052595795 -0.30722493 -0.039865274 0.15689787 0.08615669 -0.016283521 0.15102893 0.053637195
0.12166156 -0.058129057 0.08818135 0.015476964 -0.000974207 -0.13454732 0.17924254 0.044650923
-0.15555885 0.15186225 0.115685515 -0.041277923 -0.11381253 -0.14945321 0.08445454 0.120580494
0.033035655 0.09066807 -0.08685225 0.063330896 0.14083324 -0.20778948 0.050641615 -0.06955378
-0.11091618 0.2037638 0.026771553 0.07892131 -0.18796492 -0.08043153 0.05584603 0.23928508
0.15065327 0.02013935 0.1996398 -0.102257 0.06250113 0.010327843 0.07928335 -0.050925706
0.19818279 -0.012188256 0.13744004 0.04912173 0.030850967 -0.07110713 0.1094873 0.026717428
-0.081131436 -0.059263438 0.044742305 0.050168876 -0.09048588 -0.013331071 0.14824094 0.031402085
-0.13210268 0.09575035 -0.088036425 0.12225684 0.0066215745 0.028124353 -0.030458432 0.0016208639
-0.041043025 0.061127886 -0.0020159632 0.091454946 -0.026169287 0.04168589 -0.039740518 0.11219322
-0.038169295 -0.009509246 0.019792283 -0.01673442 -0.016841348 -0.060157936 0.060399085 0.03134945
0.059689768 -0.017131463 -0.12227615 -0.09379944 0.080487475 -0.0153962355 0.046679333 0.057815094
-0.1537417 0.11918246 -0.014860146 -0.032293335 0.06873206 0.14174543 0.13452545 -0.028854858
-0.035143096 0.14091669 -0.09556345 -0.027056163 -0.0951911 0.11585502 -0.00997032 0.26110432

fc1.bias f4 [100]
00000000: 501c 623d 0c07 05bc 245b c8bd 0420 46ba
00000010: 6bc5 3bbd 2d74 143d fd87 093b ff8d 8f3d
00000020: 8e7c 99bd 60e5 8f3d 11e5 043d 4e49 413d
00000030: 756e 79bd 8f3f d6bc 04c5 d3bd e2e6 33bc
00000040: 5e8f 4b3c c074 b0bd a6ac a73d 8fc1 53bd
00000050: a17f 983c 00b9 0d3d c251 28bd fcdf d73c
00000060: 25a0 5abd accd 77bd 1180 8a3d 7544 763d
00000070: 21b8 dd3d 1771 3abd e9d7 263d 2859 203d
00000080: 6e23 b7bd f36c 20bd d646 e2bd bebd 89bd
00000090: 57a3 93bd 22e0 113d 2da4 9ebb e510 a4bd
000000a0: f7db b7bc 98c6 133d d190 ea3c 1d77 d53c
000000b0: ae08 833d 3cc5 6e3d afce e0bc 79d8 0dbd
000000c0: 7846 993c 8fd6 c7bd d795 95bd 1ad6 33bd
000000d0: 3bb4 aebc 03ee 74bd 1db8 3b3d e8ee 863d
000000e0: 716c 8bbc 8207 133d 07bd dfbd 99f7 81bd
000000f0: 257c 29bd 0ff3 403d 5215 77bd c714 133d
00000100: 7c9c 35bd c418 d5bc 0de5 cfbc a00c 7c3d
00000110: 68e9 ae3c b2eb da3a abdd 723d 1736 1cbd
00000120: 933c 0bbc 5d0c 9d3d 30fb 833d 7089 a2bc
00000130: 1dc7 7a3d d242 b2bd 4184 a93d 6d64 2ebc
00000140: a068 32bc 4402 bbbd 3b4e 78bc 7268 0dbc
00000150: 4326 33bd 7bc5 c7bd d33b 3d3d ff7b 8f3d
00000160: b915 55bd 0b31 963d 3a32 1b3d 0524 00be
00000170: 5e1c 38bc 403f 77bd 74b1 d93d ccfd bdbd
00000180: ff74 bbbd c0f1 63bc 0017 59bd ed09 2d3d
0.055202782 -0.008119356 -0.09783009 -0.0007557871 -0.04584257 0.036243606 0.0020985596 0.070095055
-0.0749446 0.07026172 0.032445017 0.04718905 -0.060896356 -0.026153354 -0.10340312 -0.01098034
0.012424318 -0.08616018 0.08187227 -0.051698264 0.018615546 0.034600258 -0.041093595 0.026351921
-0.053375382 -0.06049888 0.06762708 0.06012388 0.108261354 -0.045518007 0.04073325 0.039147526
-0.089423046 -0.039166402 -0.11048667 -0.067256436 -0.07208889 0.03561414 -0.0048413486 -0.08011035
-0.022443755 0.036078066 0.028633507 0.026057774 0.0639814 0.058293566 -0.027442304 -0.034630273
0.01871036 -0.09757721 -0.0730397 -0.043905355 -0.021326175 -0.0597973 0.04582988 0.065885365
-0.017019482 0.035895832 -0.10924726 -0.06346054 -0.04137816 0.0471068 -0.060323067 0.035908487
-0.04433869 -0.026012786 -0.025377775 0.061535478 0.021351531 0.0016702323 0.05929343 -0.03813752
-0.008498329 0.07668374 0.064443946 -0.019840926 0.061225045 -0.08704151 0.082771786 -0.010644061
-0.010889202 -0.091312915 -0.01515537 -0.008630859 -0.04373766 -0.09754463 0.04619963 0.07006072
-0.05202267 0.07333573 0.037889697 -0.1251374 -0.011237232 -0.060363054 0.106295496 -0.092769235
-0.091531746 -0.013912618 -0.05300045 0.042245794

fc2.weight f4 [2, 100]
00000000: 1a40 14bd 08ea 77bd 14de 18bc 56d4 313e
00000010: 14c7 24be 6900 323b dd0e e83d ac37 4c3e
00000020: 9eaf 6ebd 7194 e3bd f1ac 2c3e 61c1 283e
00000030: b557 8abd 144e 023d a8f2 b2bc f87c 883e
00000040: 4cd7 c2bd 49b4 0c3e 7aa0 603d 56d8 4bbd
00000050: 583d 14be 6b3e 60be 4aa8 1b3e 73a7 423e
00000060: dfce 613c f6fe 0d3e a6d4 d43c 3f45 583e
00000070: 0290 353e 9489 40be 6b38 493e d104 5fbc
00000080: 8426 9dbe 92ba ab3e f904 ce3d 51e0 293e
00000090: 34fe 72be 76d9 2fbe 3a0e 6fbe aacd 573e
000000a0: e23d 74bc 1d90 4d3e 884d 973d 8b98 693b
000000b0: fe5d 313e 12d7 7fbe 8f0c a2bc c96a 11bd
000000c0: 9620 4f3e 54e2 b83d 66b9 22bc 54fe 803d
000000d0: d2c8 c7ba 3ac3 84bd bfd1 59bd d004 3b3e
000000e0: bc1f 003e 1a63 ba3d 6c35 b53d 1d32 d43c
000000f0: a4bb 42be dc85 38be ccad 993d 339c 433e
00000100: 8671 99bb bb2b 373e 916b e13d 11d2 653e
00000110: 7851 893d 640c 3d3e ec5b 193e c25b 91be
00000120: faa7 903d 2fc5 283e af68 d13c 2cd6 dc3d
00000130: 613f 383e 275e 6cbd b9d0 9dbd c8d0 57bc
00000140: 7d30 75be e345 583d e471 c53d a83d fc3d
00000150: 8ff7 b33d 8474 be3b 696b 60be 61d3 023d
00000160: 609a 5c3d 591a 273d f0a0 5c3d 678f 90bb
00000170: 16c1 e23c fe80 b1bd 4333 943d 48ae ed3b
00000180: a824 6abe 87b0 33bd b279 eb3d f821 07bd
00000190: 29b9 89bd d842 ec3d 8b4f 253d a789 6ebe
000001a0: fa34 333e c6d2 083d c734 0abe 0c8a c3bc
000001b0: 131e 98bc ab49 193e 4582 18be 5d5f 71bd
000001c0: c286 a83d 5bd4 febd e240 453d 4a0d 8cbe
000001d0: d826 2f3e 7293 263d 42d6 63bd afad 4cbc
000001e0: e17a 813d a154 363e 6b3e 17be ce4e 93bd
000001f0: 9d80 3d3d e91a 37be f365 503b 1f50 69be
00000200: 19e0 14bd c986 1a3d 3cae 52be 95e8 9a3d
00000210: 64c3 083e c9a6 a9be 86cb f33b 5703 90bd
00000220: be6a 213e aa1d 593e d1ae 8e3e 008a 12be
00000230: d2c9 0dbe 9214 21be aa99 413d deef ef3b
00000240: 6f87 12be fff9 f53d 1d2e 86bd 408f b7bd
00000250: 59ab d5bd aa41 8cbe 2d9a 8d3c 3bfc 72bd
00000260: 0f19 3b3c e283 2e3e f5c9 1d3d b6b5 31bd
00000270: f15b f3bd 4d24 28be eb6e 1a3d 260e 0b3d
00000280: d520 393e abde 5d3e 0b59 0abe 701b c8bd
00000290: 83e2 babd 313e 58be 7b0e c2bd dd27 6ebd
000002a0: ca49 00be 1f7c 8cbd 4015 15be 50ab 9c3e
000002b0: 4200 38bd c851 3abe 3c7f 26bd 0cdc ce3c
000002c0: 3b39 48be 1968 9bbd 1a49 a7bd 02e6 73bc
000002d0: 3196 f43d 4e5e 223d cbf1 25be 48a5 d9bd
000002e0: 3d36 d2bd 114d 693b aa9e ca3d 8739 07bd
000002f0: ef7d 81bd 23a0 6abd 829f 8fbc 6648 9a3c
00000300: d0e3 0bbe 0218 ba3c f0ef 43bd bff0 babd
00000310: 6779 883e c7c1 7fbd daea 01be f8c9 20bd
-0.036193945 -0.060525924 -0.009330291 0.17366156 -0.16091567 0.002716089 0.1133096 0.19943112
-0.05827295 -0.11112297 0.16862847 0.16480018 -0.0675501 0.031812742 -0.021844223 0.26657844
-0.09513721 0.13740648 0.054840542 -0.04976686 -0.14476526 -0.2189881 0.15200916 0.1900919
0.013782232 0.13866791 0.025980305 0.21120165 0.17730716 -0.18802482 0.19650428 -0.013611988
-0.30693448 0.3354078 0.10059542 0.16589476 -0.23729783 -0.17172799 -0.23345271 0.21074548
-0.014907332 0.20074506 0.07387835 0.0035643901 0.17321011 -0.24984387 -0.019781379 -0.03550223
0.20227274 0.09027544 -0.009931898 0.06298509 -0.0015242344 -0.06482549 -0.053178545 0.18263555
0.12512106 0.091009334 0.0884808 0.025902802 -0.19016892 -0.18019813 0.07503852 0.19102554
-0.0046827225 0.17887776 0.11006845 0.22443415 0.06704992 0.18461758 0.14976472 -0.28390318
0.07063289 0.1648147 0.025562612 0.107830375 0.17992927 -0.05770698 -0.07705826 -0.013172336
-0.23944278 0.052801024 0.096408635 0.123164475 0.087874524 0.0058122296 -0.21915974 0.031939868
0.05385816 0.04079661 0.05386442 -0.004411626 0.027679961 -0.086671814 0.0723634 0.007253442
-0.22865546 -0.04386952 0.11497821 -0.03299138 -0.067247696 0.11536187 0.04035906 -0.23294698
0.17500678 0.033404134 -0.13496695 -0.023869537 -0.018569028 0.14969508 -0.14893444 -0.058928836
0.08228828 -0.12442847 0.04815758 -0.2735389 0.17104661 0.04066796 -0.055624254 -0.012492581
0.063222654 0.17805721 -0.14769904 -0.07192765 0.046265233 -0.17881359 0.0031799048 -0.2278447
-0.03634653 0.037726197 -0.20574278 0.07563893 0.13355786 -0.3313506 0.0074400334 -0.07031887
0.15763375 0.21202722 0.2786775 -0.14310455 -0.1384652 -0.15730503 0.047265686 0.0073222956
-0.14309476 0.120105736 -0.06551764 -0.0896287 -0.104330726 -0.27393848 0.01728543 -0.059322577
0.011419549 0.17042497 0.03852268 -0.043386184 -0.11882771 -0.16420098 0.037703436 0.03394904
0.1807893 0.21666972 -0.1351053 -0.09770858 -0.09125235 -0.21117474 -0.09475418 -0.058143485
-0.12528148 -0.06859612 -0.14558887 0.3059945 -0.04492212 -0.1819526 -0.040648684 0.02525141
-0.19553082 -0.075882144 -0.0816824 -0.014886381 0.11942709 0.039640717 -0.16205518 -0.10627228
-0.102642514 0.0035598914 0.09893544 -0.033013847 -0.06322848 -0.057281625 -0.017532114 0.01883335
-0.13661122 0.022716526 -0.047836244 -0.0912795 0.26655123 -0.06244066 -0.12687245 -0.039255112

fc2.bias f4 [2]
00000000: 92fc e03d cd5b 8ebc
0.10985674 -0.017377758
