scripts/ffnn/model.ckpt (torch_old, 82625 bytes, 6 tensors)

fc1.weight f4 [100, 100]
0	0x3ddb05aa	0.1069444
1	0x3f21a277	0.63138527
2	0xbe3e7a78	-0.18601406
3	0xbfa89a49	-1.3172084
4	0x3f07c60e	0.5303658
5	0xbdf8c7db	-0.121474944
6	0xbf9a4d43	-1.2054828
7	0xbf305cdc	-0.6889169
8	0x3e248db7	0.16069685
9	0xc0365f38	-2.8495617
10	0xbe6f7281	-0.23383524
11	0x3f4eb795	0.80748874
12	0x3efebea9	0.49754837
13	0x3f4b46a2	0.7940465
14	0xbf97969c	-1.1842837
15	0xbf297315	-0.66191226
16	0x3f056c87	0.52118725
17	0xc0026434	-2.037366
18	0xbeba2af3	-0.36360893
19	0x3de49970	0.111620784
20	0x3ed75874	0.42059672
21	0x3f2dc0aa	0.6787211
22	0x3ebfdba2	0.37472254
23	0xbf034a7a	-0.5128552
24	0xbec8d43a	-0.39224416
25	0xbf71094d	-0.94154817
26	0xbf1a034b	-0.60161275
27	0x3efc0e9f	0.49229905
28	0xbfe1711a	-1.7612641
29	0x3f434834	0.7628205
30	0x3efc0cb9	0.49228457
31	0xbef9df0e	-0.4880299
32	0xbdc6c70a	-0.097059324
33	0x3dd15e2a	0.102230385
34	0xbf5cc419	-0.8623672
35	0xbf67a5ee	-0.90487564
36	0x3e081623	0.13289694
37	0xbfceed2e	-1.6166131
38	0x3bfeab39	0.007771876
39	0x3f474b0c	0.7784889
40	0x3fb692fb	1.4263605
41	0x40324259	2.7852995
42	0xbe96d6f9	-0.29460886
43	0x3f0a433c	0.5400884
44	0xbf913abf	-1.1346053
45	0xc00b7f6b	-2.179652
46	0xbf28aaab	-0.6588542
47	0x3edaaab2	0.42708355
48	0xbfd54d6c	-1.6664252
49	0x3fd2b5e4	1.6461759
50	0xbfd46e53	-1.6596168
51	0xbe0fbdd3	-0.14037256
52	0xbfbcfdf5	-1.4765002
53	0xbe568b82	-0.20951656
54	0xbd75aacc	-0.059977338
55	0xbe9f05b9	-0.31059054
56	0x3d2539b6	0.04033824
57	0x3f44e188	0.76906633
58	0x3f236556	0.638265
59	0xbfe40067	-1.7812623
60	0xbdae5e73	-0.085141085
61	0xbfab258b	-1.3370832
62	0x3f193563	0.59847087
63	0xbfaf05c5	-1.3673636
64	0x3f228927	0.6349053
65	0x3de8209f	0.11334347
66	0x3f411563	0.7542326
67	0xbdc4acd9	-0.096032806
68	0x3f8af74e	1.0856721
69	0xbefc3d96	-0.49265736
70	0xbf83771b	-1.0270723
71	0x3f965ab1	1.1746427
72	0x3ea63c2c	0.32467782
73	0xbee57690	-0.44817019
74	0xbed42f3d	-0.4144229
75	0xbe4ff9a9	-0.20310082
76	0xc017387d	-2.3628228
77	0xbf3d1a36	-0.7386812
78	0xbe153625	-0.14571436
79	0x3fcf07f8	1.6174307
80	0x3eb03138	0.3441255
81	0xbf9a6a34	-1.2063661
82	0xbe093d66	-0.13402328
83	0x3e8561b6	0.2605111
84	0xbf9c6fe0	-1.2221642
85	0x3ed7584c	0.42059553
86	0x3e0bccd5	0.13652356
87	0x3e71f381	0.23628046
88	0xbfab9ba9	-1.3406879
89	0x3d5cd042	0.053909548
90	0x3f67d654	0.90561414
91	0xbd16cc33	-0.036815833
92	0x3e9badab	0.30405936
93	0x3fd43d95	1.6581293
94	0x3e01a291	0.1265967
95	0xbe3a7f65	-0.1821266
96	0xbfc17e54	-1.5116677
97	0x401f5b1b	2.4899356
98	0xbfebd300	-1.8423767
99	0x3eed68c9	0.46369007
100	0xbe1cf521	-0.15327884
101	0xbf1397fa	-0.5765377
102	0xbe02f004	-0.12786871
103	0x3e062e6e	0.13103649
104	0x3fb278a6	1.3943069
105	0xbfc03140	-1.501503
106	0xbeedea1b	-0.4646767
107	0xbf5ca04e	-0.86182106
108	0xbe8f526d	-0.27992573
109	0xbf0e3d07	-0.5556187
110	0xbd7f39c4	-0.06231095
111	0x3fafba66	1.3728759
112	0xbf24f5fb	-0.64437836
113	0xbfba8827	-1.45728
114	0x3e594d70	0.21220946
115	0xbfa2984e	-1.270273
116	0xbf91f893	-1.1403984
117	0x3f2757f7	0.653686
118	0xbf067735	-0.52525645
119	0xbed008f2	-0.40631825
120	0x3f2e6b2f	0.681323
121	0xbf42ac59	-0.7604423
122	0xbe1cfc6b	-0.15330665
123	0x3f1dc79a	0.6163269
124	0x3f110a72	0.56656563
125	0x3f3f7303	0.7478487
126	0xbd0178de	-0.03160941
127	0x3f6297e2	0.88513005
128	0x3e0437ca	0.12911907
129	0x3e6583d5	0.22413571
130	0x3f5fa1a3	0.87356013
131	0x3f9a827f	1.2071074
132	0xbdc16c24	-0.09444454
133	0x3f0b7c16	0.54486215
134	0xbdb32eb9	-0.08749146
135	0xbf98bb37	-1.1932133
136	0x3f036419	0.5132461
137	0xbe818efc	-0.253044
138	0xbfe68c9e	-1.8011663
139	0xbfa553c0	-1.2916183
140	0x3fb168a3	1.3860058
141	0x3ec7e04f	0.3903832
142	0xbf9dc7ac	-1.232656
143	0xbf58ac24	-0.84637666
144	0x3f65afee	0.8972157
145	0x3eeeb22a	0.46620303
146	0xbd17d362	-0.037066825
147	0x3f5e2f14	0.86790586
148	0xbdaa3817	-0.083114795
149	0xc0087af6	-2.132505
150	0x3f8d9e5e	1.1063955
151	0xbf8a46a3	-1.0802807
152	0xc00725f2	-2.111691
153	0xbe81ffbb	-0.2539042
154	0xbf666b9f	-0.90007967
155	0x3ed69dd8	0.419173
156	0x3f5db735	0.86607677
157	0x3e18d9d8	0.14926851
158	0x3fa514a9	1.289693
159	0xbf00fb8f	-0.5038385
160	0xbedaa50f	-0.42704055
161	0x400b6168	2.1778202
162	0xbe136a90	-0.14396119
163	0x3fd6088d	1.672136
164	0xbeb55dfc	-0.35423267
165	0xbf898aa4	-1.0745435
166	0x3e08cc8c	0.13359278
167	0x3d2e3595	0.04253157
168	0x3f06be2a	0.5263392
169	0x3ebf0d46	0.37314814
170	0x3e0c26a6	0.13686618
171	0xbd868ad9	-0.06569452
172	0x3d5f9d6a	0.05459348
173	0xbdc61ae8	-0.09673101
174	0xbe82b0f4	-0.2552563
175	0x3e7c2828	0.24624693
176	0xbfa4d632	-1.2877867
177	0x3d9d36ef	0.076764934
178	0x3f16fde7	0.58981174
179	0xbfbabf57	-1.4589642
180	0x3fc0da22	1.5066569
181	0x3f8618be	1.0476301
182	0x3e215767	0.15755998
183	0x3d60bc67	0.054867174
184	0xbf229491	-0.63507944
185	0x3eaaf834	0.3339249
186	0x3ea40a93	0.32039317
187	0xbd97591c	-0.07390043
188	0x3fd9eb48	1.7024927
189	0xbf204af1	-0.6261435
190	0xbe9e5cbe	-0.30930132
191	0x3de3cf24	0.11123493
192	0xbf47c021	-0.7802754
193	0x3f9640a9	1.1738483
194	0xbfa080a7	-1.2539262
195	0xbe937a71	-0.28804353
196	0xbea27e5a	-0.31737024
197	0x3f59df18	0.8510604
198	0xbf4b68f9	-0.7945705
199	0x3f2e54e2	0.6809827
200	0xbec11aaf	-0.3771567
201	0xbd96c1af	-0.07361161
202	0x3ec046ce	0.3755402
203	0xbf12ed47	-0.57393306
204	0xbf14a0a1	-0.580576
205	0x3ecd2033	0.4006363
206	0xbe01953f	-0.12654589
207	0xbf2a1636	-0.6644014
208	0xbf521218	-0.8205886
209	0x3fb0c4e4	1.3810086
210	0xbf17b989	-0.5926748
211	0x3f45ce83	0.77268237
212	0x3ee28894	0.44244826
213	0x3dd80c5e	0.10549234
214	0xbe42e3a5	-0.19032152
215	0x3ed33d6c	0.412578
216	0x3ed4b793	0.41546306
217	0xbeacf0b4	-0.33777392
218	0x3f8f0532	1.117346
219	0x3e115988	0.1419431
220	0xbf9b70e8	-1.2143831
221	0xbf587797	-0.8455748
222	0xbf941fd7	-1.1572217
223	0xbf8e99ff	-1.1140746
224	0xbe7866fe	-0.24258038
225	0x3e88968b	0.26677355
226	0x3f3ce6ba	0.7378956
227	0x3f18ed12	0.5973674
228	0x3e9310da	0.28723794
229	0x3fb1c800	1.388916
230	0x3f38a50e	0.72126853
231	0x3e88da1d	0.26728907
232	0xbc803c3c	-0.015653722
233	0x3fbaa0f2	1.4580367
234	0x3f2e55ba	0.6809956
235	0xbf90b3f9	-1.1304923
236	0xbed74769	-0.4204667
237	0x3e84d8ad	0.2594656
238	0xbf138529	-0.5762506
239	0x3ec0cd3c	0.3765658
240	0x3f730758	0.9493308
241	0xbf88bfb3	-1.0683502
242	0xbfdc5501	-1.7213441
243	0x3fa3899f	1.2776374
244	0xbf3a0c32	-0.7267486
245	0xbf3c8eb8	-0.7365527
246	0x3f4f6217	0.8100905
247	0xbf8ee91d	-1.116489
248	0x3fddaca2	1.7318308
249	0xbfc84cae	-1.5648401
250	0xbee4d422	-0.44693094
251	0x3ea80887	0.32819006
252	0x3fe75ea7	1.8075761
253	0x3fb697d3	1.4265083
254	0xbf6b1648	-0.91830873
255	0x3f3ab59e	0.72933376

fc1.bias f4 [100]
0	0xbdb6246f	-0.08893668
1	0xbec92917	-0.39289162
2	0xbe6e236e	-0.23255703
3	0xbd796e33	-0.06089611
4	0xbe0e1e6a	-0.1387879
5	0xbe191341	-0.14948751
6	0x3d2bf9a1	0.04198611
7	0x3e0cafca	0.13738933
8	0xbdc07dbc	-0.09398982
9	0x3e53ca0d	0.20682545
10	0xbe394931	-0.18094327
11	0x3e335dd6	0.17516264
12	0x3d5d4919	0.05402479
13	0x3de22d23	0.110437654
14	0xbd003362	-0.031299002
15	0xbcadaa2b	-0.021199306
16	0xbe4a42de	-0.1975207
17	0xbd6e4523	-0.058171403
18	0xbe0430af	-0.12909196
19	0x3e07833c	0.13233656
20	0x3e1e5d7c	0.15465349
21	0xbccd0bb7	-0.02503
22	0xbbb7aaaf	-0.005605064
23	0xbde9dacc	-0.11418685
24	0xbd268ef9	-0.040663693
25	0x3dc6a324	0.09699085
26	0x3e080791	0.13284136
27	0xbe02e02a	-0.12780824
28	0x3de764a5	0.11298493
29	0x3d3a0824	0.04541792
30	0xbc3418a9	-0.010992208
31	0xbdc84bff	-0.0978012
32	0x3e9e56ba	0.30925542
33	0xbd6fbaa4	-0.058527604
34	0xbe770306	-0.24122247
35	0xbd73af91	-0.059493605
36	0xbdfa0efe	-0.12209891
37	0x3c54e14a	0.012993166
38	0xbd4ecdf7	-0.050489392
39	0x3db72c77	0.08944028
40	0xbd9d13de	-0.07669805
41	0x3de07486	0.10959725
42	0xbe178de6	-0.14800224
43	0x3e17282b	0.14761417
44	0x3cafcd82	0.021460298
45	0xbd2c8dd0	-0.04212743
46	0x3e3cac4c	0.18425101
47	0xbda6519c	-0.081210345
48	0xbe0cbfbd	-0.13745017
49	0xbd5fd61e	-0.054647557
50	0x3ccfed16	0.025381606
51	0x3df3e0d9	0.11908121
52	0xbdf9a94a	-0.121904925
53	0x3c6a4cb1	0.014300511
54	0xbe49ff35	-0.1972626
55	0x3eaba582	0.3352471
56	0xbd60eaa9	-0.05491129
57	0xbe880d25	-0.26572528
58	0x3e160c40	0.1465311
59	0x3ccae557	0.02476756
60	0x3dbbd585	0.09171585
61	0xbde37279	-0.11105818
62	0xbe5adbde	-0.21372935
63	0x3d3a9c5f	0.045559283
64	0x3e12afcc	0.14324874
65	0x3d48af0a	0.048995055
66	0xbd87e363	-0.066351674
67	0xbe45ace4	-0.19304234
68	0xbd38354c	-0.044972703
69	0xbe547ecd	-0.20751496
70	0x3dcb7d42	0.099360004
71	0x3d55da7c	0.052210316
72	0xbd7952b7	-0.0608699
73	0xbd7cea0c	-0.061746642
74	0xbe283c49	-0.16429247
75	0xbe2a9ce4	-0.16661412
76	0xbe167675	-0.14693625
77	0xbe28a9fe	-0.16471097
78	0x3ebb2c28	0.36557126
79	0xbc9e49ac	-0.019322239
80	0xbdb9022b	-0.09033617
81	0xbe2c0c53	-0.16801576
82	0x3da32c69	0.07967455
83	0x3b9121d9	0.004429084
84	0xbd99f507	-0.075174384
85	0xbe3b69bc	-0.18302053
86	0xbe5e3606	-0.21700296
87	0xbdafe1ff	-0.08588027
88	0xbe8472c0	-0.25868797
89	0xbd3f9514	-0.04677303
90	0x3d99b7ce	0.07505761
91	0x3e570ef3	0.21001796
92	0xbdc48874	-0.09596339
93	0x3e490af7	0.19633089
94	0x3cc83d71	0.02444336
95	0xbd448dc7	-0.047986772
96	0x3d54f860	0.05199468
97	0x3db13a96	0.086537525
98	0x3d7dccb3	0.061962795
99	0x3e20cbd9	0.15702762

fc2.weight f4 [100, 100]
0	0x3e9ee500	0.31034088
1	0x3f7fe28f	0.99955076
2	0x3f7e344a	0.99298537
3	0xbf604481	-0.8760453
4	0xbf9d0aed	-1.2268959
5	0x3e13c312	0.14429882
6	0xbe868fb7	-0.2628152
7	0xbe13bfec	-0.14428681
8	0x3fafb05f	1.3725699
9	0x3f26f84e	0.6522263
10	0x3e896196	0.26832265
11	0x3f84a089	1.0361491
12	0x3ec35f4b	0.3815864
13	0x3dc50abf	0.0962119
14	0xbfb5f203	-1.4214481
15	0x3c8cfeac	0.01721128
16	0x3f1768d9	0.5914436
17	0x3e725dd1	0.236686
18	0xbf910d87	-1.1332253
19	0xbf38be68	-0.72165537
20	0x3ec0ee2d	0.37681714
21	0xbd66db86	-0.056361698
22	0xbe580e96	-0.21099314
23	0x3f88669e	1.0656316
24	0xbf3346d5	-0.70029956
25	0x3f198996	0.59975564
26	0x3f463bdc	0.7743509
27	0x3e8021ad	0.25025693
28	0x3f95464c	1.1662078
29	0x3ee8a79f	0.45440385
30	0x3e854ef3	0.26036796
31	0x3e9c4e7d	0.30528632
32	0x3f7cdecf	0.9877748
33	0x3fb7f0c4	1.4370351
34	0xbeef1fb5	-0.46703878
35	0x3ea9480a	0.33062774
36	0xbf830f24	-1.0238996
37	0x3fa023df	1.2510947
38	0x3faa9d54	1.3329263
39	0xbf6144bb	-0.879955
40	0x3e496d62	0.19670632
41	0x3fb9f291	1.452715
42	0x3d77721e	0.060411565
43	0xbee0a15b	-0.43873104
44	0x3f8374af	1.0269984
45	0xbe116cd7	-0.14201675
46	0xbfa2489a	-1.2678406
47	0xbfa4062a	-1.2814381
48	0xbcce32db	-0.025170734
49	0xbeb53a52	-0.35396057
50	0xbf46fdb4	-0.7773087
51	0xbfdda361	-1.7315484
52	0x3f8da4db	1.1065935
53	0xbfa2b64c	-1.2711883
54	0x3f00c7fc	0.5030515
55	0x3f1818ff	0.5941314
56	0xbe185ee8	-0.14879954
57	0xbe39fdb4	-0.18163186
58	0x3de9867b	0.11402603
59	0x3d9c31d9	0.07626695
60	0xc0037474	-2.0539827
61	0xbec314ec	-0.381019
62	0xbf94f67f	-1.1637725
63	0x3f17b7cf	0.59264845
64	0xbf0146c0	-0.5049858
65	0x3fc8a008	1.5673838
66	0xc0059ac9	-2.0875723
67	0x3f0283a1	0.509821
68	0x3ea9d39a	0.33169252
69	0x3f9c6374	1.2217851
70	0x3e8d8bd0	0.2764573
71	0x3ea0013d	0.31250945
72	0xbe6709d2	-0.2256234
73	0xbf50b9b8	-0.81533384
74	0x3f5b76a7	0.85727924
75	0xbe93b003	-0.28845224
76	0x3fada89f	1.3567084
77	0xbf2d8ef5	-0.6779626
78	0x3f4ce473	0.80036086
79	0xbea3d604	-0.31999218
80	0x3f1603c8	0.5859952
81	0x3e13835e	0.14405581
82	0xbf4ca85b	-0.7994439
83	0xbe105437	-0.14094625
84	0x3f58f6a5	0.8475135
85	0xbd7d340b	-0.06181721
86	0xbf303913	-0.6883709
87	0x3e7b9387	0.24567996
88	0x3f20af3b	0.6276738
89	0xbe49f144	-0.19720942
90	0x3dfde664	0.12397459
91	0x3ff155e4	1.8854337
92	0xbbfc0d88	-0.0076920427
93	0x3e931985	0.28730407
94	0xbfdcb5cd	-1.7242981
95	0x3ec12845	0.37726036
96	0xbeae8bca	-0.34091026
97	0xbe90c6c0	-0.28276634
98	0x3df785ed	0.12086091
99	0x3f1db906	0.6161045
100	0x3f2abd95	0.6669553
101	0x3ef02b2f	0.46907946
102	0x3f01c02a	0.50683844
103	0xbf08266f	-0.53183645
104	0xbf6ecd60	-0.9328213
105	0xbd151d67	-0.036404993
106	0xbf0b0948	-0.5431104
107	0xc000ab59	-2.0104582
108	0xbf86a7df	-1.051998
109	0xbea657fd	-0.32489005
110	0xbff664b7	-1.9249486
111	0x3ea9fe73	0.33201942
112	0xbf7258f9	-0.9466701
113	0xbfc6d8fd	-1.553497
114	0x3e77c510	0.24196267
115	0xbe875604	-0.26432812
116	0x3f23e29e	0.64017665
117	0x3f05747f	0.52130884
118	0x3f6a1811	0.9144297
119	0x3d1a0bf9	0.037609074
120	0x3f0acb10	0.542161
121	0x3f327f4a	0.6972548
122	0x3e604b10	0.21903634
123	0x3f08fd7a	0.53511775
124	0xbfc92479	-1.5714256
125	0x3fb69ec4	1.4267201
126	0xbe3d95c1	-0.18514158
127	0x3f561c75	0.8363717
128	0xbe8c64b9	-0.27420595
129	0xbf524776	-0.8214029
130	0x3f44f31e	0.7693347
131	0x3f044cdb	0.5167977
132	0xbf1ea1aa	-0.6196543
133	0xbe79c326	-0.2439085
134	0xbf9f3205	-1.243714
135	0x3eed5c9e	0.46359724
136	0x3e690a7b	0.22757904
137	0x3f3dc4b7	0.7412829
138	0xbe03657b	-0.1283168
139	0x3e31b455	0.17353947
140	0x3e8de8ed	0.2771677
141	0xbe61f96c	-0.22067803
142	0xbeb0ca79	-0.34529474
143	0xbe3cae7c	-0.18425936
144	0xbe91f38f	-0.28506133
145	0x3fa7441d	1.3067662
146	0xbd1dd93b	-0.038537245
147	0x3f12cdf4	0.5734551
148	0x4004be4d	2.074115
149	0xbf15d87b	-0.5853345
150	0xbf151fa7	-0.5825142
151	0xbf469933	-0.77577513
152	0xbf3421f2	-0.70364296
153	0x3f1ff807	0.62487835
154	0x3f9c581f	1.2214392
155	0xbf32c8c5	-0.698376
156	0x3ebed1fa	0.37269574
157	0x3ee2c7d9	0.44293097
158	0xbe7e404c	-0.24829215
159	0x3f031456	0.51202905
160	0x3d258304	0.04040815
161	0x3e1fc62b	0.15602939
162	0x3f2b3ab3	0.6688644
163	0x3fe7ddb9	1.8114539
164	0xbfe710d0	-1.8052006
165	0x3df13c1e	0.117790446
166	0x3e802970	0.25031614
167	0x3f86ac76	1.0521381
168	0x3f7a3e6d	0.97751504
169	0xbeacc7fa	-0.3374632
170	0x3e6de65f	0.23232411
171	0x3cc6c3b0	0.024263233
172	0x3f0092b6	0.50223863
173	0xbf1fb46c	-0.62384677
174	0x3f395cf3	0.72407454
175	0xbfd60371	-1.67198
176	0xbdfda75b	-0.12385436
177	0xbf5fa762	-0.8736478
178	0x3f836714	1.0265832
179	0xbb92db98	-0.004481744
180	0x3fb14c0b	1.3851331
181	0xc002139d	-2.032447
182	0x3fe49e00	1.7860718
183	0x3e089927	0.13339673
184	0xbe7911fd	-0.24323268
185	0x3f985a0a	1.1902478
186	0xbf38174e	-0.7191056
187	0x3f57fdcb	0.8437163
188	0x3fcffb93	1.6248649
189	0xbea0c9b4	-0.31403887
190	0x3e066717	0.13125263
191	0xbf8b3d80	-1.0878143
192	0x3f905fdd	1.1279255
193	0x3d2cd7d5	0.04219802
194	0xbe7b1dcc	-0.24523085
195	0xbe8e36a5	-0.27776065
196	0x3e6f1f6e	0.23351833
197	0x3ea8c6e8	0.32964253
198	0xbec5257c	-0.3850516
199	0xbf93af4e	-1.1537874
200	0x400fdca6	2.2478423
201	0x3ee68aa0	0.45027637
202	0x3f3f56f5	0.7474206
203	0x3f99c046	1.2011802
204	0xbf05ce71	-0.5226813
205	0xbf478848	-0.77942324
206	0xbdbb2150	-0.09137213
207	0xbf691a35	-0.91055614
208	0xbf0aa450	-0.5415697
209	0x3f68eda3	0.90987605
210	0x3ed9a46b	0.42508253
211	0x3e730957	0.23734032
212	0x3f424163	0.7588102
213	0xbf602a7e	-0.8756484
214	0xbf0743a9	-0.52837616
215	0x3f2656db	0.6497628
216	0xbf74266d	-0.95371133
217	0xbd57b7eb	-0.052665632
218	0xbeb388f6	-0.3506543
219	0xbf4f0ab2	-0.80875695
220	0x3f704d8e	0.9386834
221	0xbd1801bd	-0.037111033
222	0xbe0a933a	-0.13532725
223	0xbfe2fba4	-1.7733045
224	0xbf20bc80	-0.6278763
225	0xbeee8b9d	-0.4659089
226	0x3fa1fd60	1.2655449
227	0xbf87a92f	-1.0598506
228	0x3e7f1b15	0.24912675
229	0xbe8a2992	-0.2698484
230	0x3ea7250c	0.32645452
231	0xbf02bb2f	-0.5106687
232	0x3ec22e8d	0.3792614
233	0x3f87a0b2	1.0595915
234	0x3f9b5954	1.2136636
235	0x3de9da14	0.11418548
236	0x3f194299	0.59867245
237	0x3e827bc5	0.25485054
238	0x3f2af817	0.66784805
239	0xba963415	-0.0011459613
240	0x3fe0c912	1.7561362
241	0x3f25effd	0.6481932
242	0x3ee141f3	0.43995628
243	0x3f6de357	0.9292502
244	0x3ed59b8a	0.4172023
245	0x3f72a9d8	0.9479041
246	0x3f5948d8	0.84876776
247	0x3eb59cb6	0.35471123
248	0xbf2552a8	-0.6457925
249	0x3f16ab62	0.5885526
250	0xbed09598	-0.4073913
251	0xbfec30c2	-1.845238
252	0x3e3a0cd8	0.18168962
253	0xbf02373b	-0.50865525
254	0xbe6ef619	-0.23336066
255	0xbeb60830	-0.35553122

fc2.bias f4 [100]
0	0xbf9d72db	-1.2300676
1	0xbf209a44	-0.6273539
2	0xbf500f92	-0.8127376
3	0xbfb2f87f	-1.3982085
4	0xbeecf575	-0.4628102
5	0x3ebedecc	0.37279356
6	0x395e40db	0.0002119573
7	0x3fcd64f5	1.6046435
8	0xc0242927	-2.5650117
9	0xbe0d34e7	-0.13789712
10	0xbfcb6869	-1.5891238
11	0x3ea12c64	0.3147918
12	0xbe85adb0	-0.26109076
13	0x3f70a82d	0.94006616
14	0xbfb06cb5	-1.3783175
15	0xbe8f64f7	-0.28006718
16	0xbd8ca0f1	-0.06866635
17	0xbf3c21f6	-0.7348932
18	0xc007346f	-2.1125753
19	0xbf51866f	-0.81845754
20	0xbf0f56ad	-0.5599163
21	0xbfb07fab	-1.3788961
22	0xbf9bce32	-1.2172301
23	0xbfea7391	-1.8316518
24	0xbeb48714	-0.35259306
25	0xbf28d92c	-0.6595638
26	0xbe3eb1cc	-0.18622512
27	0xbf80d1e9	-1.006406
28	0xbf3c5e18	-0.73581076
29	0x3e46de86	0.19420823
30	0xbd8f10ce	-0.06985627
31	0xbebe5038	-0.37170577
32	0x3f6b1d2f	0.91841406
33	0xbf9d8711	-1.2306844
34	0xbf5f887d	-0.8731764
35	0x3eb8f3d5	0.3612353
36	0x3f7db1af	0.9909925
37	0xbf3998b6	-0.72498643
38	0xbf23f4c0	-0.64045334
39	0xbf3c6593	-0.7359249
40	0xc003833b	-2.0548847
41	0xbf8e062d	-1.1095635
42	0xbf93c6b6	-1.1545017
43	0xbfaf9781	-1.371811
44	0xbfa4fa60	-1.2888908
45	0x3e46363b	0.19356625
46	0xbf2b20b2	-0.66846764
47	0x3f3d8f60	0.740469
48	0xbf50a203	-0.8149721
49	0x3f1c0e08	0.6095891
50	0xbf21aea5	-0.6315711
51	0x3e9f6239	0.31129625
52	0xbf6d8e27	-0.9279503
53	0xbf7fd9f5	-0.9994195
54	0xbfedbc24	-1.8573041
55	0xbeddd44d	-0.43326035
56	0xbf28db96	-0.6596006
57	0xbfa1cbb4	-1.264029
58	0xbf1a6d26	-0.603228
59	0xbf1f7b16	-0.6229719
60	0xbf2a860c	-0.6661079
61	0xbfaf2a72	-1.3684828
62	0xbf2c8e25	-0.67404395
63	0xbff6a60d	-1.9269425
64	0xc031b471	-2.7766383
65	0xbf9bae06	-1.2162483
66	0xbe99bb7b	-0.3002585
67	0xbec72435	-0.3889481
68	0x3e33a52c	0.17543477
69	0xbf5b267d	-0.85605603
70	0xc00d22ff	-2.205261
71	0xbe4b1d02	-0.19835284
72	0xc036ebf6	-2.858152
73	0xbf2ceab9	-0.6754566
74	0xbe904933	-0.28180847
75	0xbf0302d2	-0.5117618
76	0xbea54c2b	-0.32284674
77	0xbf382a08	-0.71939135
78	0xbf86253f	-1.0480117
79	0xbe4352b8	-0.19074523
80	0xbf091dc5	-0.5356105
81	0xbf5d1b22	-0.86369526
82	0xbf3efb17	-0.7460188
83	0xbb8067ab	-0.003918608
84	0xbef7bdab	-0.48386893
85	0xbf23ee7f	-0.6403579
86	0xc003dc01	-2.060303
87	0x3d321e8d	0.043486167
88	0xbf90898e	-1.1291978
89	0x3e2343df	0.1594386
90	0xbfa8fc65	-1.3202025
91	0xbe228d31	-0.15874173
92	0x3e0deba8	0.13859427
93	0xbfb1fc74	-1.3905168
94	0xc007f58f	-2.1243627
95	0xbf96bfd1	-1.1777288
96	0xbf2b1160	-0.6682339
97	0xbe09191d	-0.13388486
98	0xbfbdd0ec	-1.4829383
99	0xbf8617e4	-1.0476041

fc3.weight f4 [2, 100]
0	0x3f34420c	0.7041328
1	0xbf37e8d0	-0.7183962
2	0xbf3d126c	-0.73856235
3	0x3f0263a7	0.5093331
4	0xbf155dac	-0.58346057
5	0xbf10aa4d	-0.5650986
6	0xbef5a6ce	-0.47978824
7	0x3eae53b2	0.3404823
8	0xbf31aaf9	-0.6940151
9	0x3f39278d	0.72325975
10	0xbf308fd3	-0.6896946
11	0xbf0f4e37	-0.5597872
12	0x3f307d63	0.68941325
13	0x3e6202ba	0.22071353
14	0x3f5b8fb4	0.8576615
15	0xbf1a1930	-0.60194683
16	0xbf2c73e4	-0.67364335
17	0xbf31f613	-0.69516104
18	0xbef550b9	-0.4791315
19	0xbee77eb5	-0.45213857
20	0xbef21151	-0.47278836
21	0xbf0d9e13	-0.5531933
22	0x3ef122d9	0.470969
23	0xbf2b024e	-0.6680039
24	0x3ea93b6a	0.33053142
25	0x3f22d812	0.6361095
26	0xbf1bc04d	-0.608403
27	0xbf259b16	-0.6468977
28	0x3f3e6e03	0.74386615
29	0xbf025a20	-0.5091877
30	0x3f25649f	0.6460666
31	0x3f25b338	0.6472659
32	0x3eacbbbe	0.33736986
33	0xbf2200f1	-0.63282686
34	0x3f3e777d	0.74401075
35	0xbef04f5f	-0.46935555
36	0x3ebd9bad	0.37032834
37	0xbd2ba5ac	-0.041906044
38	0x3ecd43b8	0.40090728
39	0x3ef4dca5	0.47824588
40	0xbf16a223	-0.5884115
41	0x3f19f25f	0.60135454
42	0x3f158139	0.58400303
43	0x3f1a1415	0.6018689
44	0xbf0909fa	-0.5353085
45	0x3ed883e8	0.42288136
46	0xbda96803	-0.08271792
47	0xbefc4d5c	-0.4927777
48	0xbee7620d	-0.45191994
49	0x3ea85c28	0.3288281
50	0xbed98f72	-0.42492253
51	0x3ed2125e	0.41029638
52	0x3f2455cf	0.64193434
53	0xbf1fb5df	-0.6238689
54	0xbf31684a	-0.6929976
55	0x3f000cdb	0.50019616
56	0x3ef7b289	0.483784
57	0xbee92751	-0.4553781
58	0x3eff3695	0.4984633
59	0xbd9be13e	-0.07611321
60	0x3d55816d	0.052125383
61	0x3ef5776d	0.47942677
62	0x3f116b0a	0.56803954
63	0x3f288a19	0.6583572
64	0x3f3b5112	0.7317058
65	0x3efb85ce	0.49125522
66	0x3f1715f4	0.5901787
67	0xbf17941e	-0.59210384
68	0x3ebfb80e	0.3744511
69	0x3f37c79d	0.7178896
70	0xbf0fd8c0	-0.5619011
71	0x3f18b2b4	0.5964768
72	0x3f18d1ec	0.59695315
73	0xbd95005b	-0.072754584
74	0x3f164810	0.5870371
75	0xbf03f7a3	-0.5154974
76	0x3f04d265	0.51883537
77	0xbf148299	-0.58011776
78	0x3f56f7dc	0.83971953
79	0x3f4b94f2	0.7952415
80	0x3f0f3dec	0.5595386
81	0x3f1ef140	0.6208687
82	0xbf179b69	-0.5922151
83	0xbf2d1f41	-0.67625815
84	0xbf19ef3d	-0.60130674
85	0xbf243470	-0.64142513
86	0x3f454ff4	0.77075124
87	0xbec650ee	-0.3873362
88	0xbf1a8b2d	-0.60368615
89	0x3eea009b	0.45703587
90	0xbef069d8	-0.46955752
91	0xbefac7b0	-0.48980474
92	0xbf29e1df	-0.66360277
93	0x3f257b2a	0.6464106
94	0xbef03263	-0.46913442
95	0x3ec56e8f	0.38560912
96	0xbd699e6c	-0.05703585
97	0x3ece7685	0.40324798
98	0xbf4c4a7c	-0.79801154
99	0xbeb143b3	-0.34621963
100	0xbf103c78	-0.5634227
101	0x3f268315	0.65043765
102	0x3f28f6ac	0.6600139
103	0xbf1b3823	-0.6063253
104	0x3f14fccc	0.5819824
105	0x3ee8311a	0.45349962
106	0x3ee69fee	0.45043892
107	0xbeafa988	-0.3430903
108	0x3f39be07	0.72555584
109	0xbf35fc6c	-0.7108829
110	0x3f1481c7	0.58010525
111	0x3f20c844	0.6280558
112	0xbf18b7dc	-0.5965555
113	0xbebce0cf	-0.36890265
114	0xbf4cf502	-0.8006135
115	0x3f0c8425	0.54889137
116	0x3f299d65	0.6625579
117	0x3f521e28	0.82077265
118	0x3edd9797	0.43279716
119	0x3f038e39	0.5138889
120	0x3ef35589	0.47526196
121	0x3f07290c	0.5279701
122	0xbf0552bb	-0.5207936
123	0x3f303374	0.6882851
124	0xbea95ace	-0.3307709
125	0xbf2a94a2	-0.66633046
126	0x3f0e973d	0.5569952
127	0x3f317ed2	0.6933414
128	0xbf3426b1	-0.7037154
129	0x3eca3f80	0.39501572
130	0xbf110ed5	-0.56663257
131	0xbf3226ec	-0.6959064
132	0xbea39629	-0.319505
133	0x3f286c21	0.6578999
134	0xbf22aa47	-0.6354107
135	0x3ef21669	0.47282723
136	0xbea8c8f3	-0.32965812
137	0xbd2a58a8	-0.041588455
138	0xbee787e7	-0.45220873
139	0xbf1ecb2d	-0.6202877
140	0x3f0c7390	0.54863834
141	0xbf36f109	-0.7146154
142	0xbf1c7e03	-0.6112978
143	0xbf03f4ad	-0.5154522
144	0x3ed66c35	0.4187943
145	0xbedf15c3	-0.4357129
146	0xbdaa8cd7	-0.08327644
147	0x3eb14779	0.34624842
148	0x3eef4d57	0.46738693
149	0xbeb7eb90	-0.35921907
150	0x3f0faf3f	0.5612678
151	0xbee6e03d	-0.45092955
152	0xbf1264fe	-0.5718535
153	0x3f2f3e3b	0.6845433
154	0x3f3a2f28	0.72728205
155	0xbf06832e	-0.52543914
156	0xbedb999b	-0.4289063
157	0x3f00bd66	0.50289
158	0xbf0770c2	-0.5290643
159	0xbda06ff0	-0.078338504
160	0x3d5dd865	0.054161448
161	0xbef999c7	-0.48750135
162	0xbee1d3f9	-0.44107035
163	0xbf32ee0c	-0.6989448
164	0xbf42ccb4	-0.760936
165	0xbf0444b1	-0.51667315
166	0xbf206b3e	-0.6266364
167	0x3f1e5b2b	0.6185786
168	0xbee1c29a	-0.44093782
169	0xbf0b605b	-0.544439
170	0x3ed4c193	0.41553935
171	0xbf179e87	-0.5922627
172	0xbf405441	-0.7512856
173	0xbd8458e1	-0.06462265
174	0xbf166ec7	-0.5876278
175	0x3f0a7414	0.5408337
176	0xbf33e25c	-0.7026727
177	0x3f37ccd0	0.71796894
178	0xbf50205d	-0.8129938
179	0xbf39ad62	-0.72530186
180	0xbf081928	-0.53163385
181	0xbf255014	-0.64575315
182	0x3f132fa6	0.5749458
183	0x3f31c803	0.6944582
184	0x3f1d6c5d	0.61493474
185	0x3f2a7249	0.66580635
186	0xbf3a0f6d	-0.7267979
187	0x3f0a4b7e	0.5402144
188	0x3f39dc2d	0.72601587
189	0xbebf8d34	-0.37412417
190	0x3f039385	0.5139697
191	0x3ef2d8d6	0.47431058
192	0x3f441e1a	0.7660843
193	0xbf381b3c	-0.71916556
194	0x3f18f577	0.5974955
195	0xbebc6b6a	-0.368007
196	0xbd6921f2	-0.05691714
197	0xbed14f54	-0.40880835
198	0x3f2e6a4b	0.6813094
199	0x3ecfc322	0.40578562

fc3.bias f4 [2]
0	0xbfc963dd	-1.5733601
1	0x3fca53f2	1.5806868
