model.ckpt (torch_old, 82625 bytes, 6 tensors)

fc1.weight f4 [100, 100]
000000 00 89 fd 3d 02 56 15 bf bf 2b 08 3f e5 88 cf bf
       0.12379646 -0.5833436 0.5319175 -1.6213652
000010 ff f4 c8 bd b8 a9 30 3f f7 48 6b be 9a c1 80 bf
       -0.09812354 0.6900897 -0.22977053 -1.0059083
000020 c3 5f 75 3f bf a0 10 3f cd 9e 93 be e7 cb c2 bc
       0.95849246 0.5649528 -0.28832093 -0.023778869
000030 06 20 50 bf d7 c2 be 3f bf b0 41 bf ec aa bc bd
       -0.81298864 1.490321 -0.7566032 -0.09212288
000040 5a 5e d2 3e 43 68 3c be a2 d0 00 be 31 58 84 3d
       0.4108761 -0.18399148 -0.12579587 0.06462134
000050 ff 1a 60 be 9c 23 ff 3e db 2f 65 3f 53 f7 cd 3f
       -0.21885298 0.49831855 0.89526147 1.6091102
000060 e4 97 fe 3e 03 9d c8 bf da b0 e0 3f 94 dc 8b bf
       0.49725258 -1.5672916 1.7553971 -1.092669
000070 cd 40 f8 3f dd c3 cb 3e db 37 95 3d 9f 69 cb 3e
       1.9394776 0.3979787 0.07286044 0.3972902
000080 8a b2 96 bf 83 70 b3 3f eb 71 cd bd d3 64 9a 3f
       -1.1773236 1.4018711 -0.10031494 1.2062019
000090 3f 99 be bf e9 41 7e 3f d8 9b 3b c0 7a 33 09 3d
       -1.4890517 0.9931932 -2.931387 0.033496358
0000a0 ac ff eb 3f a3 bc 9f 3f b4 0e 39 3e 5a cc 7f bc
       1.84374 1.2479442 0.18072015 -0.015612686
0000b0 08 e7 aa bd a8 eb 68 3f ca ae fe be 48 9e b2 3e
       -0.08344847 0.9098458 -0.49742728 0.34886384
0000c0 00 9e 82 3f 3d 25 c0 3e ff d0 bf 3e 3a d4 de 3d
       1.0204468 0.3752841 0.3746414 0.10880323
0000d0 77 d6 86 bf 4d c3 ba 3d 80 93 8b bf e1 dc bd bf
       -1.05342 0.09119282 -1.0904388 -1.4833032
0000e0 c7 60 6d 3f c3 d7 ab be fe 04 82 3f ba 94 ad 3d
       0.92725796 -0.3356305 1.0157773 0.08475633
0000f0 e6 8e 00 bf c0 5f a1 3e 33 0f b2 be ce 30 23 bf
       -0.50218046 0.31518364 -0.3477722 -0.63746345
000100 09 40 17 bf f6 22 16 bf e6 72 1e bf 46 0e 96 3e
       -0.59082085 -0.58647096 -0.6189407 0.29307765
000110 39 91 91 3f 7c 48 97 3e 7e 97 21 bf b0 0d f0 be
       1.1372443 0.2954749 -0.63121784 -0.46885443
000120 33 6a 4e bf 4f 14 87 be 5a de aa be 78 37 40 be
       -0.806308 -0.26382682 -0.33372766 -0.1877116
000130 44 f9 3f 3e 85 73 0c 3f 66 33 dd 3e d6 68 96 3f
       0.18747431 0.5486377 0.43203276 1.1750743
000140 cc fc 9a bf 3a 5d bb 3e db 86 7c 3e 43 8e 38 3e
       -1.2108397 0.36594564 0.24660818 0.18023019
000150 a0 0c 6e 3f 8f ae 22 be c2 ae 90 3f db 62 ea 3f
       0.92988014 -0.15886901 1.1303332 1.8311418
000160 56 9a e9 3f 3c 24 98 bf 9e c3 f3 3d 5c 58 94 bf
       1.8250225 -1.1886058 0.119025454 -1.1589465
000170 06 b8 5b 3f 67 91 d3 3f 99 28 8b bf b4 53 c6 3e
       0.8582767 1.6528748 -1.0871764 0.38735735
000180 2b 03 a4 be 00 28 03 3f d8 24 0f 3f 9c 07 3d bf
       -0.32033667 0.5123291 0.55915594 -0.73839736
000190 b2 64 b1 3e 0a 82 61 bd 3c 08 ac 3f 84 d1 b5 bc
       0.34647137 -0.055055656 1.3440013 -0.022194631
0001a0 8c 93 8b 3e 10 2d ce bf e8 7c ef bd 3a d0 d5 bf
       0.27261007 -1.6107502 -0.11693746 -1.6704171
0001b0 33 57 1f 40 04 7b 63 bf f8 5b be 3e 7e 41 68 3c
       2.4896972 -0.8885958 0.37179542 0.014175771
0001c0 c4 01 44 3d 34 ee f8 3e c8 85 c3 bf f6 5f 82 3e
       0.047853246 0.48619235 -1.5275202 0.25463837
0001d0 3a b7 a3 3e 0e 19 34 3e 7d 0e 22 3e fc c3 ab 3f
       0.31975728 0.17587683 0.1582584 1.3419185
0001e0 93 69 83 3d 06 75 ea bf eb 58 07 3e 9d bc f0 be
       0.06416621 -1.8316963 0.13217513 -0.470189
0001f0 75 f1 5a bf 45 d1 5e be 03 a5 a4 3f 36 60 24 bf
       -0.85524684 -0.21759517 1.2862858 -0.64209306
000200 11 34 6f bf d3 e7 0e be 5d fa 91 3e 59 d3 69 be
       -0.9343882 -0.13955621 0.28511325 -0.22834529
000210 6d cb 60 bf 31 23 37 be eb 37 17 bf 05 62 93 be
       -0.87810403 -0.17884518 -0.590697 -0.2878572
000220 21 e0 4a bf 30 a3 5b 3f e9 2e 80 3f 5f d9 6c bf
       -0.79248244 0.8579588 1.0014316 -0.9251918
000230 b1 72 83 be 0a 5c 03 bd cc 72 b0 bf c6 ce 0b be
       -0.2567344 -0.032070197 -1.3785033 -0.13653097
000240 66 b6 1c 3f 8e 10 87 3f 31 7f 05 3f 14 4d ce bf
       0.6121582 1.0551927 0.52147204 -1.6117272
000250 11 03 60 3f 33 e1 39 be 44 be cc 3e 64 9e 84 bf
       0.8750468 -0.18152313 0.3998891 -1.0360837
000260 9e d3 c1 3f d9 3e ac 3f fa 91 a9 be dd a0 a8 be
       1.5142705 1.345668 -0.33119184 -0.3293523
000270 cb a2 8c 3f 2c e2 91 3f f0 c7 44 40 89 dd 2c 3e
       1.098718 1.1397147 3.0747032 0.16881384
000280 38 56 4c 3e 32 8a 4b bf 29 b9 7f bf e3 a5 35 3f
       0.19954765 -0.79507744 -0.99891907 0.7095625
000290 8c b2 3b 3f 66 9c e5 3e 08 23 9b 3d 87 58 27 bf
       0.73319316 0.44845885 0.07575041 -0.65369457
0002a0 7c 96 c4 bd 9a e9 39 3f 7f 99 29 bf 05 66 13 c0
       -0.09599015 0.7262207 -0.6624984 -2.3031018
0002b0 97 cf 14 3f 4e 29 53 bf 9c d0 ba be 10 34 97 3d
       0.58129257 -0.824849 -0.3648728 0.07382977
0002c0 b9 0f c1 3f 8d 51 70 bf f2 0b 9b 3e a7 71 bc 3f
       1.5082923 -0.93874437 0.3028255 1.4722184
0002d0 df ac 15 bf d0 33 6a 3f 24 6e 2f 3d 33 3f 22 40
       -0.58466905 0.9148531 0.042829648 2.5351074
0002e0 0c f5 fc be 3e 05 72 3f 9b 44 ad 3f ca 7c aa bf
       -0.49405706 0.9453925 1.3536562 -1.3319333
0002f0 40 8b 54 be ec bc 33 3d 7c 5c ce 3e db ca 9d bf
       -0.20756245 0.04388134 0.40304935 -1.2327532
000300 fd fd ca 3f b9 5c dd bf eb 76 c8 3e 40 0f 59 bf
       1.5858761 -1.7293922 0.39153227 -0.84788895
000310 a0 11 d2 3f 2b 96 7a 3e 25 bd be bc 2e e5 a2 3f
       1.6411629 0.24471347 -0.02328355 1.272619
000320 63 8b f4 3e 78 27 9e 3f d6 5f d4 be af 55 23 be
       0.47762594 1.2355795 -0.41479367 -0.15950654
000330 58 2a 27 3f 13 34 cc bd 81 3c 16 3f 3c 88 35 be
       0.65298986 -0.0997087 0.5868607 -0.1772775
000340 a2 cd b8 be 1e 50 bc be c7 11 0c c0 9b 22 64 bd
       -0.36094385 -0.36779875 -2.188585 -0.055697065
000350 42 2d a2 bf c7 6d 5e be 5b 0d 1e 3f 8e 53 52 bc
       -1.2670062 -0.21721564 0.6173913 -0.012837304
000360 7d e0 62 3e ee 4a 26 3f af 96 8c bd 75 c4 6e bf
       0.22155948 0.64958084 -0.06864678 -0.9326852
000370 5d 10 20 be 7c 65 63 3e 58 e4 b6 3d 35 67 cd 3e
       -0.15631242 0.22206682 0.08930272 0.40117803
000380 21 a2 94 be db a5 aa 3f dd a3 08 3f a9 a2 de be
       -0.29029945 1.3331865 0.53375036 -0.43483475
000390 0f fc 0e bf 56 18 96 3e c4 e5 40 3f 76 0d 67 3f
       -0.5585336 0.29315442 0.75350595 0.90254915
0003a0 7b e7 1f bf c2 44 89 3d ac 30 44 3f 78 c2 6a bf
       -0.62462586 0.06702568 0.7663677 -0.91702986
0003b0 af 97 6c 3f c0 80 73 bf f4 76 b8 3f 86 ac 9b 3f
       0.9241895 -0.9511833 1.4411302 1.2162025
0003c0 f4 48 d2 3f 4f e7 9a 3f ff 5b 19 3e 8d f7 7a be
       1.6428514 1.210184 0.149765 -0.24508496
0003d0 24 d3 80 3d 5d b3 e4 bc 95 e1 95 3f 0d 56 ea 3e
       0.06290272 -0.027917558 1.1709467 0.45768777
0003e0 34 7c 94 3e d9 1d e5 3f 3f 86 ea 3f a2 61 d1 3f
       0.2900101 1.7899734 1.8322219 1.635792
0003f0 9f 0b d6 3d 3a 30 4e bf 15 92 36 3e 29 c6 1c 3f
       0.10451435 -0.8054234 0.17829163 0.6123987

fc1.bias f4 [100]
000000 e2 17 72 be 0f 15 f8 bd f5 6f 42 bd 52 70 46 bb
       -0.23641923 -0.121133916 -0.04747005 -0.003027935
000010 3e 08 3a be e2 5d f3 3d f6 07 6f 3e 0d 18 7c 3d
       -0.18167207 0.11883141 0.2334288 0.061546374
000020 48 10 e0 bd 30 87 2b 3c 9d 7f 11 3e 7b 7f 8b 3d
       -0.109406054 0.010469243 0.14208837 0.06811424
000030 24 a9 34 3e 46 9f 7a be 47 4c 5d be 1a cf 6c 3c
       0.17642647 -0.2447482 -0.21611129 0.014453674
000040 e1 b6 e9 bd 0b ad af bd 8a 56 68 3b 36 98 f8 bc
       -0.114118345 -0.08577927 0.0035451972 -0.030346017
000050 d3 e3 91 3d 2f c4 04 3e ae 33 a4 be 03 91 ce bd
       0.07123532 0.12965463 -0.32070678 -0.100862525
000060 70 61 06 bd 4d 93 bd bd 6b 98 0c 3d 7e 76 8b bc
       -0.032807767 -0.09256611 0.034325045 -0.017024275
000070 ab 1b 87 3e f1 f7 54 3e a2 7e 54 3d 54 ce 34 3c
       0.26388296 0.20797707 0.05187858 0.011035521
000080 8c dd 43 3d c6 52 87 be 2d e9 e5 3c ae fc 10 3e
       0.047818705 -0.2643034 0.028065288 0.1415889
000090 91 59 a3 bd f0 bf 2f be c7 2b 0e bd 7f ec 27 3e
       -0.07976068 -0.17163062 -0.034709718 0.1639881
0000a0 c5 b4 d7 be 74 91 b9 bc 44 5d a2 bd 03 19 55 3d
       -0.42130104 -0.022652365 -0.07927945 0.052025806
0000b0 ce 35 91 3c 5a 90 0d 3e 18 97 61 bd eb bc db be
       0.017725851 0.13824597 -0.055075735 -0.4291757
0000c0 ab dd 2a 3e b9 17 9a 3d c9 a8 71 be 42 38 cf bd
       0.16686122 0.07524056 -0.23599543 -0.10118152
0000d0 7a ad 90 3d ac 86 b9 be 5d 61 d5 3c 16 77 19 3e
       0.07064338 -0.3623556 0.026047403 0.14986834
0000e0 32 14 40 be 70 61 30 3e 94 b6 3c be 9b e9 fd bd
       -0.18757704 0.1722467 -0.18429023 -0.12398072
0000f0 5d 20 93 be fd c0 23 3e 48 c0 de be 95 ec 13 bc
       -0.2873563 0.15991588 -0.43506074 -0.0090285735
000100 7a 18 0b be f8 70 96 bc 0b 1c 18 be a5 2c da bd
       -0.13583556 -0.018364415 -0.14854448 -0.106530465
000110 41 dc 52 be 1f 5a 4f bd e2 b8 16 be 4b d4 a8 bd
       -0.20591833 -0.050623056 -0.14718965 -0.08243617
000120 19 d0 9e be a5 28 2d be 27 e0 a6 bd 5b 06 af bd
       -0.3101814 -0.16910036 -0.081482224 -0.08546134
000130 ab dc 3c 3e c1 78 89 be 71 9f d7 bc fa e6 4d be
       0.18443553 -0.2684994 -0.026321145 -0.20107642
000140 c2 bd 1c be 8e dd 08 be 49 3f dc bc d9 f6 66 3d
       -0.15306762 -0.13365766 -0.026885645 0.056387756
000150 b7 56 58 be 90 7c c6 bd d8 86 55 bd 26 29 cc 3d
       -0.21126829 -0.09691727 -0.05213055 0.09968786
000160 9e 5f 92 3c 68 c9 51 3e 79 0d 9d 3d 39 72 38 be
       0.01786786 0.20486987 0.07668585 -0.18012322
000170 c9 b6 fb 3c b5 25 e1 3d 0b 96 ac be ae 2c ae be
       0.030726807 0.1099352 -0.33708224 -0.34018463
000180 90 7d 7c be 27 c4 51 be 43 c5 f5 bd 4f 7d 49 be
       -0.24657273 -0.20484982 -0.12000515 -0.19676708

fc2.weight f4 [100, 100]
000000 19 40 7e bf 70 8c 56 bf 50 b4 13 bf 62 fb 50 3e
       -0.99316555 -0.8380804 -0.5769701 0.20408395
000010 81 72 8d be 89 6d 78 be ff c5 8a bf 94 3f aa be
       -0.27626422 -0.24260534 -1.0841674 -0.3325163
000020 be 77 14 bf 68 09 28 3f 89 9e b4 3e ea 72 4f 3f
       -0.5799521 0.6563935 0.35277203 0.8103472
000030 85 63 fe be 36 95 7e bf 9f c5 7c 3f 5e df ff 3d
       -0.49685302 -0.9944643 0.98739046 0.12493776
000040 43 b4 66 bf 26 f2 e7 3e 45 7c bc bd f2 74 ec 3e
       -0.9011881 0.45301932 -0.0920339 0.46182972
000050 70 2c 43 bf 3d 65 bc be e5 f1 c8 be f5 25 5b 3d
       -0.7623968 -0.3679599 -0.3924705 0.053502996
000060 87 6d bc be 97 6d 9d bd df 1f 0e be a0 c4 a3 3f
       -0.36802313 -0.07686918 -0.13879345 1.279438
000070 9f b5 bd bd 49 bd 5d 3f 9f c6 fc be 93 ea 39 39
       -0.09263157 0.8661695 -0.49370286 0.0001773036
000080 8d 34 a6 bd 73 dc 6d bd 7d 02 8b 3f 1d 31 26 bd
       -0.08115492 -0.058071565 1.0860134 -0.04057418
000090 e9 8d 80 bf 2c ae d1 bd a0 87 93 be f3 7b ad 3c
       -1.0043308 -0.10238299 -0.2881441 0.021177268
0000a0 47 3c 9e 3f d8 0f 15 c0 34 6d 69 3e 0e cc ba 3c
       1.2362145 -2.329092 0.22795564 0.022802379
0000b0 a8 c0 82 3e 06 b3 85 bf ab c2 fb be 01 2d 54 3e
       0.2553761 -1.0445259 -0.49171957 0.20720293
0000c0 64 26 bb be f2 1b 4c bd 2f 30 4b 3e 82 0d a0 3f
       -0.36552727 -0.04983134 0.198426 1.2504122
0000d0 25 a5 c5 bf 8e fa 42 3f 56 15 df 3d eb d5 32 3f
       -1.5441023 0.76163566 0.108927414 0.6985766
0000e0 bb 26 81 bd 1d 92 ca 3f a2 c3 83 bf b7 ab c3 3e
       -0.063062154 1.582584 -1.0294077 0.38216946
0000f0 b2 5c 2f 40 82 1d 5e bf ea cb 03 bf 4b 25 a3 be
       2.7400327 -0.86763775 -0.51483023 -0.3186439
000100 0b 57 31 bf 32 98 27 bf 3a 0b ab bd 9b fd 26 bf
       -0.6927344 -0.65466607 -0.08351751 -0.6523072
000110 af 71 ab 3f ce 9e 11 c0 52 e7 21 3e e1 e5 d8 be
       1.3394068 -2.2753177 0.15810898 -0.42362884
000120 b5 9a 49 3f 80 e2 5c 3f b9 db bf bf 8b d6 b8 3f
       0.7875169 0.8628311 -1.4988929 1.4440473
000130 0a b8 10 be f5 73 97 bd 48 90 80 3f 81 34 8b be
       -0.14132705 -0.07395164 1.0044031 -0.27188495
000140 e8 18 03 bf fd aa 15 40 ff 80 47 bf dc 1c d8 bc
       -0.5120988 2.3385613 -0.7793121 -0.026380949
000150 d4 39 a9 bd 00 69 28 bf 23 e2 49 bf a9 54 46 3f
       -0.08262983 -0.6578522 -0.7886068 0.7747293
000160 ac e2 7e bf 01 4c 0c 3f 59 bf 75 be f3 e7 9a be
       -0.99564624 0.5480347 -0.23998775 -0.30255088
000170 e5 ba 8c bf d3 29 ba 3d 80 84 98 3f 4a a8 67 bd
       -1.0994536 0.090900086 1.1915436 -0.056556977
000180 9e 0d f6 3e a3 a6 30 3e 39 d5 1a 3e 66 38 ee 3e
       0.48057264 0.17251067 0.151204 0.46527404
000190 21 64 b5 3f 3f 34 b5 bf b8 df 36 3f 27 64 8b 3e
       1.4171182 -1.4156569 0.7143512 0.27224848
0001a0 10 ef 97 3e 74 bb 40 3f 08 4b 30 3f bb 6d 76 3e
       0.29674578 0.7528603 0.6886449 0.24065296
0001b0 02 3e bb 3f 49 a8 b9 be a7 76 10 be e0 54 e0 be
       1.4628298 -0.36261204 -0.14107762 -0.43814754
0001c0 68 32 13 3f 4b 93 ce bd 70 75 20 be ad fd b7 3c
       0.5749879 -0.10086688 -0.15669799 0.02245983
0001d0 80 14 ca be 11 84 97 3c 24 ad 93 be 44 fb f5 3e
       -0.39468765 0.018495591 -0.28843033 0.48043263
0001e0 3d 93 23 bf 74 90 01 c0 c4 b6 bc bf a7 d0 e1 bf
       -0.6389654 -2.0244417 -1.4743276 -1.7641801
0001f0 bb 2e f2 3e 75 56 0f be 86 c4 55 be 1f e7 7b bf
       0.47301278 -0.13997824 -0.20875749 -0.9839954
000200 82 45 77 be 8b 45 aa bf 1c 87 ef 3d 5d 06 20 bf
       -0.24147609 -1.3302473 0.11695692 -0.6250971
000210 fb 4e 60 bc 91 d0 10 be a6 04 a8 3e fb 22 26 3f
       -0.013690705 -0.14142062 0.32816046 0.64897126
000220 c2 e1 80 bf a3 5f 94 bf 2e 8d 51 3e 97 71 76 bf
       -1.0068896 -1.1591686 0.20464012 -0.96267074
000230 49 a9 51 bf 11 03 99 be d3 a3 26 be 6b 3a 39 3d
       -0.81898934 -0.29885152 -0.16273431 0.045221727
000240 a3 01 64 3f 21 d3 db 3e 80 7c 8e 3e bd 54 b8 3e
       0.89065 0.42934516 0.2782936 0.3600215
000250 8d 21 11 3f 83 50 bc bf 30 03 0e 3f ee bf f6 be
       0.5669182 -1.471207 0.55473614 -0.48193306
000260 21 0b dc 3e 3b 40 5d 3f 31 76 a7 3f a9 e6 0d 3f
       0.4297724 0.8642613 1.3082944 0.55430084
000270 f9 7d 12 bf 81 89 b1 be 59 85 e1 be 85 59 2b bf
       -0.5722347 -0.3467522 -0.4404705 -0.6693347
000280 4e fa 8a bf 3f 4d f9 bd 32 6b 1e be 6d 86 49 be
       -1.0857637 -0.12172937 -0.1547058 -0.19680186
000290 86 97 02 bf 4e ae ce bf eb 72 c2 bf a0 7b 0c bf
       -0.51012456 -1.6146944 -1.519132 -0.54876137
0002a0 7c 76 fa 3e 63 48 b9 bf 96 4f bb 3f ac 93 2d bf
       0.4891852 -1.4475216 1.4633663 -0.67803454
0002b0 cc 92 4b 3f 90 3b f8 3e db d5 48 3e 21 93 4b 3f
       0.7952087 0.48482943 0.1961283 0.79521376
0002c0 7d c8 91 3e 40 53 16 3f fa b0 fc be ac 2d 25 be
       0.28473273 0.5872078 -0.49353772 -0.16130704
0002d0 26 11 87 3d ac 22 71 3f 1a 32 2f 3f b2 db 13 bf
       0.06595068 0.9419353 0.68435824 -0.57757103
0002e0 3d 6a 0a c0 bc 3c d9 3e 86 57 bc bf 36 b3 10 40
       -2.1627343 0.4242915 -1.471421 2.2609382
0002f0 e0 37 25 3c 05 8f f6 3e 69 63 4d 3f e0 c3 53 bf
       0.010084122 0.4815599 0.8022981 -0.82720757
000300 a2 2d fb 3e 52 50 3a 3f ea db 41 bd 35 69 1e bf
       0.49058253 0.7277881 -0.047328867 -0.61879283
000310 c6 33 d9 3f e4 3b a2 bf 0e a9 8e bc 92 75 36 bf
       1.6968925 -1.2674527 -0.017414596 -0.7127315
000320 b0 b0 0d bf d8 9e 04 bf fb 4d fb bd 16 7e 92 bf
       -0.5534773 -0.51804876 -0.12270733 -1.1444728
000330 35 bc 8c 3f 63 07 a3 3f db f1 96 3f 20 74 3f be
       1.0994936 1.2736629 1.1792558 -0.18696642
000340 2d 83 8c 3e 1d eb cf bf e0 ca dc bf f1 ff 0a 3f
       0.2744383 -1.6243626 -1.7249413 0.54296786
000350 20 05 2c bf b9 b8 66 bf 06 7e 10 bf b3 82 bc bf
       -0.6719532 -0.90125614 -0.56442297 -1.4727386
000360 b3 1d ac be 59 19 55 bf c2 0d 0b 3f bb 1a 05 3f
       -0.3361641 -0.832418 0.5431787 0.5199391
000370 8b 4f 8b 3f 0c 76 52 3e a6 e5 d0 3f e1 df f3 bf
       1.088365 0.20552844 1.6320083 -1.9052697
000380 dd c0 8f bf 60 e0 74 3f cc 5a a1 be cc 0c b4 3c
       -1.1230732 0.9565487 -0.31514585 0.021978758
000390 f9 e6 db 3e 84 7e ab bf 5e 99 09 3d 02 9c d2 bd
       0.42949656 -1.3397985 0.033593528 -0.102836624
0003a0 74 5a 92 bf 15 86 c3 3e 73 8e c3 3d b7 70 2b bf
       -1.1433854 0.38188234 0.095486544 -0.66968864
0003b0 75 8e 53 bf 31 bd 74 3e f6 a5 69 bf ae 90 83 3d
       -0.8263925 0.23900296 -0.9126886 0.0642408
0003c0 46 14 1f bf 0f 7c 76 bf cc fc 1c bf 04 a1 ed be
       -0.6214031 -0.9628305 -0.6132324 -0.46411908
0003d0 af 6c 98 be f4 bf a2 3f 31 3d cb be 67 5c 7a be
       -0.2977042 1.271483 -0.39695123 -0.24449311
0003e0 c4 ac a3 be f3 90 e5 be 06 f3 6f 3f 8f b7 62 bf
       -0.31967747 -0.4483715 0.937302 -0.8856134
0003f0 9c a1 2b c0 90 42 42 3f 19 8c 0e bf 79 fd 94 3e
       -2.6817389 0.75882816 -0.5568252 0.29099634

fc2.bias f4 [100]
000000 c5 c6 e6 bf 54 6a 17 c0 93 e9 b4 bf ad ec a2 bf
       -1.802941 -2.3658648 -1.4133781 -1.2728478
000010 51 0b 78 bf 2a 53 4b be 74 d6 00 c0 9c e8 31 bf
       -0.9689227 -0.19855943 -2.0130892 -0.6949556
000020 1e 79 52 bd 28 68 98 be a3 cd 87 bf 20 1e db bd
       -0.051385038 -0.29766965 -1.060963 -0.10699105
000030 10 b4 88 bf 42 02 fd bf 03 22 1a bf c9 0f a6 3f
       -1.0679951 -1.9766314 -0.6020815 1.2973567
000040 9f 84 85 be e0 6d 45 bf 26 01 84 3f 64 54 bd bf
       -0.26077744 -0.7712078 1.031285 -1.4791379
000050 31 ba c4 bf 2f 6f 10 bf fa b9 b2 bf 04 65 77 3f
       -1.5369321 -0.5641965 -1.3963006 0.9663851
000060 c8 cb 57 bf 79 f1 a0 bf 76 87 64 3e ca ab 0b 3c
       -0.8429532 -1.2573692 0.22317299 0.008524844
000070 46 e0 82 bf 27 c7 76 be 0c e3 ec bd 7c 57 8b bf
       -1.0224693 -0.24099408 -0.11566743 -1.0886073
000080 1f ed c7 bf ac c5 8d 3e f4 96 34 bf d9 2b 3c bd
       -1.5619239 0.27689874 -0.70542836 -0.045940254
000090 ff b9 b8 bf 2d 3a 85 bf 0f bb be be e8 66 27 bf
       -1.4431762 -1.0408379 -0.3725209 -0.653914
0000a0 19 ac 09 c0 89 1b 2f bf 2a 4d 32 bf 2f 5e d5 3c
       -2.151129 -0.6840139 -0.69648993 0.026045887
0000b0 4d dd bb bf f8 c0 e5 bf 0d 15 99 bf 48 1f 67 3f
       -1.4676911 -1.7949514 -1.1959549 0.90282106
0000c0 18 55 e7 bf ca e8 ca bf 4b cb a4 bf df 34 50 3f
       -1.8072844 -1.5852292 -1.287454 0.81330675
0000d0 5f 3c c5 be c3 96 45 be a0 51 27 bf 05 c0 81 bf
       -0.38522622 -0.19295792 -0.65358925 -1.0136725
0000e0 f9 02 24 bf ba 3d 90 bf f7 01 4f bf 5d 4a a6 bf
       -0.64067036 -1.1268837 -0.80862373 -1.2991444
0000f0 22 04 4d bf ca b8 20 bf a2 06 57 3f 1f ce 4d bf
       -0.8008443 -0.62781966 0.83994496 -0.8039264
000100 7c fe 07 bf 35 7b 33 bf 8f f3 35 3f 7c 19 20 bf
       -0.5312269 -0.70109874 0.71074766 -0.62538886
000110 64 8f 38 bd 1b 4b aa bf 1a 7a 22 c0 30 66 a4 be
       -0.045058623 -1.330417 -2.5387025 -0.32109213
000120 32 63 c3 bf 53 90 a0 be 2d 2b 9c bf 7c f4 de be
       -1.5264647 -0.3136011 -1.2200676 -0.43545902
000130 fb d5 a2 bf ba d1 65 3e b0 af ac bf f7 4f ab bf
       -1.2721552 0.22443286 -1.3491116 -1.3383778
000140 e3 08 31 bf fb 9c 10 bf 93 6e 06 c0 97 38 1b bf
       -0.69154185 -0.56489533 -2.100499 -0.60633224
000150 de 9f 8a 3d fa dd 4b bf e5 f9 0b be 51 fa 0d c0
       0.067687735 -0.79635584 -0.13669546 -2.218403
000160 e9 49 93 bf ac 1b 6a bf a8 66 fa be 57 1c 11 bf
       -1.150693 -0.91448474 -0.48906446 -0.5668387
000170 fb 2e 63 bf 6d 57 1f bf 89 f4 7f 3f 98 e7 1c bf
       -0.8874356 -0.62242776 0.99982506 -0.61290884
000180 cb 15 c6 3e c2 b3 c7 bf 2c f9 85 3d 8f cc 76 be
       0.38688502 -1.5601733 0.065416664 -0.2410147

fc3.weight f4 [2, 100]
000000 30 60 18 bf ea 47 40 bf 5a 5e 12 3f 21 88 12 3f
       -0.5952177 -0.7510973 0.5717522 0.57238966
000010 5b c4 03 bf 8a 9c 0b 3f 58 3c 38 3f 4c 46 55 3f
       -0.5147149 0.54535735 0.7196708 0.8331039
000020 f6 8e 04 bf 27 61 7f 3e 11 32 54 3f b7 48 04 bf
       -0.5178064 0.24939404 0.82888895 -0.51673454
000030 02 59 55 3f 2c 86 01 3f ac 45 03 bf 92 87 dd 3e
       0.8333894 0.50595355 -0.51278186 0.43267494
000040 a1 3b 35 bf 07 e4 2f 3f c5 d0 e2 3e 6b 24 42 bf
       -0.7079411 0.6870732 0.44299904 -0.7583682
000050 7c 6a 03 bf 71 54 c2 3e d1 09 ee 3e ab 12 e4 3e
       -0.5133436 0.3795505 0.46491864 0.44545493
000060 f2 28 ce 3e 04 3d 2f bf ca 07 04 bf df 85 a1 be
       0.40265614 -0.6845248 -0.51574385 -0.31547448
000070 02 5c 44 3f 3e 77 81 3e 1a 87 dd 3e 63 0c 1c bf
       0.7670289 0.25286287 0.43267137 -0.609564
000080 b8 46 06 bf f0 5f 0c 3f aa c1 15 3f 97 ce f2 3e
       -0.5245166 0.5483389 0.5849863 0.4742324
000090 7f 2b 20 bf 27 3e 3a bf 6e f8 ed be c2 b6 84 3d
       -0.6256637 -0.72751087 -0.464786 0.06480171
0000a0 ea 94 20 3f 9e 28 99 bc a0 7d 03 3d 2b eb ed 3e
       0.62727225 -0.018696126 0.032102227 0.4646848
0000b0 6d 4d df 3e a2 84 0d 3f 3e 16 a1 3e 8e ab 19 bf
       0.4361376 0.55280507 0.31462282 -0.60027397
0000c0 a2 2e 35 bf ce 46 0d 3f 77 23 16 bf ab f3 0b 3f
       -0.7077428 0.55186164 -0.58647865 0.5466868
0000d0 0a e4 02 bf 23 f4 31 3f 56 14 1c 3f cd 04 4c 3f
       -0.5112921 0.6951315 0.6096853 0.79694825
0000e0 41 5a 8b 3d bd e7 2b 3f 7b ff d5 3e bf dc 92 3e
       0.06804324 0.6715048 0.4179648 0.2868404
0000f0 ee c2 1c bf f0 d5 c5 3e 3a 6a 2d 3f a5 bb d9 be
       -0.6123494 0.38639784 0.67740214 -0.42525974
000100 97 ee f5 3e 7b bd 3e bf 43 92 48 bf 8f 1d 08 3d
       0.48033592 -0.74507874 -0.7834818 0.033231314
000110 45 a6 0b bf 8d aa 14 bf ce 6c 1c bf 77 7c e0 3e
       -0.5455058 -0.5807274 -0.6110352 0.4384496
000120 c5 91 0e 3f 69 84 db 3e ba 1a 14 3f b9 0d 1b bf
       0.55691177 0.42874458 0.5785328 -0.60567814
000130 ed b7 09 bf 29 ef e3 3e cd 8d 39 bf 2e a5 c4 3e
       -0.53796273 0.44518402 -0.72481996 0.38407272
000140 54 4a eb be 10 5b 36 bf bb 76 02 bf a7 ee 15 3c
       -0.45955145 -0.712327 -0.5096242 0.009151137
000150 35 75 00 3f ee 9e 22 3f 87 78 78 3e 07 60 64 bf
       0.50178844 0.6352376 0.24264728 -0.89209026
000160 ee 81 2e bf aa 70 0b 3f da 71 15 bf d0 30 0f 3f
       -0.68167007 0.54468787 -0.5837685 0.55933857
000170 fd 16 19 bf 48 59 8f bd 1d 93 0c bf ea 8b 86 bc
       -0.598007 -0.06999451 -0.5491198 -0.016424138
000180 b4 9e 02 3f cc 42 30 bf dc cc 1f 3f 4e 5e 3a 3f
       0.5102341 -0.68851924 0.62421966 0.7280015
000190 0b 5e 28 3f 8b d4 2b 3f 27 61 f2 be 92 86 11 bf
       0.657685 0.6712119 -0.47339746 -0.56845963
0001a0 ca 8a 07 3f 6a 9f 17 bf 16 fb 30 bf a6 72 37 bf
       0.5294615 -0.5922762 -0.69133127 -0.71659315
0001b0 f1 b1 07 3f 3e 73 8a be f9 b2 64 bf 2d ec ea 3e
       0.5300589 -0.27041048 -0.8933559 0.45883313
0001c0 eb 94 2c bf 1c b7 dd be 27 71 c7 3e 4c 03 e0 be
       -0.6741473 -0.43303764 0.38953516 -0.43752515
0001d0 e0 92 1a 3f 58 ce 23 bf b8 48 ec be 09 5a 27 3f
       0.60380363 -0.6398673 -0.4614923 0.6537176
0001e0 a1 bf 0d 3f 14 b3 cb be e3 31 0b bf 8c 75 dd be
       0.5537053 -0.39785063 -0.54372996 -0.43253744
0001f0 98 76 d3 be 67 45 5a 3f bf 30 c4 3e 66 b2 db 3e
       -0.41301417 0.8526215 0.3831844 0.42909545
000200 00 da 4b bf 97 d3 a7 be 30 65 ea be 24 b8 ea 3e
       -0.79629517 -0.32778618 -0.45780325 0.45843613
000210 98 8a 0f 3f 96 20 34 bf 92 9f 29 bf f2 4a cd be
       0.5607085 -0.7036222 -0.6625911 -0.4009624
000220 b7 51 18 3f 7a 7a 2a 3f ff e2 07 3f bb e5 8a 3d
       0.59499687 0.66593134 0.53080744 0.06782099
000230 cf a1 09 bf fd 50 b7 bc 7d 1c e5 3c c9 74 06 bf
       -0.53762525 -0.022377485 0.027967686 -0.5252195
000240 cb 16 07 bf 81 41 06 bf 12 a1 a8 be 8c 89 06 3f
       -0.52769154 -0.524437 -0.32935387 0.5255363
000250 b2 b7 10 3f a4 22 06 bf 44 37 1e 3f 07 9e 2c bf
       0.56530297 -0.5239661 0.6180308 -0.6742863
000260 61 12 f6 3e 36 95 1c bf 11 d7 21 bf cc 3e 67 bf
       0.48060897 -0.6116518 -0.6321879 -0.90330195
000270 38 0e 84 3d c6 49 46 bf f6 8e 03 bf 27 8f 87 be
       0.064480245 -0.7745632 -0.51390016 -0.26476404
000280 c5 ce 3f 3f c8 3f d0 be 6d 9f 2f bf f9 cf 0b 3f
       0.7492488 -0.4067366 -0.6860264 0.54614216
000290 e5 72 1a bf 81 b7 34 3f 51 6c 2c 3f 2b 56 16 3d
       -0.60331565 0.70592505 0.6735278 0.03670327
0002a0 ea 74 07 3f f0 e4 32 3f 61 7d 33 3f 89 61 de be
       0.5291277 0.6988058 0.7011319 -0.43433788
0002b0 f8 08 26 bf d0 6c c4 be d0 6a 04 bf 1a 90 0f 3f
       -0.64857435 -0.38364267 -0.5172548 0.56079257
0002c0 76 e7 1e 3f 45 e9 ed be 49 5a 2b 3f 14 d4 f2 be
       0.6207193 -0.46467033 0.6693464 -0.47427428
0002d0 e5 5b 00 3f d9 08 37 3f cc 6d 27 3f 8a a7 90 3b
       0.5014022 0.71497875 0.6540191 0.0044145035
0002e0 72 ff e5 be 32 bb 4b bf 86 22 84 be 05 80 60 3f
       -0.44921452 -0.7958251 -0.2580759 0.8769534
0002f0 25 d1 19 3f 6c aa 28 bf 7b 94 07 3f 14 77 e0 be
       0.60084754 -0.65885043 0.5296094 -0.4384085
000300 b0 b0 12 3f 81 d9 a9 bd 59 c4 18 3f bd 49 52 bc
       0.57300854 -0.08293439 0.596746 -0.012834963
000310 6b dd 0e bf e0 09 40 3f ab 60 16 bf cd 77 0a bf
       -0.55806607 0.7501507 -0.58741254 -0.5408905

fc3.bias f4 [2]
000000 39 17 b0 3d 16 db bb bd
       0.08598179 -0.09172647
