model_True_False.ckpt (torch_old, 82571 bytes, 6 tensors)

fc1.weight f4 [100, 100]
0.05782958 0.04047311 0.031847112 0.09345449 0.07097099 -0.007007882 0.048226364 0.0746023
0.02902884 -0.07631886 -0.098179296 -0.074529946 0.09860966 0.037295662 -0.015877582 -0.0010415092
-0.0026968494 -0.022288784 -0.082470894 -0.004177794 0.039222784 -0.031081878 -0.012442626 -0.049203373
-0.04193896 0.028264247 0.05863469 -0.061645593 -0.021195672 0.07538659 0.03929139 0.097653456
-0.020027176 -0.018870816 0.055174254 -0.03289918 0.07430885 -0.09200326 0.050779484 0.04006899
-0.022545516 -0.09230354 0.01960858 0.07621797 -0.021305561 -0.0651025 0.09952847 -0.020072661
0.0006937161 0.007303968 -0.012765169 0.05456055 -0.0213537 0.09437775 0.09658942 -0.017339602
-0.024124682 0.030597813 -0.092728436 0.001664564 0.03188225 -0.061605107 0.040725507 -0.089958966
0.025223978 0.014796875 0.08849824 0.058462746 0.077501334 0.03208699 -0.036824986 0.014227495
0.064112 0.06115859 0.083907895 0.008093223 0.056563728 -0.05220729 0.021159708 0.045354284
-0.010115147 0.015854262 0.04790146 -0.007111892 -0.03184229 0.003211394 0.01643525 -0.05000302
-0.009685934 -0.06281427 -0.029059947 -0.073597535 0.005442664 0.043297537 0.06532671 -0.053459097
0.05561138 -0.09791344 0.09917285 0.054595597 0.032185562 0.012338184 0.06643938 -0.023543417
0.083012335 0.07028971 -0.0329087 0.083859466 -0.08381158 -0.02746804 -0.051307797 0.0671225
-0.0008080825 -0.015470192 0.08148038 -0.061532747 0.09983421 -0.009646609 0.090520985 0.017708503
0.032560773 -0.0037866235 0.054624774 0.04743702 -0.0207958 -0.034396328 -0.027509764 -0.05390972
-0.040428616 0.07309175 -0.047077324 -0.0057906136 0.089178376 0.003762439 0.026710875 0.06903025
0.03150303 0.06606021 0.034935452 -0.09023597 -0.014281549 -0.023843005 0.05503363 -0.09945843
0.031790428 0.024656974 0.07779714 -0.064208135 -0.014913656 0.08591876 -0.07201654 0.08981199
0.053338416 0.022614852 0.04420892 0.018555678 -0.06365834 -0.04579849 -0.07439526 0.026756741
-0.07358314 0.06565448 -0.06063521 0.031202637 0.08670979 0.06715504 0.08326913 0.022904016
0.085542925 0.016726136 0.04327234 -0.044525255 0.007908687 0.073441215 0.004736617 0.04144878
-0.09256017 -0.03900956 -0.06075847 -0.081617534 -0.031250402 0.050616108 -0.062105026 0.09627124
-0.047891583 -0.030809663 0.08981789 -0.060050156 -0.06809141 0.05262483 -0.09537307 -0.07033317
0.03580048 0.018687919 0.037077285 -0.09750543 0.08799333 -0.040226437 0.030588739 0.074293666
0.052689202 -0.071183 0.07997424 -0.035946652 0.021051668 -0.06799135 0.008258559 -0.07919823
0.0012176856 0.0244025 -0.04813197 0.0003952831 -0.0044274777 0.0060577765 -0.043606926 0.07147514
0.03841705 -0.014545277 0.08299766 0.010562979 0.06380991 -0.04337884 0.041050337 -0.07119016
-0.05232363 0.075700365 -0.005139254 -0.02149669 -0.025486708 -0.05335368 0.030713983 0.032208018
-0.058345985 -0.08315476 0.06470349 0.053508364 0.07319666 -0.08022255 0.048048206 0.0052938834
-0.025347367 0.047063462 -0.04329697 0.020033166 0.051551007 0.010312296 0.08986891 -0.075236104
-0.04419893 -0.09573912 -0.014202215 -0.052276384 0.034330912 0.062868066 -0.06178241 0.07280981
00000000: b6de 6c3d 22c7 253d 1e72 023d 1165 bf3d
00000010: 3d59 913d 60a2 e5bb 0289 453d 17c9 983d
00000020: e4cd ed3c 104d 9cbd 3a12 c9bd 28a3 98bd
00000030: ddf3 c93d 56c3 183d b411 82bc 4083 88ba
00000040: a0bd 30bb f896 b6bc 80e6 a8bd e0e5 88bb
00000050: 12a8 203d 6c9f febc 28dc 4bbc 7a89 49bd
00000060: 30c8 2bbd 6c8a e73c ee2a 703d 1780 7cbd
00000070: 8ca2 adbc 4964 9a3d 02f0 203d 89fe c73d
00000080: 0810 a4bc f896 9abc 66fe 613d 4ac1 06bd
00000090: 3d2f 983d 356c bcbd 26fe 4f3d 621f 243d
000000a0: 60b1 b8bc a309 bdbd 2ca2 a03c 2b18 9c3d
000000b0: 0089 aebc 7654 85bd 95d5 cb3d 6c6f a4bc
000000c0: 80da 353a 2056 ef3b 0025 51bc e27a 5f3d
000000d0: f4ed aebc 1f49 c13d add0 c53d c80b 8ebc
000000e0: 20a1 c5bc 44a8 fa3c 68e8 bdbd 802d da3a
000000f0: f696 023d a355 7cbd cacf 263d 683c b8bd
00000100: 84a2 ce3c 986e 723c 913e b53d a276 6f3d
00000110: 05b9 9e3d a66d 033d ccd5 16bd 701a 693c
00000120: 274d 833d 6e81 7a3d e7d7 ab3d 7099 043c
00000130: 5eaf 673d 50d7 55bd 2057 ad3c 6ac5 393d
00000140: 00ba 25bc cce0 813c 5234 443d e00a e9bb
00000150: 106d 02bd 4076 523b 38a3 863c f7cf 4cbd
00000160: c0b1 1ebc c5a4 80bd 200f eebc 4eba 96bd
00000170: 6058 b23b c258 313d 03ca 853d edf7 5abd
00000180: c2c8 633d d786 c8bd 231b cb3d a29f 5f3d
00000190: 02d5 033d 1826 4a3c 5f11 883d 20de c0bc
000001a0: 5f02 aa3d 0df4 8f3d 46cb 06bd 83be ab3d
000001b0: 68a5 abbd a804 e1bc 2028 52bd 8577 893d
000001c0: 80d5 53ba b076 7dbc 2fdf a63d c309 7cbd
000001d0: e175 cc3d d00c 1ebc 1163 b93d 6c11 913c
000001e0: 725e 053d 0029 78bb 3abe 5f3d 524d 423d
000001f0: f45b aabc 2ae3 0cbd 285c e1bc 70d0 5cbd
00000200: 7a98 25bd 21b1 953d 27d4 40bd 30bf bdbb
00000210: 27a3 b63d 4093 763b c4d0 da3c bb5f 8d3d
00000220: 5209 013d 934a 873d 7a18 0f3d a3cd b8bd
00000230: 28fd 69bc 6852 c3bc f26a 613d ddb0 cbbd
00000240: ae36 023d 6cfd c93c 1b54 9f3d 8e7f 83bd
00000250: 6858 74bc 2df6 af3d 687d 93bd 59ef b73d
00000260: 6279 5a3d c842 b93c 6a14 353d 1402 983c
00000270: 4e5f 82bd 3397 3bbd 8b5c 98bd f430 db3c
00000280: c2b2 96bd db75 863d a05c 78bd ac9c ff3c
00000290: e794 b13d 9588 893d 0189 aa3d 34a1 bb3c
000002a0: 2131 af3d 4005 893c 563e 313d 1d60 36bd
000002b0: 7093 013c 5968 963d a035 9b3b 32c6 293d
000002c0: 3090 bdbd 7dc8 1fbd e0dd 78bd 1827 a7bd
000002d0: 6c00 00bd d652 4f3d d761 7ebd db29 c53d
000002e0: f729 44bd 8c64 fcbc 71f2 b73d 27f7 75bd
000002f0: 8273 8bbd 228d 573d f552 c3bd d60a 90bd
00000300: 86a3 123d 6817 993c 5ade 173d edb0 c7bd
00000310: d935 b43d 7ac4 24bd 3c95 fa3c 4727 983d
00000320: a2d0 573d 65c8 91bd 89c9 a33d cc3c 13bd
00000330: 8c74 ac3c 0d3f 8bbd e84e 073c ae32 a2bd
00000340: c09a 9f3a c0e7 c73c 0726 45bd 003e cf39
00000350: 6014 91bb 5080 c63b 2d9d 32bd 8f61 923d
00000360: 325b 1d3d 504f 6ebc adfa a93d 5810 2d3c
00000370: c5ae 823d 03ae 31bd 6624 283d 26cc 91bd
00000380: 4d51 56bd cb08 9b3d 3067 a8bb d419 b0bc
00000390: 80c9 d0bc 6389 5abd e49b fb3c 8eec 033d
000003a0: 33fc 6ebd 0b4d aabd 4383 843d 962b 5b3d
000003b0: 21e8 953d b84b a4bd 32ce 443d 5078 ad3b
000003c0: 48a5 cfbc 9ec5 403d 2a58 31bd 981c a43c
000003d0: 2627 533d e8f4 283c 310d b83d 6315 9abd
000003e0: f009 35bd df12 c4bd 68b0 68bc c31f 56bd
000003f0: 929e 0c3d f9c0 803d 8d0f 7dbd 4f1d 953d

fc1.bias f4 [100]
-0.03424392 0.07184634 -0.051180877 -0.021216795 -0.054898407 -0.015218735 -0.08024944 -0.095302515
0.004121922 0.002514258 0.0205822 -0.097480595 -0.06128749 0.07491485 -0.030614756 0.034246154
0.028986372 0.097688176 0.068854205 0.048897184 0.05184736 -0.00626646 -0.094135754 0.09821484
-0.06565616 -0.039155092 -0.030885056 0.040160544 -0.028834246 0.013413891 0.038982056 -0.05276972
0.030710228 -0.05369356 0.04364898 -0.07397778 0.0350981 0.0148734 0.037703194 0.046868987
-0.042205572 -0.03529431 0.08579797 -0.05527247 0.018626094 0.023948982 0.041712232 0.022812389
0.09172047 0.042649753 -0.028847374 0.073303096 0.049573936 0.025995098 -0.09473071 0.051330186
-0.07727399 -0.022112451 0.089325644 0.055373617 -0.03402988 -0.049917903 0.066807024 0.0017754883
0.06866322 0.07170791 0.08772903 0.06692656 -0.022935763 -0.015493609 -0.025814258 0.031331815
-0.03343849 -0.07744913 -0.02373533 -0.051677883 0.050736554 0.08210612 0.05878783 0.09423696
0.003787361 0.086845286 -0.04328226 0.07981286 0.020092987 -0.05667422 0.05065102 0.043279715
-0.0051135197 0.08206361 -0.002879575 -0.034781836 0.015352607 -0.026270762 0.005692221 -0.08141699
0.070354916 -0.09497837 0.034316786 0.07222112
00000000: 5a43 0cbd 2d24 933d 0aa3 51bd d8ce adbc
00000010: 27dd 60bd 0058 79bc d259 a4bd f72d c3bd
00000020: 3011 873b 40c6 243b 009c a83c e8a3 c7bd
00000030: 9708 7bbd f56c 993d cccb fabc b245 0c3d
00000040: d474 ed3c bd10 c83d 6f03 8d3d 6a48 483d
00000050: e65d 543d e056 cdbb 3fca c0bd dd24 c93d
00000060: bd76 86bd 1761 20bd a802 fdbc 627f 243d
00000070: cc35 ecbc f0c5 5b3c a6ab 1f3d 1025 58bd
00000080: 0494 fb3c c7ed 5bbd 46c9 323d aa81 97bd
00000090: 06c3 0f3d 90af 733c aa6e 1a3d b2f9 3f3d
000000a0: c0df 2cbd c490 10bd d9b6 af3d 6365 62bd
000000b0: c095 983c a830 c43c 72da 2a3d 0ce1 ba3c
000000c0: f1d7 bb3d 82b1 2e3d 5451 ecbc ef1f 963d
000000d0: 0a0e 4b3d acf3 d43c 2d02 c2bd 9a3f 523d
000000e0: d341 9ebd 2c25 b5bc 5df0 b63d 72cf 623d
000000f0: ea62 0bbd b776 4cbd 1fd2 883d 80b7 e83a
00000100: 4d9f 8c3d 99db 923d 47ab b33d cb10 893d
00000110: c8e3 bbbc e8d8 7dbc 6c78 d3bc ca55 003d
00000120: ccf6 08bd a69d 9ebd 9870 c2bc 30ac 53bd
00000130: 22d1 4f3d 4127 a83d 82cb 703d 4fff c03d
00000140: 6035 783b f1db b13d bd48 31bd ed74 a33d
00000150: 0c9a a43c 3a23 68bd 7277 4f3d 1246 313d
00000160: 508f a7bb f710 a83d 40b7 3cbb 6677 0ebd
00000170: 8089 7b3c c835 d7bc d085 ba3b f3bd a6bd
00000180: 3d16 903d 0584 c2bd c28f 0c3d abe8 933d

fc2.weight f4 [100, 100]
-0.09343987 -0.0692343 0.03219042 -0.06592628 -0.087152384 0.061914183 -0.027390167 -0.08535433
-0.015589334 0.020121373 0.028372355 -0.06277088 -0.08823248 -0.026760623 -0.09916414 -0.057593882
0.007209979 0.015703164 -0.06647602 0.01992841 0.0709471 0.0687414 0.043016143 -0.076003194
-0.022445299 -0.079261556 -0.0007462129 -0.0154652 -0.019931868 0.0058355182 -0.07152231 0.08618433
0.0021264702 -0.09238117 -0.051179122 0.051335014 -0.076559685 0.011941932 -0.08999719 -0.04338188
0.06903807 0.06785033 -0.010116056 -0.034372404 0.032117106 -0.076810494 0.0890582 -0.038357165
0.092569254 -0.035439968 -0.08372096 0.004058376 -0.036588088 -0.006347932 -0.028505407 0.09400316
0.047009505 0.015264429 0.09048606 0.048162185 -0.01900407 0.0038559288 0.03919942 -0.055344976
-0.015745595 -0.06953864 0.07518155 0.09730942 0.08436199 0.013909422 -0.045745205 0.00394015
0.030141555 -0.08749827 -0.07341907 -0.09129478 -0.08716148 -0.03649942 0.053411253 0.01653117
-0.00052298605 -0.021429501 -0.053582918 0.026732333 0.020105228 0.020215333 0.008282065 0.072580986
-0.050906956 -0.03689997 0.033985667 0.052666463 -0.041900992 0.012083314 -0.034443572 -0.03389535
-0.025578395 -0.098718785 -0.043792617 -0.086850405 0.05070906 0.055247672 -0.07850506 -0.010487691
0.067422576 -0.07572262 0.000451006 0.08314266 0.08742476 0.04328128 -0.039978243 0.04671002
0.034767844 -0.02920793 0.009461179 -0.02592554 0.028462507 -0.049227227 0.063365795 -0.00059747696
-0.08885852 -0.010802947 0.0035822764 0.080840595 -0.08176343 -0.00040843338 0.07071785 0.002801299
0.080850996 0.097052105 -0.067224756 -0.029554203 0.045047067 -0.07757676 0.040650077 -0.056171488
0.027316742 -0.033676878 -0.03240174 -0.0048714653 0.077231295 0.070270605 0.0010605305 -0.04382789
-0.035794698 -0.0990712 -0.053660393 0.09431013 0.067535795 -0.0030956045 0.004365884 0.031320088
-0.035789765 0.053199835 0.04010842 -0.06495184 0.06281858 0.0524086 0.063035525 0.04767526
0.08850964 -0.0017760843 0.062363543 -0.09825994 0.097386785 -0.072396554 -0.06379518 0.064370535
-0.07871568 -0.09270213 -0.07903675 -0.037135802 -0.04476372 -0.09671252 -0.052274287 0.06921167
0.023011662 -0.033163942 0.056425534 -0.04031248 -0.097052716 -0.028219484 0.008042052 0.043783434
0.0318818 0.05632197 0.082239754 -0.03736081 0.050336502 -0.03416004 -0.03584323 -0.051396575
-0.07762666 -0.015274063 0.030212872 0.04151941 -0.038849797 0.036434613 0.0024207085 -0.08632215
0.0572614 -0.07704868 0.067012824 0.037763186 -0.07981048 0.040489145 0.029287703 -0.06440529
-0.051000547 -0.03724104 0.055834495 0.04101754 0.06439979 0.045105062 0.0111159235 -0.03252399
0.047073193 0.062240534 -0.0185467 0.01379697 0.0013979897 -0.026050314 0.061920203 -0.045637634
-0.081521794 0.07855827 0.031754978 0.06401587 0.012637362 -0.08477503 0.025188766 0.09860764
-0.017057024 0.08935412 0.02852676 -0.03883797 -0.011275627 -0.052527606 0.045206256 -0.012669012
0.024728797 -0.04541458 0.09244076 -0.028176092 -0.0007882342 -0.045090474 -0.056915548 -0.016510561
0.05227501 -0.055946004 -0.023788452 -0.00075004995 -0.08450266 -0.027428865 -0.01438757 -0.07974555
00000000: 675d bfbd b6ca 8dbd 1ada 033d 5c04 87bd
00000010: f37c b2bd ba99 7d3d 5861 e0bc 40ce aebd
00000020: 686a 7fbc 94d5 a43c 246d e83c 058e 80bd
00000030: 3bb3 b4bd 1839 dbbc 9216 cbbd 90e7 6bbd
00000040: b041 ec3b eca3 803c 9424 88bd e840 a33c
00000050: b74c 913d 4bc8 8c3d b231 303d 90a7 9bbd
00000060: 34df b7bc e253 a2bd 809d 43ba c061 7dbc
00000070: 2848 a3bc e037 bf3b 4a7a 92bd 6981 b03d
00000080: 405c 0b3b 5732 bdbd 33a1 51bd aa44 523d
00000090: 53cb 9cbd 18a8 433c 7250 b8bd 33b1 31bd
000000a0: d563 8d3d 1df5 8a3d d0bd 25bc 14ca 0cbd
000000b0: 3a8d 033d d24e 9dbd 2564 b63d 671c 1dbd
000000c0: f394 bd3d 8029 11bd e575 abbd 20fc 843b
000000d0: 64dd 15bd 5002 d0bb 2c84 e9bc bb84 c03d
000000e0: 0a8d 403d a817 7a3c c150 b93d b645 453d
000000f0: 6cae 9bbc c0b3 7c3b 928f 203d 6ab1 62bd
00000100: e8fc 80bc 466a 8ebd c9f8 993d 294a c73d
00000110: fbc5 ac3d 58e4 633c 535f 3bbd 601c 813b
00000120: 6ceb f63c 4b32 b3bd bd5c 96bd c2f8 babd
00000130: b881 b2bd 6a80 15bd c2c5 5a3d 606c 873c
00000140: 0019 09ba ec8c afbc c379 5bbd c4fd da3c
00000150: b8b3 a43c a09a a53c 80b1 073c 57a5 943d
00000160: d083 50bd 6c24 17bd 8e34 0b3d cab8 573d
00000170: 60a0 2bbd 18f9 453c b414 0dbd dad5 0abd
00000180: c889 d1bc 132d cabd e35f 33bd a0de b1bd
00000190: 4eb4 4f3d 624b 623d 43c7 a0bd 90d4 2bbc
000001a0: d914 8a3d 7614 9bbd 0075 ec39 b346 aa3d
000001b0: c10b b33d b647 313d 3ac0 23bd 0253 3f3d
000001c0: ba68 0e3d 7845 efbc 1003 1b3c cc61 d4bc
000001d0: 342a e93c 7da2 49bd edc5 813d 00a0 1cba
000001e0: 75fb b5bd d8fe 30bc a0c4 6a3b c18f a53d
000001f0: 9673 a7bd 0023 d6b9 85d4 903d 0096 373b
00000200: 3595 a53d 41c3 c63d 22ad 89bd a81b f2bc
00000210: 4683 383d 90e0 9ebd b280 263d 1314 66bd
00000220: 5cc7 df3c c4f0 09bd b0b7 04bd d0a0 9fbb
00000230: 712b 9e3d 09ea 8f3d 8001 8b3a e084 33bd
00000240: 769d 12bd d7e5 cabd 00cb 5bbd ab25 c13d
00000250: 3550 8a3d a0df 4abb b00f 8f3b 7e49 003d
00000260: 4a98 12bd 12e8 593d ba48 243d 7805 85bd
00000270: 07a7 803d 66aa 563d c518 813d 2247 433d
00000280: 8b44 b53d 80cb e8ba ea70 7f3d 823c c9bd
00000290: b972 c73d a544 94bd 0ca7 82bd b3d4 833d
000002a0: b035 a1bd 9dda bdbd 05de a1bd b61b 18bd
000002b0: 2a5a 37bd 3711 c6bd 901d 56bd d9be 8d3d
000002c0: f482 bc3c ead6 07bd 761e 673d b31e 25bd
000002d0: 93c3 c6bd 8c2c e7bc d0c2 033c 4256 333d
000002e0: 7e96 023d deb1 663d 516d a83d a607 19bd
000002f0: a62d 4e3d 66eb 0bbd 5ad0 12bd 3785 52bd
00000300: bafa 9ebd 1040 7abc fc80 f73c 4210 2a3d
00000310: f720 1fbd 763c 153d c0a4 1e3b abc9 b0bd
00000320: ee8a 6a3d b3cb 9dbd 053e 893d 92ad 1a3d
00000330: ad73 a3bd f2d7 253d c4ec ef3c ece6 83bd
00000340: f3e5 50bd 108a 18bd b6b2 643d 0202 283d
00000350: 09e4 833d 16c0 383d 901f 363c e037 05bd
00000360: d2cf 403d eeef 7e3d 40ef 97bc b00c 623c
00000370: c03c b73a 7867 d5bc 0aa0 7d3d 87ee 3abd
00000380: e6f4 a6bd 29e3 a03d 8211 023d c11a 833d
00000390: f00c 4f3c 889e adbd ac58 ce3c cdf2 c93d
000003a0: 2cbb 8bbc 4bff b63d f4b0 e93c 9014 1fbd
000003b0: 68bd 38bc 3027 57bd 322a 393d b091 4fbc
000003c0: 0c94 ca3c a304 3abd 9551 bd3d 8cd1 e6bc
000003d0: 80a1 4eba cab0 38bd 4720 69bd 2841 87bc
000003e0: 521e 563d a327 65bd 00e0 c2bc 009f 44ba
000003f0: bb0f adbd 80b2 e0bc d8b9 6bbc a351 a3bd

fc2.bias f4 [100]
-0.04278505 0.099728666 -0.03671883 -0.025668263 -0.076986626 -0.096906774 -0.03604541 -0.036554277
-0.029802263 -0.0095169395 -0.032476783 -0.06471346 0.039407395 -0.008775577 0.0385757 -0.025602922
0.07732896 0.003800176 -0.009660505 0.0035911947 0.021437965 0.029150821 0.05686886 -0.023757592
-0.08939382 0.02135551 0.02483157 -0.05533394 0.074634545 -0.018407248 0.08271063 0.09534299
-0.028641917 -0.09141176 0.010488808 0.09217089 -0.06397362 0.031615682 0.005889401 0.078248866
-0.013112605 0.030818664 -0.00032488257 0.059730224 0.092305444 0.08723111 -0.05169029 -0.038331795
0.02251158 -0.033805415 0.027323477 -0.08635928 0.09476144 -0.0014461875 0.06331814 -0.02538266
-0.094735526 0.090793796 -0.0040321797 -0.006420672 -0.016235627 0.014168955 0.019690596 0.08508588
0.027355917 0.046251886 -0.0739729 -0.0047046915 0.02932667 -0.028082326 0.07940505 -0.05670437
-0.003006041 0.069009505 -0.04691117 0.043055885 0.08764348 -0.07401649 0.031898327 0.06612987
-0.04790738 0.041004144 -0.07187714 0.048850916 0.07222194 0.038693897 -0.07661247 -0.083521046
0.034625567 -0.013589643 -0.07497142 0.089841194 0.088900395 0.062629394 0.0046070814 -0.08237126
-0.026745059 -0.09446346 -0.08783509 0.037162326
00000000: 603f 2fbd 8b3e cc3d 7c66 16bd 4046 d2bc
00000010: 2aab 9dbd 0f77 c6bd 5aa4 13bd f0b9 15bd
00000020: e023 f4bc f0ec 1bbc 6006 05bd 7e88 84bd
00000030: a669 213d 70c7 0fbc 8e01 1e3d 38bd d1bc
00000040: a55e 9e3d 600c 793b 1847 1ebc 405a 6b3b
00000050: ac9e af3c b4cd ee3c 52ef 683d 489f c2bc
00000060: 1b14 b7bd c0f1 ae3c 946b cb3c d7a5 62bd
00000070: ffd9 983d ccca 96bc 3164 a93d 2f43 c33d
00000080: 74a2 eabc 1736 bbbd 40d9 2b3c 17c4 bc3d
00000090: 9a04 83bd 727f 013d e0fb c03b f140 a03d
000000a0: 40d6 56bc 6c77 fc3c 0055 aab9 aea7 743d
000000b0: a30a bd3d 39a6 b23d 33b9 53bd cd01 1dbd
000000c0: 346a b83c 8c77 0abd 7cd5 df3c 22dd b0bd
000000d0: 4912 c23d 008e bdba f1ac 813d 4cef cfbc
000000e0: b304 c2bd 19f2 b93d 6020 84bb 8064 d2bb
000000f0: 9400 85bc e824 683c 2c4e a13c 8141 ae3d
00000100: 8419 e03c 9e72 3d3d 1b7f 97bd d029 9abb
00000110: 7c3e f03c e80c e6bc 1d9f a23d d742 68bd
00000120: 0001 45bb db54 8d3d ed25 40bd 5e5b 303d
00000130: 6d7e b33d f595 97bd d2a7 023d 196f 873d
00000140: 873a 44bd f6f3 273d 5234 93bd e617 483d
00000150: 19e9 933d 7e7d 1e3d 00e7 9cbd 150d abbd
00000160: 8ad3 0d3d 18a7 5ebc 9e8a 99bd a9fe b73d
00000170: 6911 b63d d743 803d 00f7 963b 43b2 a8bd
00000180: 7418 dbbc 0f76 c1bd e2e2 b3bd 8637 183d

fc3.weight f4 [2, 100]
-0.090364866 -0.038857996 -0.07804501 -0.03062354 0.0151757 -0.014982209 0.043072008 -0.023418799
-0.027643226 0.08373695 0.078674294 -0.031975806 0.009606399 -0.0023956299 0.031947203 -0.040724885
0.031587385 -0.063597694 -0.037372433 0.05481919 -0.058228385 -0.033482 -0.00088945776 0.07655238
0.0045384914 0.052209027 0.02893155 0.06781464 -0.058048714 -0.061198425 -0.020332716 -0.005244337
-0.0103065 0.03560538 0.08789288 0.069556914 0.016227305 0.0831219 -0.017302215 -0.06917107
0.04128123 0.076170646 -0.08409295 -0.015491366 0.07876816 -0.053928103 0.046501763 0.0998357
0.021253988 0.08758175 0.0327952 -0.04074767 -0.014035329 0.076617055 0.08940803 0.0046738833
-0.08647589 -0.087678805 -0.008804537 0.02740676 -0.092473626 0.03423571 -0.07256188 0.08542637
-0.026896343 -0.016649008 0.08174891 -0.022265114 -0.049250018 0.08296288 0.0040198937 -0.07060687
-0.068771884 -0.0939829 -0.010758594 -0.068713576 0.04034912 0.074546866 0.06230218 -0.0025752336
0.052784227 0.035084553 -0.036027253 0.08114091 0.0013891682 -0.067892715 0.062086128 0.06213165
0.03506384 -0.08122232 -0.0514696 -0.026105046 -0.069494165 0.08621467 -0.05150261 -0.048865497
-0.025622264 -0.0372449 -0.06960593 0.09168894 0.09198538 -0.014341652 -0.07913762 0.0004086867
0.085550375 0.07518148 -0.08716706 0.06139522 0.07575748 0.01938355 0.00052684546 0.027175792
-0.08580054 -0.06904636 -0.039369762 -0.063236214 -0.051193368 0.062259294 0.047175474 -0.03242477
-0.0511907 -0.07310313 0.0008250624 -0.055953182 0.0471654 -0.054442286 -0.08711964 0.08971622
0.03310121 -0.040842842 -0.095842555 0.013656631 -0.030159153 -0.020637251 -0.05090591 0.024315968
-0.08374963 -0.025258161 -0.007662162 0.048883207 0.043071263 -0.08062434 -0.08580853 -0.022095226
-0.0880513 0.09617197 -0.090818964 -0.076447465 -0.03375981 -0.07179338 0.06430147 0.07944795
0.08485804 0.05210959 0.060399108 -0.096737005 -0.0035230666 -0.08156972 -0.0035291687 -0.09668968
0.07340766 -0.05826099 0.0646136 0.022569075 -0.024141848 0.0014392287 0.06672657 0.020747446
-0.07215546 -0.030463934 0.06869272 -0.082293056 0.09648637 0.069123216 -0.042503726 -0.07800795
-0.0473361 -0.07191832 0.022076048 -0.013056025 -0.064657345 0.03417284 -0.012608111 -0.025115356
0.06500227 0.07273137 -0.035189375 -0.05631436 0.03750802 -0.03465627 -0.07252133 -0.08640168
-0.04583335 0.06735007 0.07380768 0.08725328 -0.09080484 0.09374111 -0.010240838 0.06623515
00000000: 3711 b9bd 9029 1fbd 10d6 9fbd 38de fabc
00000010: 80a3 783c f077 75bc 466c 303d c8d8 bfbc
00000020: 0c74 e2bc 477e ab3d fd1f a13d 10f9 02bd
00000030: 2864 1d3c 0000 1dbb 12db 023d 23cf 26bd
00000040: c661 013d 823f 82bd d613 19bd 168a 603d
00000050: e380 6ebd 6c24 09bd 802a 69ba 7fc7 9c3d
00000060: a0b7 943b 22d9 553d dc01 ed3c 67e2 8a3d
00000070: 7dc4 6dbd 33ab 7abd cc90 a6bc b0d8 abbb
00000080: 98dc 28bc f2d6 113d 2f01 b43d db73 8e3d
00000090: 20ef 843c d13b aa3d 60bd 8dbc 90a9 8dbd
000000a0: 8216 293d 5bff 9b3d ed38 acbd 80cf 7dbc
000000b0: 3351 a13d b7e3 5cbd a278 3e3d a976 cc3d
000000c0: d81c ae3c 0f5e b33d 4254 063d 07e7 26bd
000000d0: 70f4 65bc 67e9 9c3d 8f1b b73d 6027 993b
000000e0: 451a b1bd f290 b3bd e840 10bc 2484 e03c
000000f0: d062 bdbd be3a 0c3d 539b 94bd 05f4 ae3d
00000100: b855 dcbc 8063 88bc f96b a73d 5465 b6bc
00000110: 63ba 49bd 71e8 a93d 50b9 833b 569a 90bd
00000120: 46d8 8cbd 1b7a c0bd d044 30bc b4b9 8cbd
00000130: 1e45 253d 07ac 983d 9230 7f3d 40c5 28bb
00000140: 4634 583d d2b4 0f3d 5091 13bd 352d a63d
00000150: c014 b63a 560b 8bbd 064e 7e3d c27d 7e3d
00000160: 1a9f 0f3d e357 a6bd cad1 52bd 40da d5bc
00000170: f552 8ebd 5191 b03d 67f4 52bd 3027 48bd
00000180: c8e5 d1bc 1c8e 18bd 8e8d 8ebd 69c7 bb3d
00000190: d562 bc3d 40f9 6abc e812 a2bd 0045 d639
000001a0: 0935 af3d bff8 993d a584 b2bd 8e79 7b3d
000001b0: bd26 9b3d 40ca 9e3c 001c 0a3a c49f de3c
000001c0: 32b8 afbd 2e68 8dbd 3042 21bd fd81 81bd
000001d0: 23b0 51bd 9a03 7f3d 123b 413d d6cf 04bd
000001e0: 57ad 51bd 18b7 95bd 0049 583a 2a2f 65bd
000001f0: 8230 413d e0fe 5ebd c86b b2bd 23bd b73d
00000200: 2295 073d d34a 27bd 1a49 c4bd 10c0 5f3c
00000210: 5410 f7bc 740f a9bc b782 50bd 4832 c73c
00000220: ed84 abbd 34ea cebc e012 fbbb c239 483d
00000230: 7e6b 303d 601e a5bd 62bc afbd 0c01 b5bc
00000240: 3d54 b4bd cff5 c43d 4bff b9bd 7d90 9cbd
00000250: ba47 0abd 6808 93bd 7db0 833d 9bb5 a23d
00000260: 0dca ad3d de70 553d 0e65 773d 0d1e c6bd
00000270: 40e3 66bb 060e a7bd a049 67bb 3d05 c6bd
00000280: c156 963d 13a3 6ebd 2354 843d c8e2 b83c
00000290: 20c5 c5bc 80a4 bc3a f1a7 883d 8cf6 a93c
000002a0: 3ec6 93bd 808f f9bc c5ae 8c3d 4389 a8bd
000002b0: a59a c53d 7990 8d3d 6318 2ebd a2c2 9fbd
000002c0: 80e3 41bd ea49 93bd d4d8 b43c f0e8 55bc
000002d0: 126b 84bd d2f8 0b3d 4092 4ebc b8be cdbc
000002e0: e91f 853d 2ff4 943d bc22 10bd e3a9 66bd
000002f0: 02a2 193d bcf3 0dbd 1086 94bd 5df3 b0bd
00000300: c0bb 3bbd d5ee 893d 7b28 973d d9b1 b23d
00000310: e3f7 b9bd 57fb bf3d 30c9 27bc 4ba6 873d

fc3.bias f4 [2]
0.0756999 -0.06076478
00000000: 8d08 9b3d 7de4 78bd
