scripts/embeddings/umap/ppi_as_w2v_umap.npy (npy, 716456 bytes, 1 tensors)

array (column-major) f4 [89541, 2]
00000000: 4c63 81c0 49c5 81c0 c07b 92be 2b71 86be
00000010: c8bd 78be 8ee2 79be 3fbd acbe d68e e73e
00000020: 1191 993f 3155 903f 48f5 453f f813 fd3e
00000030: d2cf 19bf 2c2f 1fbf 1611 ddbe 69f4 8b3f
00000040: 2fa1 853f b6c7 823f e1a6 ff3f 8db8 7f40
00000050: cac4 8140 e5d9 7f40 4482 7b40 ce41 7340
00000060: 470d 01c0 772d 04c0 ddcd 0fc0 d805 1ac0
00000070: 8bd8 1dc0 a982 29c0 b103 44c0 6eee 47c0
00000080: b42a 4bc0 e783 3fbf c39b 3440 4d75 3c40
00000090: d934 3740 5c29 3740 f510 bdbf ae42 b0bf
000000a0: 8302 a3bf b594 a4bf 2fe9 6bbf ef1d 83bf
000000b0: 12ce 8cbf a86d a3bf 132b 08c0 8804 0ac0
000000c0: 2e75 09c0 a261 f6bf 2e51 86bf aa2e 653f
000000d0: 3b01 a33f 5c8c a73f 5b00 ab3f 355d bc3f
000000e0: c1ac ba3f ddab b33f 9e6e a73f 11bb 8f3f
000000f0: 4b19 933f 39e5 973f 70ca 9a3f 62d8 843f
00000100: 0020 893f 78f3 8a3f 67b4 8b3f 0ff2 8dbe
00000110: 2c79 95be 764e 2abe 05bb 41be a51a b33e
00000120: ea9b ad3e cab6 e83e 3ab6 0d3f 57fe 353f
00000130: bdf7 2a3f 84ea d73e 1706 183e b9a1 fa3d
00000140: eda5 89be 92be c0be a991 9bbf 6526 a8bf
00000150: df20 00c0 ffe0 07c0 9e88 e23e f7a3 173f
00000160: 8ac4 2b3f 58d7 2e3f 5464 273f c30c 1f3f
00000170: 9727 aa3e 031f a23e f917 743e 6f23 353e
00000180: 4336 353c 4c43 3fbe b49c bcbe 3be0 d9be
00000190: 389e 83be 737a 81be fdfc 8ebe a2d0 89be
000001a0: 1829 39be da06 e1ba dcb3 9440 ed9d 9540
000001b0: 9ffe 9540 3ac3 9640 9e8e 2c40 4136 1f40
000001c0: 68b4 1d40 92b0 2640 20bd 1d40 c8d4 1c40
000001d0: ed9e 1e40 5651 5640 926f 5940 3193 5b40
000001e0: 6d93 5640 b601 5040 5723 4c40 acc9 4b40
000001f0: ec01 4b40 3249 8540 8588 8f40 b826 9240
00000200: be5e 9040 f87e 8c40 bd5a 2340 2795 0b40
00000210: 11f3 afbf 3876 c4bf f672 ccbf a7bb a8bf
00000220: bfb3 0340 92b5 1140 401e 1440 dff6 0f40
00000230: 7477 be3f 6112 703f 9b89 703f 044b c5bd
00000240: 6ada e6bd f22a 29be 35ae 2fbe 8165 0ebe
00000250: f633 1d40 c470 1f40 4ab2 1940 f0ee 2040
00000260: 5f9f 0d40 6e75 f93f c798 d13f 5465 a23f
00000270: fad3 04bf bb72 6dbf d95c 5bbf 725f 7ebf
00000280: 66a4 afbf 63df adbf f271 bbbf 3583 b8bf
00000290: a595 cdbf 4081 e8bf 3d1c dfbf c6b0 e3bf
000002a0: fccc cdbf adea c8bf 58c4 89bf 9f6c 96bf
000002b0: ab69 a6bf 7151 afbf 869c b7bf 5534 b0bf
000002c0: 489a abbf b6e9 933e fb54 0f3f 4d05 033f
000002d0: 6015 c93e 93bb 6040 a12b 6140 0e37 5f40
000002e0: 8ad1 5940 7d3e 25c0 6cb3 39c0 e897 3cc0
000002f0: c819 39c0 3148 3cc0 149f 35c0 d3b8 1fc0
00000300: 7fc9 4bbf 8b35 0dbc f5bc 3d40 cd59 4540
00000310: 6d3c 4c40 fc4a 5040 f22c 3d40 80ac 5d3f
00000320: 53c9 263f 9865 1a3f 710d 233f 0647 273f
00000330: 74f1 e83e 00a9 f73d 82e5 3f3e 7b61 ce3e
00000340: 64b9 8240 7593 8740 9660 8a40 3cc5 8b40
00000350: 6d5e 8b40 f927 dbbf 4868 cdbf 1d41 4a40
00000360: 747f 6640 92b9 6540 ab4b 6940 5bb7 5f40
00000370: cc5d 563f a789 a3bf 4108 98bf da74 87bf
00000380: 354c 5cbf 4fd5 26bf b21c a13f 3703 b33f
00000390: 9848 a73e 672a 403d 22cb 833e 6ec0 2fc0
000003a0: 78b4 4ac0 d66e 51c0 0074 4fc0 cd9b 4ec0
000003b0: f0c2 42c0 b1a3 c6bf 7951 cebf 2dff d5bf
000003c0: 6f2c dabf 120d ecbf 9f5f ebbf 0b7b debf
000003d0: 6ac5 bfbf 696f d0bf 425c cabf 31fe dbbf
000003e0: 759e d2bf f39f bebf f7fa b5bf d45d a5bf
000003f0: 8daf 7fbf 7a7a 34bf 5a37 94bf 6229 a2bf
-4.043371 -4.0553327 -0.2861004 -0.26258215 -0.24291146 -0.2440283 -0.33738133 0.45226163
1.1997396 1.1275998 0.77327394 0.49429297 -0.60082734 -0.62181354 -0.43177098 1.0933963
1.0439814 1.0217197 1.9972802 3.995639 4.055272 3.9976742 3.9298258 3.8008914
-2.0164354 -2.065275 -2.24694 -2.4066067 -2.4663417 -2.6485999 -3.0627253 -3.1239276
-3.1744814 -0.7481064 2.822007 2.9446595 2.8626006 2.8618994 -1.47708 -1.3770349
-1.2735142 -1.2857882 -0.92152685 -1.024351 -1.1000388 -1.276784 -2.127629 -2.1565266
-2.147777 -1.9248545 -1.0493524 0.8952433 1.273475 1.3089709 1.3359483 1.4715945
1.458397 1.4036824 1.3080633 1.1228963 1.1492094 1.1866828 1.2093029 1.0378535
1.0712891 1.0855551 1.091443 -0.2772374 -0.2919401 -0.16631493 -0.18918999 0.34981266
0.33908015 0.45451957 0.5535618 0.71091217 0.6678427 0.4217111 0.14846073 0.122378774
-0.26884404 -0.37645394 -1.2153827 -1.3136717 -2.0020063 -2.1231077 0.44244856 0.59234565
0.6709677 0.6829734 0.65387464 0.6212885 0.3323333 0.31664285 0.2383727 0.17689298
0.0110603 -0.18678015 -0.36838305 -0.42553887 -0.2570665 -0.25288734 -0.2792739 -0.26916987
-0.18082082 -0.001716818 4.6469555 4.675528 4.6873317 4.7113314 2.6962047 2.4876864
2.4641361 2.604527 2.4646683 2.4504871 2.47845 3.3487144 3.3974347 3.4308589
3.3527482 3.2501044 3.189657 3.184184 3.1719923 4.165185 4.485415 4.5672264
4.511565 4.390499 2.5524132 2.1809785 -1.3746053 -1.5348577 -1.5972583 -1.3182267
2.0578458 2.2767072 2.3143463 2.2494428 1.4880204 0.93778044 0.9395997 -0.09633449
-0.11272128 -0.16520289 -0.17156298 -0.13905908 2.4562964 2.4912577 2.401507 2.5145836
2.2128522 1.9488962 1.6374749 1.2687173 -0.5188595 -0.9275319 -0.8568855 -0.9936439
-1.3722045 -1.3583797 -1.4644148 -1.4415041 -1.6061293 -1.8164444 -1.7430493 -1.7788322
-1.6078181 -1.5696617 -1.0763044 -1.1751899 -1.3000997 -1.3696729 -1.4344642 -1.376597
-1.3406458 0.28889245 0.55989045 0.51179963 0.3927412 3.5114486 3.518288 3.4877353
3.4034142 -2.581939 -2.901576 -2.9467716 -2.8921986 -2.9419062 -2.8378344 -2.4956558
-0.79604334 -0.008618723 2.964658 3.083606 3.191188 3.2545767 2.9558682 0.8659134
0.65150946 0.6031127 0.63692385 0.6534275 0.45496714 0.12092781 0.18739894 0.40308747
4.0851307 4.23675 4.3242903 4.3678265 4.3552766 -1.7121574 -1.6047449 3.1602242
3.6015291 3.5894513 3.6452434 3.4955661 0.8373687 -1.2776383 -1.1877519 -1.0582535
-0.8605378 -0.65169233 1.2586882 1.3985356 0.32672572 0.046915438 0.25740916 -2.74612
-3.167265 -3.27239 -3.241455 -3.2282593 -3.043148 -1.5518705 -1.6118613 -1.6718498
-1.704481 -1.8441489 -1.8388556 -1.73813 -1.4982121 -1.6284 -1.5809405 -1.7186948
-1.6454607 -1.4892563 -1.4217213 -1.2919259 -0.99877244 -0.70499384 -1.1579392 -1.2668879
